AIS2024-RTSR/pretrained_model/light_safmnpp.pth (torch, 538077 bytes, 24 tensors)

to_feat.weight f4 [32, 3, 3, 3]
000000 88 04 cc 3d 4b 74 09 bd 12 16 bd 3d f8 ca cb bd
       0.09961802 -0.03355817 0.09232725 -0.099508226
000010 bc 56 0d bf b1 b7 b1 bd 56 7b a4 3d c5 38 7b bd
       -0.5521047 -0.086776145 0.08031337 -0.061333437
000020 b2 2a eb 3d 2a fd 52 be 47 21 8c 3e 75 94 72 be
       0.11482753 -0.20604387 0.2736914 -0.23689444
000030 f5 78 bf 3e c4 a4 4b 3f b1 13 4e 3e f6 6b 3a be
       0.3739697 0.7954829 0.20124699 -0.18205246
000040 9f d9 1a 3e 00 89 6b be 70 ac 12 3e b4 a6 d0 bd
       0.15122078 -0.2300148 0.14323592 -0.10188046
000050 1c c5 49 3e 0b 87 19 be 29 1b 3a bf b1 dc 4c bd
       0.19704098 -0.14992921 -0.72697693 -0.050015155
000060 2e 11 f8 3d 01 92 06 bd 68 c3 c0 3d 5b ab 94 3b
       0.12112652 -0.032854084 0.09412271 0.0045370287
000070 77 55 2f be 88 a3 97 3d 74 3a b1 3d 61 d5 bc 3d
       -0.17122446 0.07404238 0.08653727 0.09220386
000080 4b f8 8e 3c 66 ee 6d bd ef 16 cd 3d 7d ab 1b be
       0.01745238 -0.058088683 0.1001414 -0.15202136
000090 c5 49 be 3c 4c 84 0c bc f6 fc 02 be 1f f5 3e 3d
       0.023228535 -0.008576464 -0.1279181 0.046620484
0000a0 93 cf 19 3d c5 c2 29 3e 0e f6 bd bd 3e 95 8a bd
       0.037551474 0.16578205 -0.09275447 -0.06766747
0000b0 33 b5 9e 3c 03 98 bf bb 3c dc 28 3e 50 38 25 3d
       0.019373512 -0.0058469786 0.16490263 0.040336907
0000c0 fc 65 15 be 0f 84 ec bd fa 3e 2b be 59 32 23 3e
       -0.14589685 -0.11548626 -0.16723242 0.15937175
0000d0 01 eb 01 bd 88 88 ea 3d a8 1d 96 bd 94 05 80 bd
       -0.031718258 0.114518225 -0.07329875 -0.06251064
0000e0 c3 00 d3 3c 2d 8f 06 be 9f 28 03 3f 8f 3c e2 3d
       0.0257572 -0.13140555 0.5123386 0.11046707
0000f0 b5 ee 53 be 6a 13 c4 bd 64 f2 eb bd 43 79 00 3e
       -0.20696528 -0.095740154 -0.11520842 0.12546258
000100 e1 9b d1 3d 4a 55 1d 3c b9 b3 8b bd 31 d8 8b be
       0.1023481 0.009602854 -0.06821389 -0.27313378
000110 07 ac 5d be 5d 4a 0e 3e 5c 45 e5 3d 27 28 a9 3d
       -0.21647654 0.13895555 0.1119487 0.082596116
000120 37 4b a5 bd 2b 8c 80 bc c9 d7 8f bc ee 1f 6c 3e
       -0.08070987 -0.015691837 -0.017558949 0.23059055
000130 25 e2 8d be d8 0f be 3d e9 57 af 3d 75 1f 30 bd
       -0.27711597 0.09280366 0.085616894 -0.04299875
000140 72 78 51 3d c1 45 0b 3e c8 ba 06 bd ab 98 d9 bd
       0.051140256 0.13600828 -0.032892972 -0.10624822
000150 4b 64 91 3e f2 ff ac be 22 27 ac bc cc 08 3d 3d
       0.2839683 -0.3378902 -0.021014754 0.046150967
000160 d8 39 1d bd ab 73 8a 3d 33 9c 7e bd a2 cc 50 3e
       -0.038385242 0.06760343 -0.062160682 0.20390561
000170 cd 5b 9b 3d dc 17 c1 bd 53 18 a7 3d a6 34 d3 3d
       0.07585869 -0.09428379 0.08158936 0.10312776
000180 04 d6 fc bd 20 9b b6 bd ad d9 d4 bd 28 be c0 bd
       -0.12345508 -0.089163065 -0.10393081 -0.094112694
000190 ae 4a 2a be 09 20 3e 3d 61 84 38 be 83 52 70 3e
       -0.1663005 0.04641727 -0.18019249 0.23468976
0001a0 43 a4 ae bd d6 b5 99 3d a8 08 23 3e de cb c3 3c
       -0.08527424 0.075053856 0.15921271 0.023900922
0001b0 ce f4 14 3c ee 36 bb 3c ce f3 8c bb 36 0d f2 3a
       0.009091569 0.022853341 -0.0043015247 0.0018467072
0001c0 8f 91 31 3e 21 6d c1 bd 6e d3 cd bc b3 08 f0 bd
       0.17340682 -0.09444643 -0.025125232 -0.11720409
0001d0 1b 94 c1 3c 9b 20 d9 bc 49 c6 f4 bd 2e 32 ac 3d
       0.023630193 -0.026504805 -0.119518824 0.084080085
0001e0 64 7b ee 3d 6d ba 1a 3e 15 0f 0c be cf 26 f0 bd
       0.11644629 0.15110178 -0.13677628 -0.11726152
0001f0 f4 b0 e5 3d ab 56 54 bd 47 16 7c 3d 4d 7c 27 3d
       0.11215392 -0.051840466 0.061544683 0.040890027
000200 e7 95 d3 bd ce b4 11 be 88 63 8c be a2 f2 70 3e
       -0.10331326 -0.14229128 -0.27419686 0.23530057
000210 eb 30 d9 3d 57 d0 d9 3c 8f 5a 56 3d 51 58 0a bd
       0.106050335 0.026588602 0.052332457 -0.03377563
000220 be 7c 2e 3e 7f 2f 05 3d 33 25 fe 3c 16 66 93 be
       0.17039773 0.032516 0.031023597 -0.28788823
000230 e5 91 d0 bd ca ee 95 3c 37 98 8a 3e b4 c6 c2 bd
       -0.10184077 0.01830234 0.27069256 -0.09510556
000240 4b 4a 71 3d eb 61 22 be f9 5d 18 3e bf 06 52 bd
       0.058908742 -0.15857665 0.14879598 -0.051275965
000250 47 e3 0f 3e fa 9b d8 bb ff c7 49 bd 79 c1 32 be
       0.14051543 -0.0066103907 -0.049262997 -0.17456616
000260 db c4 a2 3d 94 bf 7b bc de 54 e9 bc b4 34 2f be
       0.079477035 -0.0153655 -0.02848285 -0.17109948
000270 0f bf 82 3b 1e 99 11 3e 31 a4 e0 3d 7e c2 4b 3d
       0.003990061 0.14218566 0.10968817 0.04974603
000280 72 44 c4 bd ab 5f 2d 3c 65 20 81 3d 4a 81 3d be
       -0.095833674 0.010581891 0.06305007 -0.18506351
000290 bd 0f ac 3d bd 27 cd 3d 21 c3 31 bd 8f 29 04 bb
       0.08401439 0.10017345 -0.04339898 -0.0020166372
0002a0 6c c0 5e bc 8a a9 00 bd 9c f2 e1 3c be 03 86 3b
       -0.013595682 -0.031411685 0.027581505 0.0040898016
0002b0 5d 35 af 3d f3 d7 21 bd 92 e6 96 3d 45 ae f1 bd
       0.085551 -0.039512586 0.073681965 -0.118008174
0002c0 59 ba 8a bd a5 18 48 3a 3a 86 8a 3d 01 57 86 3b
       -0.06773824 0.0007633067 0.06763883 0.004099727
0002d0 d4 b9 e5 bd a7 95 e1 3d 90 d1 bd bc a4 13 8d bd
       -0.112170845 0.11014872 -0.023171216 -0.06888512
0002e0 05 52 c5 3d 8e ff fd 3c a5 ba 81 bd 7d d5 0c bc
       0.096347846 0.031005647 -0.06334428 -0.008595821
0002f0 e2 2e b5 3c d4 42 9b 3d 76 2f 63 3e 35 e6 5d 3c
       0.022117082 0.07581106 0.22186074 0.013543655
000300 a5 20 f6 bd a2 16 ea bd 81 da 72 bd 19 ef e0 ba
       -0.12017945 -0.11430098 -0.059290413 -0.00171611
000310 9c 80 f0 3b 3b 4b 9c bc 15 26 13 be 8e fe 15 be
       0.00733955 -0.019078841 -0.14369996 -0.14647886
000320 f9 2d 03 be 51 f3 9a 3b 71 a5 57 3e 15 c8 be 3d
       -0.12810506 0.0047287126 0.21059205 0.09315506
000330 ab 37 3a bd c8 66 84 3d 58 5c a6 3d a0 36 bd 3d
       -0.045463245 0.064649165 0.08123082 0.092389345
000340 12 be bb bd b6 9a f5 3d e6 08 ff 3d 8a d3 cd bd
       -0.091671124 0.119923994 0.12452869 -0.100501135
000350 ac 4b 4b bd e6 b4 df 3c be 3c 72 bd ac 4d 68 bd
       -0.049632713 0.027307939 -0.05913996 -0.0567147
000360 9f 69 81 3d fc 97 4e bc 27 b5 6e bc 10 1c 1b 3d
       0.06318974 -0.012609478 -0.014569557 0.03786856
000370 65 8f fe bd 0c e4 a0 3d 8b 1b c0 bc 14 99 1d 3d
       -0.12429694 0.078559965 -0.023450634 0.038476065
000380 b4 3e 2f bd 65 03 f5 bd db ae c1 38 06 d4 69 3c
       -0.042784408 -0.11963538 9.2355265e-05 0.014271742
000390 ab 1c ac 3d da 60 af 3d 94 b1 47 bd d1 0f 01 3d
       0.084039055 0.08563395 -0.048753336 0.031509224
0003a0 9e 43 52 bd 20 f0 4b bb c8 9c 67 3d e0 97 d4 3c
       -0.051334016 -0.0031118467 0.056546003 0.025951326
0003b0 fc 35 86 bc 5b f5 da bd b1 3b 10 3d 48 f7 14 bd
       -0.016383164 -0.10691329 0.035213176 -0.03636864
0003c0 1e 09 da bc 67 c9 89 3b 2d a9 94 3d 5f 57 9d 3d
       -0.026615676 0.0042049172 0.0725883 0.0768268
0003d0 2f 15 a9 3d c8 82 eb 3d bd a7 f8 3c a8 98 c9 be
       0.082559936 0.11499554 0.030353421 -0.3937428
0003e0 fa f4 eb bd 6d 41 02 3e eb 4e c5 bd ec aa 38 3e
       -0.11521335 0.1272027 -0.09634193 0.18033952
0003f0 9b 5d 07 3c 36 14 89 bd fe 1d ff bd 4d 26 f9 3d
       0.008262063 -0.06693308 -0.124568924 0.121655084

feats.0.conv1.proj.weight f4 [32, 32, 3, 3]
000000 45 0d 49 bc 44 e0 a6 bf e1 b1 c7 bc c9 84 88 3e
       -0.01227123 -1.303719 -0.024376811 0.26663807
000010 cd d4 c2 3e 96 3d 44 3f 4c 0d 1a 3f ff cc bb be
       0.3805298 0.7665647 0.6017654 -0.36679837
000020 2b 9f d2 3e a8 fa 22 3d bb 5f 2c be 7c 25 ac 3e
       0.4113706 0.039789826 -0.16833393 0.33622348
000030 ef 57 91 bd bb 5c 51 be 48 75 a5 bc b3 59 23 3f
       -0.0709685 -0.2044553 -0.020197526 0.63808745
000040 a5 49 80 be b8 47 82 be aa 95 e3 3e d1 9d 87 be
       -0.25056186 -0.25445342 0.44450122 -0.26487592
000050 32 53 4a be 5b a7 d4 bd 26 d2 f2 bd 7e 3b a6 3e
       -0.19758299 -0.10383483 -0.11856489 0.32467264
000060 58 c0 55 3e 30 98 0e 3d f0 30 eb be 2f 7c 93 be
       0.20874155 0.034813106 -0.45935774 -0.28805682
000070 82 e2 0b be 97 c9 c6 3d ce 54 94 3b dc 4e 6a 3f
       -0.13660625 0.09706419 0.004526711 0.9152658
000080 59 e6 2e be 69 3c 4d 3f de 26 df be a8 92 18 bf
       -0.17080058 0.80170304 -0.4358434 -0.5959878
000090 0a 5e 3d bf c1 f9 3e 3f 81 c0 62 3e 24 e6 5b 3c
       -0.7397162 0.74599844 0.22143747 0.013421569
0000a0 67 cf 99 bf a9 05 80 3e 41 38 09 bf 3c ab 88 3f
       -1.2016419 0.25004318 -0.5360146 1.0677257
0000b0 3b 4f 93 3e f2 97 1b bf cb 2c ab 3d 8b c5 6c 3d
       0.28771386 -0.60778725 0.08358153 0.05780558
0000c0 5e 7b c4 3e 8b 96 d4 be 8f aa a1 bd 52 95 00 3f
       0.38375372 -0.41521105 -0.078938596 0.50227845
0000d0 a7 d1 88 3e b2 84 40 be 1f fe e6 3e fa 5d 82 be
       0.26722452 -0.18800619 0.45115754 -0.25462323
0000e0 30 c0 e3 be d8 51 cb be 1f 2b 6a 3d a6 5c 75 3f
       -0.44482565 -0.3971088 0.05717003 0.95844495
0000f0 bd d1 5a bf 0d bc 33 3f 02 b3 9a be 91 7f 16 3f
       -0.85476285 0.7020882 -0.30214697 0.587884
000100 e2 a7 cd be 66 6b de 3c 2a 8f 68 bf f8 56 80 be
       -0.40167147 0.027150821 -0.9084345 -0.25066352
000110 db a7 1e 3f 86 66 a8 be a0 cb 5f 3f 10 53 05 be
       0.6197488 -0.3289072 0.8742008 -0.13019967
000120 79 1a 1d 3e 7a e9 d5 bd 10 2c 12 bf 86 1b 7d 3e
       0.1534213 -0.10444923 -0.57098484 0.2471753
000130 c7 5a e1 3c 45 7a c8 3e 8f 22 85 be c6 0e 2e 3e
       0.027509106 0.39155784 -0.2600293 0.16997823
000140 e7 6c f4 3d d1 e3 84 3f fa 87 59 bf bd 92 54 3f
       0.11934834 1.0382024 -0.8497311 0.83036405
000150 56 13 17 3f b9 a7 54 3f e7 26 f0 be d7 19 c7 be
       0.5901388 0.83068424 -0.4690468 -0.38886902
000160 13 ad 29 bf ee 2d 01 bf 68 d4 0b be ec ed b5 3d
       -0.66279715 -0.5046071 -0.13655245 0.088832706
000170 6a 5c 2c be e4 fd 21 be df 9d 54 bd e3 f0 b4 3d
       -0.16832128 -0.15819508 -0.05190837 0.08835008
000180 2e 1d f8 3e 6a 05 19 bf fa da e2 3e e7 bd 10 be
       0.48459762 -0.59773886 0.4430769 -0.14134942
000190 8f 3e 64 3d bf 03 6a 3e ab 48 90 3e 96 fd 68 3e
       0.055723723 0.22852992 0.2818044 0.22752985
0001a0 7b 33 e1 be 22 f5 ed bd d2 47 34 3d 7a 69 cb bd
       -0.4398459 -0.11619021 0.044013806 -0.099322274
0001b0 42 39 be 3e 3e d3 cd 3e cf 44 0d be 4d 5e 8d bd
       0.3715306 0.40200227 -0.1379578 -0.06902752
0001c0 b3 af 8e bf f9 62 0c bf 33 a0 69 bb 55 d7 99 3f
       -1.1147369 -0.5483852 -0.0035648465 1.2018839
0001d0 63 96 55 3e 0e fb c3 3c 87 bf 9f 3e 5a 5b 19 be
       0.20858149 0.023923423 0.3120081 -0.14976254
0001e0 56 6f 5a 3e 66 f3 d9 be d7 13 d0 3d 7f bf c0 3d
       0.21331534 -0.4256851 0.10160034 0.09411525
0001f0 8a 83 17 be 45 75 16 3e 9c db d6 bd c9 0c 92 bf
       -0.14796272 0.14693172 -0.10491106 -1.1410152
000200 ab 27 68 3f 40 d1 3e 3f 78 33 24 3f 48 e4 19 bf
       0.9068553 0.7453804 0.64141035 -0.60113955
000210 19 0d ee be ab ef cb be 1f 6a 8e 3e cd 87 28 be
       -0.46494368 -0.3983129 0.2781534 -0.16458054
000220 da 43 d3 3e 30 d0 92 bd e0 76 12 3f dc b0 5e bf
       0.41262704 -0.07168615 0.5721264 -0.86988616
000230 51 dd 97 bf a1 57 7e 3e ba 29 83 bd bc fd ea 3e
       -1.1864415 0.24838115 -0.06404443 0.4589671
000240 cc 14 b8 bd ad 92 5b bf 15 38 b3 3e 5a 1b a1 3f
       -0.08988342 -0.85770684 0.35003725 1.2586472
000250 67 7b 9c 3f 84 5e f4 3d f2 19 53 be ad 33 6e bf
       1.222516 0.1193209 -0.20615366 -0.930476
000260 f0 90 c0 3d 95 36 bc 3c d0 ff 1e 3d 5d d5 dd 3e
       0.09402645 0.022975245 0.03881818 0.43326846
000270 ea 81 cc bd 96 a1 75 be 90 4a c6 3d ae 8b c5 be
       -0.09985717 -0.23987421 0.096821904 -0.3858313
000280 84 a7 0f 3f 89 3f 0e bf 00 2e 4e 3e 54 85 1c 3e
       0.56114984 -0.55565697 0.20134735 0.15285236
000290 be 4c 10 3e 96 7e 3c 3e 0c db 45 3f 9e 4e dc bd
       0.14091775 0.18407664 0.77287364 -0.107571825
0002a0 d4 26 88 bd be d6 91 3e 43 9f 25 be b2 72 9f 3d
       -0.06648031 0.28484148 -0.16174035 0.07785548
0002b0 7d eb ec bc 7a d7 42 3e 3b cb 5c 3e ed 8a 07 be
       -0.028920883 0.1902751 0.21561901 -0.1323659
0002c0 68 40 bb be 4a 02 8a be 82 dd f6 bc 06 d9 1e 3e
       -0.36572576 -0.2695487 -0.03013492 0.15512475
0002d0 91 01 e3 3e cb 1a 3a be 2d 09 37 be 62 58 a5 3d
       0.44337133 -0.18174283 -0.17874594 0.08073498
0002e0 fe 3c d9 3d fb 72 2d be 7f fe d6 be 2c 82 6f be
       0.106073365 -0.16938393 -0.4199104 -0.233895
0002f0 39 dd fb 3e c2 d6 e7 3e 40 10 92 3e 98 5a d4 be
       0.49192217 0.45281035 0.28528023 -0.41475368
000300 0a c8 f5 bd c7 e3 8a be df 2a 36 3e 37 5a 4f bf
       -0.12001045 -0.27126905 0.17789792 -0.8099703
000310 cb 95 ac 3e c8 21 99 3e 94 4b 13 bf 1e 52 57 bd
       0.33708033 0.29908586 -0.575372 -0.052568547
000320 f6 b4 4b be fe af b2 3e 19 a1 0f 3f 68 88 58 be
       -0.1989325 0.34899896 0.5610519 -0.21145785
000330 63 0b d4 3e fd 7c 0b bf dd d9 c4 3e 98 d0 7a 3e
       0.41414937 -0.5448759 0.38447466 0.24493635
000340 58 54 b8 be 6d de b0 3e b7 8b 1b bb 52 0e 91 be
       -0.3600185 0.34544697 -0.00237344 -0.28331238
000350 af 36 57 be 10 b2 50 be ca e6 32 3e 69 77 b0 3e
       -0.21016954 -0.20380425 0.17470852 0.34466103
000360 f2 c3 01 3e b3 cc 81 3d ae 85 ae bd 6d 5a 34 bd
       0.12672403 0.063378714 -0.08521591 -0.04403155
000370 56 5e 4e be 69 5b 3b 3e 6f 5d 4b be cc 5c dd 3e
       -0.20153174 0.18296589 -0.19859861 0.4323486
000380 3a 70 9b be ef 73 df 3e 1b 69 46 3f 04 36 a5 bf
       -0.3035906 0.43643138 0.7750413 -1.2907109
000390 d1 00 11 3e eb 4b ce 3e d2 c8 15 3e 65 1f b8 3e
       0.14160468 0.40292296 0.14627388 0.35961452
0003a0 92 0c 94 bf 9e 75 b9 3e 1a ba c7 3e 35 f1 96 be
       -1.1566336 0.36222547 0.39009172 -0.294809
0003b0 be 45 1c bf 0a c0 87 bf 33 2d f3 3e e6 c2 af 3e
       -0.6104392 -1.0605481 0.47495422 0.34328383
0003c0 c4 2a 17 be 0f 2f 89 3e 28 78 a9 3e 41 07 65 3e
       -0.14762408 0.26793715 0.33099484 0.22366048
0003d0 ac 78 c6 bf 6f 8f 9a 3e c1 e1 f2 3e 9d 1a 08 3f
       -1.5505576 0.30187556 0.47437862 0.5316561
0003e0 00 8b 39 3f 2f c3 16 3f 16 f1 bf bd 94 5b 26 3f
       0.7247772 0.58891577 -0.09372155 0.6498349
0003f0 45 43 b5 3d dc c9 25 be 7e c5 67 be 70 fe 9c be
       0.08850721 -0.16190284 -0.22633931 -0.3066287

feats.0.conv1.dwconv.weight f4 [16, 1, 3, 3]
000000 a2 fb 75 3c 10 14 13 3d 5f a9 84 3c 63 85 24 3d
       0.015013607 0.035907805 0.016194044 0.04016627
000010 e6 a2 a2 3d 4f f7 2a 3d 0c bf 4b 3c 77 92 28 3d
       0.07941227 0.041739758 0.012435686 0.041155305
000020 57 3e 81 3c 83 d8 24 bb 49 0a 47 bc 2c 18 46 bb
       0.015776796 -0.0025153465 -0.012148448 -0.003022681
000030 c4 1f 8f bc e0 1c ee bd 5b ef 9b bc 6a f1 2b bb
       -0.017471202 -0.11626601 -0.019035032 -0.0026236423
000040 45 a0 51 bc e6 33 ae bb eb d6 40 bd fd f2 c4 bd
       -0.012794559 -0.0053162454 -0.04707996 -0.09616659
000050 b4 26 2b bd 74 ae d0 bd c4 81 a0 be e3 0c ca bd
       -0.041784957 -0.10189524 -0.31349003 -0.09865739
000060 0b 06 0e bd a8 70 d5 bd ff 5f 36 bd 06 87 33 3c
       -0.03467373 -0.10421878 -0.044525143 0.010957485
000070 71 9d 3f bd 43 26 cb 3b 5b af 0a bd 10 fc 62 be
       -0.046781007 0.0061996295 -0.03385864 -0.22166467
000080 05 aa e6 bc eb 74 b0 3b c3 04 49 bd eb f9 18 ba
       -0.028157244 0.0053850315 -0.049076807 -0.00058355805
000090 a0 5b 98 bc f7 ae 12 3d 53 3a 67 bb 00 84 23 3d
       -0.018598378 0.03581139 -0.0035282567 0.039920807
0000a0 81 d6 26 3e b7 25 2c 3d 2c e9 50 bc 0c 0a 4c 3d
       0.16292764 0.042028155 -0.012750905 0.04981427
0000b0 89 32 1d bc c8 e8 13 bd cf 40 09 be 96 70 47 bd
       -0.009594568 -0.03611067 -0.13403629 -0.048691355
0000c0 1b 32 04 be e1 83 49 bf 1e 92 fe bd 3a a6 00 bd
       -0.12909739 -0.78716856 -0.124302134 -0.031408526
0000d0 57 43 ec bd 35 a3 04 bd ab f7 09 3c aa 6a d0 3c
       -0.115362816 -0.03238221 0.008420865 0.025441486
0000e0 fd 43 0e 3c 13 28 bd 3c f3 b4 b6 3d aa 89 c1 3c
       0.008683202 0.023090398 0.08921232 0.023625214
0000f0 59 4f e5 3b ad 8b cf 3c 56 de 0e 3c 57 68 87 bc
       0.0069979844 0.025335157 0.008720001 -0.016529245
000100 d1 c3 83 bd b6 0f ab bc 08 26 6c bd d6 25 90 be
       -0.064338334 -0.020881515 -0.057653457 -0.28153867
000110 1f f2 57 bd 72 05 c3 bc f0 9a 7a bd 1f 8a 66 bc
       -0.05272114 -0.023806307 -0.061182916 -0.014071017
000120 62 8b 75 bb c7 90 d2 3c f7 0f 5d 3b 6b 2c f8 3c
       -0.0037467112 0.0257038 0.003373144 0.030294618
000130 5b 86 20 3e 24 c4 be 3c 31 98 58 ba d0 7a b7 3c
       0.15676253 0.023286887 -0.00082624244 0.022397429
000140 ae 7c 96 3a 80 1d 25 3e 75 09 2b 3d 9a 2d 27 3e
       0.0011481249 0.16124535 0.041757066 0.1632599
000150 fe 9a c4 3c 42 37 2b 40 c0 fa 30 bd 69 ec 18 3e
       0.023999687 2.6752477 -0.043207884 0.14933933
000160 e0 cf 54 bd db eb 69 3e 84 2b 14 3d fa d5 40 3e
       -0.051956058 0.22843878 0.036174312 0.18831626
000170 88 8d 38 3d 33 c3 14 3e 27 1d 2b 3f a4 fa 0a 3e
       0.04505685 0.14527588 0.6684136 0.13572174
000180 6a 31 49 3d fd 9d 14 3e dd 28 b4 3c 4f c9 1f bb
       0.04911939 0.14513393 0.021992141 -0.0024381464
000190 09 90 85 3d d9 d8 44 3b 59 56 6d 3d c6 23 6a 3e
       0.06521613 0.0030036478 0.057943676 0.22865209
0001a0 ae 03 44 3d 96 69 68 b9 e5 fd 2c 3d 0c b9 09 3c
       0.04785507 -0.00022164578 0.04223432 0.008405935
0001b0 68 e4 94 bc e7 f8 a6 bd 8b b1 41 bd 3b 2c c1 bd
       -0.018175319 -0.08152943 -0.04728846 -0.094322644
0001c0 b2 3c 06 bf ec 2b 97 bd e6 bf 33 bd 1d 43 9f bd
       -0.52436364 -0.07381424 -0.04388418 -0.07776473
0001d0 02 8b f5 bc 24 1e 8c bb 9e 55 1c bd 1b 37 77 bc
       -0.02997351 -0.004276054 -0.03816759 -0.015088822
0001e0 f9 55 eb bc a2 7f 4c be 94 e5 1e bd ca 72 a7 bc
       -0.028727518 -0.19970563 -0.03879316 -0.020440478
0001f0 55 05 39 bd 5d c7 34 bc 85 e0 27 3b 47 11 ab bd
       -0.0451711 -0.01103386 0.0025616002 -0.08352905
000200 0b 7f b4 ba 02 ab 87 bd 47 a8 5c bf e5 8b 95 bd
       -0.0013770772 -0.06624414 -0.8619427 -0.073020734
000210 0b 09 95 3b f0 ea 2d bd c4 15 b1 3b 0e 31 ac 3b
       0.004548197 -0.042460382 0.005404206 0.005254871
000220 71 d1 28 3d 60 4d 13 3c e3 02 45 3d 01 a2 5f 3e
       0.041215364 0.008990616 0.048098456 0.21839143
000230 6e f8 31 3d f2 ad db 3b 6f 2e 48 3d 03 af d9 3b
       0.04344981 0.0067040855 0.048872408 0.0066431775

feats.0.conv1.out.weight f4 [32, 32, 1, 1]
000000 3a ae 90 be 34 cc d9 bb 03 e0 d0 3e 6a 58 af 3c
       -0.28257924 -0.0066466574 0.40795907 0.021404464
000010 c0 93 56 bd 54 d2 b8 3c 12 c3 c2 bc fb aa 96 bd
       -0.052387 0.02256123 -0.023774657 -0.07356831
000020 5c de 60 3f 39 ce 84 bc 8c 14 5a bf f4 9d 15 3d
       0.87839293 -0.016211616 -0.851876 0.03652759
000030 c8 9c a8 bd 43 7f 25 3d 1e 8e 88 3c f8 1e f3 bc
       -0.08233029 0.04040457 0.01666933 -0.029677853
000040 60 e0 2e 3f 03 b8 1c 3f 56 98 85 3f 87 be a2 3f
       0.6831112 0.6121828 1.0437114 1.2714394
000050 ff d8 a4 3f dd 25 36 3f f5 e7 1f 3f 91 2e 70 bf
       1.2878722 0.71151525 0.62463313 -0.93821055
000060 03 80 8d bf 12 5c f2 3c 22 d1 27 3e 71 23 db be
       -1.1054691 0.029584918 0.16388372 -0.42800477
000070 8a d9 d8 be 53 08 e4 3f a9 b5 b7 3f 1b 42 65 3f
       -0.4235347 1.781504 1.4352313 0.89553994
000080 b1 e8 b0 be d3 aa 1b bc 89 b0 73 3d 70 6e 18 3d
       -0.3455253 -0.009501177 0.05949453 0.037214696
000090 69 4b 6b bc bc bb 7d 3e 9b 6f e8 3e af 57 45 bc
       -0.014361241 0.24778646 0.45397648 -0.012044831
0000a0 40 be 9f 3f 44 74 13 3c fb d4 5e bf f5 96 07 3d
       1.2479935 0.008999888 -0.8704373 0.03310295
0000b0 35 40 c9 ba ba 6c b3 bd 8e 8c de bc 75 da aa bb
       -0.0015354218 -0.08760972 -0.027166631 -0.0052140304
0000c0 68 97 41 be 28 4d df 3e 32 e8 7d bf bf a3 24 bf
       -0.18905413 0.43613553 -0.99182427 -0.64312357
0000d0 df 7b d6 bf 5c c8 d4 3f ed 64 fc 3e d6 a5 db 3e
       -1.6756552 1.6623645 0.4929575 0.4289996
0000e0 8c 3c 24 40 28 9a 85 3c 10 3e 46 bf 16 e2 25 be
       2.5661955 0.016308859 -0.7743845 -0.16199526
0000f0 81 c5 92 bf 8f 75 81 bf e9 33 a2 3f 08 7c 83 bf
       -1.1466523 -1.0114001 1.2672092 -1.0272226
000100 f0 67 bf 3f cb 77 a9 3c 2d 00 ae bd 59 c6 21 3d
       1.4953594 0.020687005 -0.08496127 0.0394958
000110 60 e7 94 3d 30 21 d7 3e 12 94 1d 3d 72 5b 7f bc
       0.07270694 0.42017508 0.03847129 -0.015585767
000120 69 57 c7 3d 0a be ab bd 79 3d 3e 3f 49 09 29 bd
       0.09733469 -0.083858564 0.7431255 -0.04126862
000130 4b 5f 69 3c 03 a2 d8 3b dc b3 32 bc 69 5d b8 3c
       0.014243911 0.00661111 -0.01090714 0.022505479
000140 61 b3 b2 3e c0 86 34 be a1 bc 0f 3b 49 ef 29 bf
       0.3490248 -0.17629528 0.00219325 -0.66380745
000150 65 e7 e2 be 51 58 b4 be 29 56 5a bf 60 ad 3a bd
       -0.44317165 -0.3522363 -0.8528772 -0.0455755
000160 8e 76 be 3e 61 cb e3 39 ad e4 06 bf 49 a0 b7 3e
       0.37199825 0.00043448343 -0.5269268 0.35864475
000170 d3 e5 b1 3e 30 c5 13 bf ba a5 a1 bf 91 cb 0c 3d
       0.34745654 -0.5772276 -1.2628701 0.034373824
000180 bd cb 2d be 7a 1e 30 bd 91 3c 4c 3e b4 8f c1 3d
       -0.16972251 -0.042997815 0.19944979 0.09451237
000190 12 52 ee bc 66 d6 04 bf 03 e8 a3 bc 79 f0 ff bc
       -0.029091869 -0.51889646 -0.020008093 -0.031242596
0001a0 a9 c5 da be 56 67 b2 3e 4f a7 43 bf 85 7b a7 bc
       -0.42728928 0.34844464 -0.7642717 -0.02044464
0001b0 70 27 84 bc 3d 59 2a bd b2 12 e9 bc f0 cd 1a bb
       -0.016132087 -0.04158901 -0.028451297 -0.0023621283
0001c0 10 f5 4a bf cb ea ab be f4 22 35 3f 59 f7 93 3f
       -0.79280186 -0.3357757 0.7075646 1.155986
0001d0 55 59 75 bf ba 10 1f bf 51 d5 0d 3f 3f 28 d9 be
       -0.95839435 -0.621349 0.5540362 -0.42413518
0001e0 40 34 6c be c6 83 44 bc d0 cd 14 3e b8 aa a3 3f
       -0.23066807 -0.011994308 0.14531636 1.2786474
0001f0 f7 41 26 3f 20 ee 14 c0 91 4c b0 3f 1f 57 0f 3f
       0.64944404 -2.327034 1.3773366 0.5599231
000200 cf f9 3b bf 3f f4 33 3c ee 48 99 3c 42 db 95 bc
       -0.7342805 0.010983526 0.018711533 -0.018293027
000210 e1 ae da bc 9b 9b d7 be a5 a3 70 be 1b 03 5a bc
       -0.026694717 -0.42110905 -0.23499925 -0.013306404
000220 9d b9 3e 3f 3f 9d fe bd c8 66 4c 3e d1 55 9d bc
       0.74501973 -0.12432336 0.19961083 -0.01920596
000230 6d 91 9a bc 25 fd 22 be 3b 25 5b 3b 78 ba 25 3a
       -0.018868173 -0.1591688 0.003343894 0.00063220365
000240 7b 62 c3 be b8 e1 89 3e 80 04 e6 3d b8 a2 a9 bf
       -0.38161072 0.26930022 0.11231327 -1.3252783
000250 21 f4 b8 be b2 3d 2c bf be 32 d3 be 5e ad 16 3f
       -0.36123756 -0.6728164 -0.4124965 0.5885829
000260 30 ef 2f bf 41 33 e6 3d 49 ea d7 3f 60 f4 48 3e
       -0.68724346 0.11240245 1.6868373 0.19624472
000270 f4 be 6f 40 cf b1 07 be 22 49 cb 3f fe c1 82 bf
       3.7460299 -0.13251422 1.5881693 -1.0215452
000280 45 d4 a8 3d ae 49 1b bd ea 55 12 bd aa 53 99 3b
       0.08243612 -0.037912063 -0.035726465 0.004679163
000290 9e 77 1e 3d 5d 5a 75 bd f9 85 40 bf 45 0a 6a bd
       0.038688295 -0.05990063 -0.75204426 -0.0571387
0002a0 4d 77 c7 bd 31 8a 33 3e 33 04 14 c0 f8 29 09 be
       -0.09739552 0.17533185 -2.3127563 -0.13394916
0002b0 63 08 a1 3c 03 56 12 bf 77 19 14 3d e1 07 3b 3c
       0.01965732 -0.57162493 0.036157098 0.011415453
0002c0 ec 8c 9b 3d 75 e3 f6 bd 3d 70 45 3e cc 95 93 3f
       0.07595238 -0.12055103 0.19281097 1.1530089
0002d0 7c 39 d5 be e8 e3 81 3e 0f 1c 92 3f 3a 8a a5 be
       -0.4164542 0.2536919 1.1414813 -0.3233202
0002e0 3f 6e 98 3e 2f f8 24 3c 48 24 78 bd 98 70 6f be
       0.2977161 0.010068937 -0.060581475 -0.23382795
0002f0 ee 05 3c bf ae 23 ff bb 91 c5 65 3f ba de e4 3d
       -0.7344655 -0.007786236 0.8975459 0.11175294
000300 86 e6 1a bf 16 31 0b 3d 69 22 51 3d 1b 6e a5 bc
       -0.60508 0.03398236 0.051058207 -0.020194104
000310 bd 32 b6 bd 3d 34 d4 3e 7d e9 18 bf c1 03 0a bd
       -0.08896396 0.41446105 -0.59731275 -0.033694986
000320 65 db 00 bd e6 93 7e be 8b 2d fe 3c e8 66 d4 3d
       -0.03145923 -0.24861106 0.031027576 0.1037119
000330 d2 8a 29 bc eb 6b 91 3e e9 4c 3e 3c 43 5d 10 3c
       -0.010348039 0.28402647 0.0116150165 0.008811298
000340 c6 2e 69 3f 59 e5 b5 3d d7 2b a8 bf c0 1d 68 40
       0.91086996 0.08881635 -1.3138379 3.6268158
000350 49 58 81 be 9b 42 24 3f b3 90 bc 3e f2 5b b0 3f
       -0.2526267 0.6416413 0.36829147 1.377806
000360 7e 8f 3f 3f 0b 17 60 3d a6 22 d1 be de 19 78 be
       0.74828327 0.054709475 -0.40846747 -0.24228618
000370 0b 50 8e 3f c1 67 3a be 73 b3 12 3e bd 1c 75 3f
       1.1118177 -0.18203641 0.14326267 0.95746976
000380 e8 74 d2 be 8a 0c 4f 3d ed 15 a1 3e ec 77 50 bc
       -0.41104817 0.050549068 0.3146204 -0.012723904
000390 04 19 7c 3e 76 4b 2a 3f 8b ce 9b be 79 d8 48 3d
       0.24618918 0.66521394 -0.30431017 0.04903457
0003a0 a1 fa 32 be 88 af 6a be d0 ee e5 be d8 0b 55 bd
       -0.1747842 -0.22918522 -0.44908762 -0.05201325
0003b0 56 c7 cd bc 62 12 a2 be 4e 2f 19 bd e4 e3 de bd
       -0.025119465 -0.3165465 -0.03739863 -0.108833104
0003c0 de 36 22 bf 7c 2b 7f 3f 43 50 b6 3e cd 29 f0 3d
       -0.6336497 0.99675727 0.3560811 0.11726723
0003d0 5b ff 84 3e e6 15 15 bf d3 2d 24 3f 86 08 7a bf
       0.2597607 -0.5823654 0.6413242 -0.97669256
0003e0 8e 04 07 be c9 4a 1d 3d 38 2c 46 3e 8e cb 97 be
       -0.13185331 0.0384014 0.19352806 -0.29647487
0003f0 ca 3b 88 be 2b 1f 8e 3d 45 13 d5 3f a4 3e bf bd
       -0.26608115 0.069395386 1.6646506 -0.093381196

feats.0.conv2.conv.0.weight f4 [48, 32, 3, 3]
000000 26 1e 70 3e f5 bf d1 3d 2e 64 11 3d 04 f3 b2 be
       0.23449 0.10241691 0.03549593 -0.3495103
000010 a2 7d a2 bc 83 79 c7 3d d9 e4 c2 3e ae e2 26 be
       -0.019835297 0.097399734 0.38065222 -0.16297409
000020 e0 7b 2e 3d be 37 ac 3d 67 a7 d5 bd e1 82 18 3e
       0.042598605 0.084090695 -0.1043232 0.14893676
000030 e0 3e 98 bd be 5b bf 3d ed 46 5b 3d 60 81 28 be
       -0.074338675 0.0934367 0.053534437 -0.16455603
000040 93 1e e1 3e f8 7a b6 3d 9d 8b 0c be 32 c6 b6 be
       0.4396864 0.08910173 -0.13725133 -0.35698086
000050 55 cf 81 3e 9f 77 8a be 11 96 af 3d 68 93 5f be
       0.25353494 -0.2704439 0.08573545 -0.21833575
000060 51 d7 83 be 1a c1 ea 3c fc b6 01 3e 9d 7b 41 3d
       -0.2575021 0.028656531 0.12667459 0.047237027
000070 02 56 a9 3e 27 cb a1 be 07 2f 16 3d 70 12 f6 be
       0.3307343 -0.31600305 0.036665943 -0.48060942
000080 d0 64 93 3e d2 a4 90 bd 72 d3 08 3e 12 89 38 be
       0.2878785 -0.07062687 0.1336191 -0.18021038
000090 ef 17 7e be 75 29 1e 3e 7b f7 ca 3d a2 c7 ea bd
       -0.24813817 0.15445502 0.099104844 -0.11463858
0000a0 04 8f 88 3e 2a e3 4e be 9b 2c 53 3e 6b cc eb bd
       0.26671612 -0.20203844 0.20622484 -0.11513599
0000b0 95 70 98 be 34 01 34 3c 72 36 bf 3e 6e 3d 51 3d
       -0.29773393 0.010986615 0.37346226 0.051083975
0000c0 b1 a4 63 3f 8f 28 52 bf 68 93 9c 3e ed d4 20 be
       0.88923174 -0.8209314 0.30581212 -0.15706225
0000d0 47 74 bf 3e 66 04 cc bd 0c ff 25 bd 9b 20 6e 3c
       0.373934 -0.099617764 -0.040526435 0.014534141
0000e0 6c 0f a3 3d f1 1b 6f be 33 af 0c be fa 75 6b bd
       0.07961926 -0.23350503 -0.13738708 -0.057485558
0000f0 2b 0b 40 3e 3c 8d fe be 9c f1 3b 3e cc 1f bc 3c
       0.1875426 -0.49717128 0.18353885 0.02296438
000100 c6 41 0d be 69 c5 e6 3c 35 63 43 3e e9 30 12 bf
       -0.13794622 0.028170304 0.19080813 -0.5710588
000110 a8 15 57 be 9d 3d 73 be 2d 22 e8 bc 46 36 5b 3e
       -0.21004355 -0.23753972 -0.028336609 0.21407422
000120 b1 d9 32 3b 60 6e 13 3e b7 61 0c 3c a4 da 5c 3e
       0.0027290399 0.14397573 0.008568219 0.2156778
000130 cb 43 f4 be ec 79 0a be 98 ee 8c be f1 51 ad 3e
       -0.47707972 -0.13523072 -0.27525783 0.3385158
000140 74 19 62 be f3 26 c6 be b7 44 d0 3e 4a 9c b0 3d
       -0.22080022 -0.3870159 0.40677425 0.0862356
000150 9f 63 2e 3f 50 a8 eb 3e 55 9b 9f 3c 7c 9e a0 3c
       0.6812076 0.4602685 0.019483248 0.019606821
000160 9d 3e 15 3f c6 9f 0d be 1e 38 76 3c 20 6b b3 be
       0.58298665 -0.1383048 0.015028028 -0.35042667
000170 62 d0 d8 be 41 5a 97 3e 6c 25 6c 3e 22 37 86 3c
       -0.42346483 0.29561046 0.2306115 0.016383711
000180 32 24 42 bd 98 7a f7 3e b8 ee d4 be 99 94 fa 3d
       -0.0473978 0.4833572 -0.41588378 0.12235374
000190 5f 5b 1d be e3 00 b6 bc 6d 1d 94 3d d7 dd 84 bf
       -0.15366887 -0.02221722 0.07232175 -1.03802
0001a0 ad ea 25 3e 28 88 ca 3c 02 e4 e5 3e 48 e0 0f 3e
       0.16202803 0.024723127 0.4490052 0.140504
0001b0 9c 95 6b be 07 c9 c5 3e 1c c6 17 3e 31 66 f9 be
       -0.2300629 0.38629934 0.14821666 -0.48710778
0001c0 9b c2 69 3e c5 db 3a be 6d 51 01 3e ee 93 96 be
       0.22828142 -0.18247898 0.12628718 -0.29409736
0001d0 44 27 6a be 14 10 f4 3e eb 5f 31 bf 74 d0 68 3e
       -0.22866541 0.47668517 -0.69286984 0.22735769
0001e0 05 dd bf be db 15 dc bc 00 27 32 be 26 22 02 3e
       -0.37473312 -0.02686589 -0.1739769 0.12708339
0001f0 80 72 64 be e3 98 bd 3e e6 96 ff 3d aa a5 03 be
       -0.22309303 0.37030706 0.124799535 -0.12856165
000200 03 bb 6c bc 51 a7 17 be e9 24 18 bd f9 97 9e 3d
       -0.014448884 -0.1480992 -0.037144575 0.0774383
000210 e1 10 f3 bd b4 b5 74 3d 62 17 d6 3d c0 55 01 be
       -0.11868454 0.059743598 0.10453679 -0.12630367
000220 ca c9 ef 3d 50 c4 5e bd da 20 c2 3d 84 19 10 bf
       0.1170841 -0.054386437 0.09478922 -0.56288934
000230 9d b0 09 3e 4b fd 7a be b1 c9 07 3f 43 76 44 be
       0.13446279 -0.24510686 0.5304213 -0.19185738
000240 e6 55 a7 3d 88 b7 91 3c 4c d5 6e 3e c2 78 2b 3d
       0.08170681 0.01778771 0.23323554 0.04186321
000250 8c 22 97 be 9c 00 9a be a8 a5 81 3e e7 92 2b be
       -0.29518545 -0.3007859 0.25321698 -0.16755258
000260 4f f3 bd 3e 0d f2 6c 3e fb 16 04 3f 7b 3f 9b 3e
       0.37099692 0.2313921 0.51597565 0.3032187
000270 89 fe 3d 3d 69 a5 84 3f c9 96 55 3f 6d 00 6a bd
       0.04638532 1.0362979 0.83433205 -0.057129312
000280 05 2e 9c be 48 3d b5 3e 0c 9f 8e bd cd 1f bb 3d
       -0.3050386 0.35398316 -0.069639295 0.09136925
000290 bd 20 e9 3c 1e 78 2a 3d 6f ce d9 be f1 f1 c3 3d
       0.028457994 0.04161846 -0.4254031 0.09567631
0002a0 d7 69 c2 3a ec 2c a5 bd 04 46 40 3e ae 67 c2 bc
       0.0014832568 -0.08065209 0.18776709 -0.023731079
0002b0 f0 01 ab 3e f3 6f 1b bc 6e 27 13 bb e1 7a da bd
       0.33399916 -0.00948714 -0.0022453922 -0.106679685
0002c0 9e 1f 99 3e e8 56 9a 3e fe 97 8e be 73 60 5f be
       0.29906934 0.3014443 -0.27850336 -0.21814136
0002d0 7f fb 7f be 8a c0 04 3f 86 d2 6f bd 7e 9e 91 3e
       -0.24998282 0.5185629 -0.05855038 0.28441232
0002e0 fb aa dc be 61 57 23 be c5 a6 14 3d 86 b1 74 bd
       -0.43099198 -0.15951301 0.036291856 -0.059739612
0002f0 5a 5e 08 be 8b 53 3c 3e 1a 11 95 be df 34 da 3e
       -0.13317242 0.18391244 -0.2911461 0.42618462
000300 c2 e1 bf 3e e6 51 4f bf 4b 51 0d bc d4 60 01 bd
       0.37476927 -0.8098434 -0.008625339 -0.031586483
000310 82 97 d1 3d 78 cf a2 3d 86 7e 1b 3e 92 43 fe be
       0.10233976 0.07949728 0.15184984 -0.49660927
000320 20 8d 5f 3e 56 2b 04 3e 1a 20 d3 3d 89 2b 4d 3d
       0.21831179 0.12907156 0.10308857 0.050090346
000330 8c a0 3b 3e b7 b9 4f 3e 81 85 49 be 50 b8 1f 3e
       0.18322963 0.20285688 -0.19679834 0.15597653
000340 c1 af 91 3d 79 1c e6 3a 82 ed 88 be 29 ce 19 bf
       0.071136005 0.0017556093 -0.26743704 -0.600802
000350 01 22 aa 3d 9a 85 5e 3e ce 10 9a be af 1e d4 bd
       0.08307267 0.21730652 -0.30090946 -0.10357415
000360 2e f7 86 be 52 fc 8b 3e bb 43 ce 3d ec 59 9f 3e
       -0.26360458 0.27340943 0.10071512 0.31123292
000370 3b ac 91 bf d3 b3 21 3f 30 46 06 bd 33 79 19 3f
       -1.1380686 0.63165015 -0.03278178 0.5995056
000380 ff 67 22 be f9 d4 91 bd a7 d2 fc 3e 10 b3 4d 3e
       -0.15859984 -0.071206994 0.49379465 0.20087838
000390 dc ab 8b 3e 85 60 77 3d 10 26 9c bd 82 f2 05 be
       0.27279556 0.060394783 -0.07624447 -0.1308079
0003a0 44 2b b4 be 86 25 62 3d 90 d1 39 3e ac 6c 2a bf
       -0.3518926 0.055211566 0.18146348 -0.6657207
0003b0 7f b8 0c 3e 0f cd 6e 3e 02 45 ef be ac 20 e7 3c
       0.13742255 0.23320411 -0.46732336 0.028213821
0003c0 16 46 10 be c4 4e 4a 3e 4e a9 4e 3b 52 7c f6 bd
       -0.14089236 0.19756609 0.003153402 -0.12035431
0003d0 98 31 0a 3f 34 40 d7 be 7d 33 1a be ed dc 9f 3e
       0.53981924 -0.4204117 -0.15058704 0.3122324
0003e0 3b 3b 74 3e e3 77 c4 bd 7a c0 4e be 74 b2 69 bc
       0.2385072 -0.09593179 -0.20190611 -0.014263738
0003f0 91 11 75 bd da 29 2d be 34 9d 2c 3e 7f f9 08 3d
       -0.059831206 -0.16910496 0.16856843 0.033441063

feats.0.conv2.conv.2.weight f4 [32, 48, 1, 1]
000000 d9 75 33 3e 44 52 72 3d 60 e1 a5 3c f5 c1 95 3d
       0.17525424 0.059160486 0.020249069 0.07312385
000010 4e 01 de 3b 10 53 70 bc 23 df 7b 3e 40 98 44 bd
       0.006775058 -0.014668241 0.24596839 -0.04799676
000020 25 e4 4d 3d 6f 2f e0 3b 8c 24 05 3c e9 91 4f be
       0.050266404 0.006841592 0.008126389 -0.20270504
000030 a7 61 bc be 83 cb bc bd 1c 04 02 3d 6a 9c 58 bd
       -0.36793253 -0.09218504 0.0317422 -0.052883543
000040 1c 79 6b be 62 af 2f bc f2 9e 20 3b c7 43 0f 3d
       -0.22995418 -0.010722967 0.0024508801 0.034976747
000050 0b 5d bd 3c c8 39 ec 39 0f 3c f9 3a 14 f4 b0 3d
       0.023115655 0.00045056478 0.0019015091 0.08640304
000060 05 57 87 be 88 75 f2 3c 14 7a e6 bc 0b c2 08 bd
       -0.26433578 0.029597059 -0.028134383 -0.03338818
000070 74 f5 dc 3d 85 fe 5e bd a3 27 bd 3e 11 32 68 bc
       0.10789004 -0.054441947 0.36944303 -0.014172093
000080 99 32 3d bf 2e 44 d0 3c 5a 73 32 3e 18 fe 04 bd
       -0.7390533 0.025423136 0.17426816 -0.032468885
000090 dd 72 8a bc 24 e7 ad 3d a6 2c 06 bd b8 3d 2b bc
       -0.016900474 0.08491352 -0.032757424 -0.010451727
0000a0 ff d0 7c bd 8f 8f 28 3e 91 12 f6 bc 03 97 2a bd
       -0.06172275 0.16461013 -0.03003815 -0.041647922
0000b0 11 de b2 3d e8 e1 09 3e 27 cc ca bd 56 88 f1 ba
       0.08733762 0.13465083 -0.0990222 -0.0018427472
0000c0 c3 d9 56 be 9c af 82 bd 33 ed 20 3d 60 3c 56 be
       -0.20981507 -0.06381151 0.03928871 -0.20921469
0000d0 e1 d5 ce 3d 3f a2 20 3d bf 93 20 be 0b 25 fa 3d
       0.10099388 0.03921723 -0.1568136 0.12214097
0000e0 df f1 d4 3c 4d f0 70 3d 54 34 72 be c0 2b 99 bd
       0.02599424 0.05882292 -0.23652774 -0.07479048
0000f0 22 bc b0 be ca e0 4f 3e 75 ac bd ba 34 af e7 3c
       -0.34518534 0.20300594 -0.0014470952 0.028281786
000100 b2 f1 05 bb b8 c9 34 bd 59 7f 6c 3d d4 18 58 3d
       -0.002043825 -0.044137686 0.057738636 0.052758053
000110 54 ea 84 bd 17 7a 1a bc ad 71 b2 3d 7c 6c ec bd
       -0.06490007 -0.009428523 0.08713088 -0.11544129
000120 6a 46 9e bd 2d 04 34 bd cb d7 5a bd aa 11 9e 3b
       -0.07728274 -0.043949295 -0.053428452 0.004823883
000130 e8 13 72 3e 47 47 e8 3b ab 51 91 bd ee ea d8 bd
       0.23640406 0.007088575 -0.07095655 -0.10591684
000140 10 96 7d 3d bf bf cf bb bb 82 22 3b 06 f2 d7 3d
       0.06191069 -0.0063399966 0.002479716 0.10544209
000150 2c d7 97 3c 1f 9b 12 3e a1 99 90 bd 31 06 0b bd
       0.01853522 0.14316987 -0.070605524 -0.03394145
000160 f4 f1 ce bc 9f 9c 19 3e 81 26 39 3b 0a b6 d6 bd
       -0.025261857 0.15001152 0.002825171 -0.1048394
000170 4e 09 27 3c ee 6d 0a 3e 51 2c 3a 3e 5c 08 d3 3d
       0.0101950895 0.13518497 0.18180968 0.10304329
000180 6f 71 9b bd f6 57 08 bd 66 55 d3 3d 99 46 4c 3e
       -0.07589995 -0.03328701 0.10319023 0.19948806
000190 cc 3d 09 3e 59 55 55 bd cd dd 80 be 4b e5 c1 3d
       0.1340248 -0.052083347 -0.2516922 0.09467562
0001a0 cc 92 12 bd f6 e4 97 3d 0a b0 5b 3d 63 3e a0 bc
       -0.035784528 0.07416718 0.05363468 -0.019560998
0001b0 25 12 da bd bb 6d 15 be a4 1e 05 3d 83 81 92 be
       -0.10647992 -0.1459264 0.032499924 -0.28614435
0001c0 a8 7b cb 3d 6c e2 ea bd 96 7c 9d be 51 aa 8c 3c
       0.09935695 -0.11468968 -0.30759114 0.017171057
0001d0 b4 f6 09 be 84 77 71 3e 30 16 d6 bc eb b9 39 bd
       -0.13473016 0.23580748 -0.026133627 -0.04534332
0001e0 fe 0a 2e 3d 24 50 8e 39 87 68 4c bd 34 f4 13 bd
       0.04249095 0.0002714406 -0.049904373 -0.036121562
0001f0 02 7e 40 be 73 f5 dd bc 4f ed a9 3c 4d 47 9f bc
       -0.18798068 -0.027094578 0.02074304 -0.019443179
000200 84 98 e5 3c a9 34 83 bc 73 ce 0e bd b9 2d e0 bd
       0.028026827 -0.016016321 -0.034864854 -0.10946221
000210 3b 04 c0 bd 5f 0a 9e bd 7e 2b 25 3d 04 6b d8 3c
       -0.09375807 -0.07716822 0.04032468 0.026418217
000220 f3 e6 86 3d 95 ac a7 bd 6b 50 3b bd 49 ae 89 bd
       0.06587019 -0.08187214 -0.04573099 -0.067226954
000230 48 66 d9 bd 57 6d 75 3d 84 c9 94 3c fa 89 23 be
       -0.10615212 0.059918728 0.018162496 -0.15970603
000240 a9 75 55 3e f8 91 99 bc db bd 8f bd 3c 95 11 bf
       0.20845665 -0.018746361 -0.07018634 -0.5686834
000250 bd f2 58 bc c6 12 a9 bd 15 61 96 bc 32 24 b1 3d
       -0.013241467 -0.08255534 -0.01835684 0.08649482
000260 47 1c a3 3b 0e d4 49 bb a4 e2 25 bc 55 64 2b 3e
       0.004977736 -0.003079656 -0.010124836 0.16737492
000270 9b c9 44 bc 0a 71 29 3e 32 11 c7 3c d5 38 26 3e
       -0.012010957 0.16547027 0.024300192 0.16232617
000280 f0 69 01 3e 28 ac 95 3d 0f 14 9c 3c 63 e1 00 3d
       0.12638068 0.07308227 0.019052533 0.031464946
000290 6c dd 33 bd 5a c4 83 bc e7 eb b2 bb a0 77 3c 3d
       -0.043912336 -0.016084839 -0.0054602507 0.04601252
0002a0 56 f2 24 3e 6c 99 70 3c fe eb d8 3c 97 d2 87 3d
       0.16108069 0.014685016 0.026479717 0.06631964
0002b0 ee 94 96 bd bb 74 5a be cd cd a1 3e 30 13 97 bd
       -0.07352625 -0.21333592 0.31602326 -0.073767066
0002c0 56 b0 49 be d1 0e 06 bb 09 9b 66 be 3b 9d 67 bd
       -0.19696173 -0.0020455609 -0.22520079 -0.05654643
0002d0 1b d9 16 be 9b fb 00 3e da cd 2a 3d 8c 3e b0 3c
       -0.14731257 0.1259598 0.04170022 0.0215142
0002e0 eb ac 07 bd cf c9 7e bd c9 d2 89 3c d2 11 08 be
       -0.03312389 -0.06220418 0.016824143 -0.13288048
0002f0 7f 25 e4 3d 20 18 ae 3c d5 0b b5 bd 61 0a d9 3d
       0.11139964 0.021251738 -0.088401474 0.10597683
000300 5d c1 c3 3c 1e 5e 8f 3d a3 3e 26 bb 8a 9e af 3d
       0.023895914 0.07000373 -0.0025366924 0.08575161
000310 7d 9e 4b 3d 65 a2 f2 bd 51 48 65 be 7a 86 7d 3d
       0.049711693 -0.118473805 -0.22390868 0.061895825
000320 da 35 c3 bd 02 c7 bc bc 57 20 12 bd ed 4b 1e be
       -0.09531756 -0.023044113 -0.035675373 -0.15458651
000330 9e 1b 13 3e 9f 2d 2a be 99 75 40 3c 8c 24 3c be
       0.14366004 -0.16618966 0.0117467875 -0.18373317
000340 33 93 a5 bd 90 1a b1 bc 6f 2f 92 3d 13 89 64 3d
       -0.08084717 -0.021619111 0.071379535 0.055794787
000350 c6 a6 7e bd cd 33 60 3c a8 87 b3 3c 87 ea a2 3d
       -0.062170766 0.013684225 0.021915272 0.07954889
000360 6e 54 71 3e 43 89 3c 3e fc e9 32 3d 19 fe e1 3b
       0.23567364 0.18411736 0.043680176 0.006896746
000370 77 96 d9 3c ec 33 b0 3b 37 63 8e be 18 7c 50 bc
       0.026561005 0.0053772833 -0.2781007 -0.012724899
000380 0c 5f 5b 3e f6 48 1f 3d c5 9b c5 3d 0d 93 33 bc
       0.21422976 0.03888794 0.09648851 -0.010960353
000390 3f 9d 8a 3e 9a ab 01 3d e4 56 3d 3d 24 25 9d bc
       0.27073094 0.031657793 0.046225443 -0.01918275
0003a0 74 8f c5 3d 33 21 04 be e6 71 57 bd 04 81 46 3d
       0.09646502 -0.1290329 -0.052598856 0.048462883
0003b0 23 5c 4f 3e 05 2f a6 bc f3 9e f5 bc 88 4f e3 bc
       0.20249991 -0.020286093 -0.02998302 -0.027747884
0003c0 a5 cd df be 6d d1 62 3d c6 7d 18 3d 9c 2d f7 bc
       -0.43711582 0.055375505 0.037229322 -0.030173115
0003d0 dc e3 16 be c1 7d 98 3d cb 09 e8 3c 7d 0f 0a 3e
       -0.14735359 0.07445861 0.028324982 0.13482471
0003e0 27 af 06 be 1b 20 a4 be 8a d4 4d bd 30 c1 10 3e
       -0.13152753 -0.32055745 -0.05025152 0.14136195
0003f0 fa d6 5d bd 69 a7 09 bf 2a 38 3e b8 15 4f 0f 3e
       -0.054160096 -0.5377107 -4.5351837e-05 0.13995011

feats.1.conv1.proj.weight f4 [32, 32, 3, 3]
000000 10 38 63 3e 96 c4 11 bf 5e 40 bd bd af 08 12 3e
       0.22189355 -0.5694059 -0.09240793 0.14261125
000010 21 c2 bf be 3f 5c db be e3 0b d6 3e 00 f0 87 3e
       -0.37452796 -0.42843816 0.41805944 0.26550293
000020 2b bd 91 3d 65 bb fe bc 06 92 6f be 2b f7 05 bd
       0.07116159 -0.031095216 -0.23395547 -0.03270642
000030 61 2b 6f be 7d e3 c6 3e e5 7b e3 bb bd 17 95 3e
       -0.23356391 0.38845435 -0.0069422596 0.29119673
000040 0c 4a 85 be e7 d0 79 bd 25 1c 30 bc 90 43 ea 3d
       -0.26033056 -0.06099024 -0.010748898 0.11438668
000050 65 41 82 3d ba dd f1 3e 51 23 e3 bf 35 18 30 be
       0.06360129 0.47239476 -1.7745153 -0.17196734
000060 8a 8f d3 3d fd fb 25 bd 54 f0 e9 3b da a7 8e 3e
       0.10330112 -0.040523518 0.007139245 0.27862436
000070 74 45 8a 3e 9e 6d 17 bf 25 c0 2e 3f 09 b3 b6 bd
       0.27006114 -0.5915164 0.6826194 -0.08920867
000080 fe 21 3c be 90 11 62 be 7d 49 87 3e 81 6e 61 bd
       -0.18372342 -0.22077012 0.26423255 -0.055037025
000090 5c 2f 16 bd a7 a0 0e bf 0b 2e 5d be 88 4f 37 3c
       -0.03666626 -0.55713886 -0.21599595 0.011188395
0000a0 d0 d2 87 3e f2 0d 27 bf 9f 89 e2 3d 09 a2 97 3e
       0.26528025 -0.65255654 0.110614054 0.2961581
0000b0 dc 89 e3 bd f2 52 dd bd dc 4e 80 3e e2 8e 9b 3d
       -0.11110279 -0.10806836 0.25060165 0.07595612
0000c0 7d fa 5e bc bb 9d 84 3e 4f bb 48 3f 82 d2 ca be
       -0.013609526 0.2590159 0.7841081 -0.3961373
0000d0 c1 17 07 3f 54 40 4a 3b e9 0b 5c 3c b0 ab a3 be
       0.5277062 0.0030861096 0.013430574 -0.31966925
0000e0 5a 80 e5 bd 20 f0 f6 be cf 0d 86 bf 07 b5 b3 be
       -0.11206122 -0.48230076 -1.0472964 -0.3509905
0000f0 50 c1 b3 3e 6b 13 aa be 1c 60 57 3d f7 d6 06 3f
       0.35108423 -0.3321794 0.05258189 0.5267176
000100 c0 1f 46 3e 2c a4 53 3e b2 b1 30 bd 0b 2c ef be
       0.19348049 0.20668095 -0.043138213 -0.4671329
000110 bd b7 a7 3d 06 31 88 bc 17 13 f0 3e 19 aa 16 3e
       0.08189342 -0.016624939 0.46889564 0.14713325
000120 0e bc 48 be 87 d8 47 be 31 51 e8 bd 6f 7d 2a 3f
       -0.19602987 -0.19516192 -0.11343611 0.66597646
000130 13 3a 39 be 87 36 94 bd 70 16 00 3e 20 b8 c1 3e
       -0.1808856 -0.07236963 0.12508559 0.3783579
000140 45 aa 13 be 65 6f c5 bd ad 3a 8f 3e f0 6d 9e bc
       -0.14420421 -0.096403874 0.27974454 -0.019339532
000150 7f 58 d5 3e a2 31 02 3f 08 b5 f8 be 1c 39 1c bd
       0.4166908 0.50856984 -0.48575616 -0.0381404
000160 8e 48 c4 3e 6b b2 8d be 77 9e 06 bf fe d7 02 3f
       0.38336605 -0.27675185 -0.5258555 0.5111083
000170 95 e4 34 be 32 b8 99 3e 84 a4 02 be 21 7d 82 3e
       -0.17665322 0.30023342 -0.1275807 0.2548609
000180 d5 11 88 be 00 af 1d 3f 70 fc 36 3e 51 5b 36 3d
       -0.26576105 0.61595154 0.17869735 0.04452068
000190 16 93 95 be 16 bc cc 3e 1f 62 df be 2a d1 a9 be
       -0.2921378 0.39987248 -0.43629548 -0.33167392
0001a0 43 27 4b 3d df 5b 84 3e 5d c6 be 3d 0a 00 7b 3e
       0.04959799 0.25851342 0.093151785 0.24511734
0001b0 5b 05 87 3d d6 63 43 3f 18 d8 35 3e 71 33 18 3f
       0.06592818 0.7632421 0.17758214 0.59453493
0001c0 8a c6 a0 be 9f 8d 18 3e 07 8c 07 bf 16 8b b9 bd
       -0.31401473 0.14897774 -0.5294804 -0.09059732
0001d0 e9 4e 9c 3e 41 ee cf 3b b1 08 34 be bb 7d cf 3d
       0.30528954 0.0063455408 -0.1758144 0.10131403
0001e0 6d 26 54 3e b9 a9 4e bf 95 33 8f be c9 68 b8 3d
       0.20717783 -0.80727726 -0.2796904 0.09004361
0001f0 a4 ed 31 bf af 57 9f be 2a 64 ec bd 5b 83 21 be
       -0.69503236 -0.31121585 -0.11542542 -0.15772764
000200 7d a5 3f bd cd a6 ba 3e 5a 44 5d be 73 af 75 be
       -0.04678868 0.36455384 -0.21608105 -0.2399271
000210 e6 9e 9e be ca b1 9d 3e be cc 5d 3e e5 a4 cd 3d
       -0.30980605 0.30799705 0.21660134 0.10041217
000220 31 c1 04 3e 49 77 2c be cd 20 bf bd fd 35 40 3e
       0.12964322 -0.16842379 -0.09332428 0.18770595
000230 b9 4c 2f bd 9e 8a 1d bc af 0d 00 bf ea 9c 97 3e
       -0.042797778 -0.009615568 -0.5002088 0.29611903
000240 bf 1b a5 3b eb 1c ca ba 25 73 80 be e5 36 a4 3d
       0.005038708 -0.0015419995 -0.25087848 0.08018283
000250 3a 5b 18 3f 4b df 07 be 13 73 d0 bd 3e 07 0a be
       0.595142 -0.13268773 -0.10178199 -0.13479325
000260 ff cd 57 3d a5 4e de be 43 1c 02 bf 08 8a 98 be
       0.052686688 -0.43419376 -0.50824374 -0.2979281
000270 21 30 28 bf ae 17 62 c0 7a c1 6f be 11 4b 08 bf
       -0.6569844 -3.5326953 -0.23413649 -0.5323954
000280 ea 1d ce be 14 f1 bf be 17 f4 39 bd a5 11 04 bf
       -0.40257198 -0.37488616 -0.045398798 -0.51589423
000290 27 32 2a be a3 7a c5 bd eb e4 ff 3e eb b0 27 3e
       -0.16620694 -0.09642532 0.49979338 0.16376083
0002a0 92 19 77 be 8a d6 f5 be 2b 58 b1 3e 15 55 b4 3e
       -0.24130848 -0.48015243 0.3463758 0.35221162
0002b0 69 06 9f 3e 9d 3d df 3d e8 88 5f 3e 5e b7 2f bf
       0.31059578 0.10900424 0.2182957 -0.6863917
0002c0 93 6c 60 be bc f4 da 3d da cc 63 be 24 5f 8c bd
       -0.21916418 0.10691211 -0.22246113 -0.06854084
0002d0 f8 07 82 be cd 25 d4 3e 8e 68 00 3f 96 06 a0 bd
       -0.25396705 0.4143509 0.5015954 -0.07813756
0002e0 77 7f 94 be 74 57 a5 be 24 cf 43 be ed af ac bd
       -0.29003498 -0.32293284 -0.19121987 -0.08431993
0002f0 b7 c4 f7 3d be 86 b5 3d 6b 95 b6 be e5 78 cf bd
       0.12098067 0.08863591 -0.35660872 -0.10130481
000300 da d4 46 bf df c2 b9 bb c9 58 a0 3e 55 50 de 3d
       -0.77668536 -0.0056689824 0.31317738 0.10855166
000310 80 ed a0 be b3 48 b6 3e ab 9f bb 3d f2 7f bf bd
       -0.31431198 0.3560234 0.091613136 -0.093505755
000320 f7 e3 8f 3e 2c 6d 6d be 8b 16 71 3e ef c0 c7 bd
       0.2810361 -0.23186177 0.23543756 -0.09753596
000330 de 01 cc 3e be 46 9c 3e 8f 24 6d 3e 9d 0f 3e bc
       0.39845175 0.30522722 0.23158477 -0.011600402
000340 de d3 fc 3e f2 06 59 be 22 36 f8 bd 94 fd b6 3a
       0.49380392 -0.21194056 -0.121197 0.001396107
000350 18 24 f4 bc ad be e8 bd 25 f5 07 be 16 2e 81 be
       -0.029802367 -0.113644935 -0.13277109 -0.25230473
000360 09 06 bc 3e 3f 54 55 3e 8e 35 0d be 8c 6a 58 be
       0.36723354 0.20832919 -0.1378996 -0.21134394
000370 fc 26 01 bf 4b 83 72 3f e2 08 98 3e be 50 31 be
       -0.5045011 0.9473159 0.29694277 -0.17315957
000380 fa 03 20 3d 79 04 3a be 9f 83 08 3f 2a 11 1b 3e
       0.039066292 -0.18165769 0.5332584 0.15143266
000390 a5 23 d1 3e 3b d5 34 be d2 84 d7 bb cd 9d 50 be
       0.40847507 -0.17659466 -0.0065771127 -0.20372696
0003a0 c5 25 28 bf fc c3 01 3f d7 7a 56 be 25 87 ca 3c
       -0.6568263 0.50689673 -0.20945297 0.024722645
0003b0 e1 6b 8a 3e 92 a5 05 3f 41 36 4a bf 4c f8 4b be
       0.2703543 0.52205765 -0.78989035 -0.19918936
0003c0 97 3c 57 3d ac f9 71 be f2 cb 15 3e b8 c0 5a 3e
       0.052548017 -0.23630399 0.1462858 0.21362579
0003d0 6a b7 9e be 10 d8 82 3e e6 2b 10 be c0 8d f8 bd
       -0.3099931 0.25555468 -0.14079246 -0.12136412
0003e0 a4 57 03 3f 18 41 63 3e f5 97 aa be c7 79 90 be
       0.51305604 0.221928 -0.3331906 -0.2821791
0003f0 b8 5c 17 bf 6f b8 24 3e cf 5e 2b be c9 1d 11 3e
       -0.5912585 0.16085981 -0.16735385 0.14171518

feats.1.conv1.dwconv.weight f4 [16, 1, 3, 3]
000000 1b 4b 8e 3c 3c 4c d8 3c 16 d7 9f 3c a8 f5 d5 3c
       0.017369797 0.026403539 0.01951174 0.026118115
000010 4c f9 66 3d 0a 7c d4 3c 20 0c 9a 3c 8b 5e dc 3c
       0.05639009 0.025938053 0.01880461 0.02690055
000020 25 6c 97 3c 45 0b 4f bc e5 3a a9 3d 87 4d 00 bd
       0.018484185 -0.012636964 0.08263186 -0.031323936
000030 e3 ff 95 3c 23 48 25 3f d2 fb c7 3c f5 72 20 bd
       0.018310493 0.64563197 0.02441207 -0.03917213
000040 e7 70 a3 3d ab 77 00 bc 39 07 2b 3c 68 b9 ca bd
       0.07980519 -0.007841031 0.010438734 -0.09898645
000050 89 a4 85 3c 6a 95 e9 bd 05 ad f1 be b6 25 ff bd
       0.016313808 -0.114054516 -0.47202316 -0.12458365
000060 2b 72 06 3c 54 04 bc bd 7e a8 48 3c 4d 7f 2c 3d
       0.008205931 -0.09180513 0.012247203 0.04211359
000070 c9 8a c7 bd fa e6 34 3d 9a 72 02 be 10 28 a7 be
       -0.09743268 0.04416559 -0.1273903 -0.32647753
000080 c0 93 dd bd 1c bf b1 3c ac 3c d2 bd 4b b2 fa 3c
       -0.10819197 0.021697573 -0.102654785 0.030602595
000090 36 b8 ac bd d4 90 c3 bd 2d df ba bd 2e da ca bd
       -0.08433573 -0.09549108 -0.09124599 -0.09904896
0000a0 f9 22 42 be 90 f9 c8 bd 7c 5f a3 bd 7f f0 ad bd
       -0.18958654 -0.09813225 -0.079771966 -0.084931366
0000b0 6f d9 a6 bd df 81 00 be aa ee 19 be b1 07 00 be
       -0.08146941 -0.12549542 -0.1503245 -0.12502934
0000c0 0f 23 1e be 15 2a 85 be 0d 70 19 be fd b7 fc bd
       -0.15443061 -0.2600867 -0.1498415 -0.123397805
0000d0 fe 0b 15 be f5 ff 01 be 17 aa 52 be 5c f3 8c be
       -0.14555356 -0.12695296 -0.20572697 -0.27529418
0000e0 ec a3 47 be 58 8b 8c be c2 00 01 bf 50 9f 92 be
       -0.19496125 -0.2745006 -0.5039178 -0.2863717
0000f0 09 23 4d be ea b7 97 be 17 4d 57 be 24 94 58 3c
       -0.20032896 -0.29632503 -0.21025501 0.013218913
000100 e8 b1 20 be 58 29 c3 3c 5a 3e fc bd 00 a6 f0 be
       -0.15692866 0.023823425 -0.1231658 -0.47001648
000110 9e 65 0c be 7c c5 20 3d 49 9a 2c be 1c 8c 99 3c
       -0.13710639 0.039250836 -0.1685573 0.018743567
000120 0a e6 c5 bc 12 fe a9 3d f9 96 e3 bb 44 19 98 3c
       -0.024157543 0.08300413 -0.0069454876 0.018566735
000130 59 5c 1c 3f ee f1 31 3c 1b 1e 39 bb 09 34 9c 3d
       0.6107841 0.010860903 -0.0028246704 0.076271124
000140 db a7 ec bc 68 40 8f 3c 80 be c1 3c 2e 07 95 3c
       -0.028888633 0.017486766 0.023650408 0.0181919
000150 f9 54 cb 3c 3d 04 8b 3d ca 06 c3 3c bc 3d 8b 3c
       0.024820792 0.06787918 0.023806948 0.01699721
000160 1d e4 c2 3c eb 40 8e 3c a6 35 8d bd 4f 0d b9 bd
       0.023790414 0.01736494 -0.06894998 -0.090357415
000170 c1 9e 8f bd 5b f2 b9 bd 9d 85 7f be 34 77 b5 bd
       -0.07012702 -0.09079429 -0.24953313 -0.08860627
000180 15 d0 87 bd 00 ef ac bd be 99 85 bd d1 b6 da be
       -0.066314854 -0.08444023 -0.065234646 -0.42717603
000190 79 ce 96 be fd 63 da be c5 d9 95 be 90 18 ef be
       -0.294544 -0.4265441 -0.29267707 -0.46698427
0001a0 85 5e 90 be 93 bf d9 be e9 09 97 be 08 26 df be
       -0.28197113 -0.42528972 -0.29499748 -0.43583703
0001b0 e0 5f 81 bc 44 22 e9 bc 8b db 40 bd ad 87 b6 bd
       -0.015792787 -0.028458722 -0.047084372 -0.08912597
0001c0 c7 35 aa be 28 af ab bd 21 ce 21 bd 69 c1 e0 bc
       -0.33244154 -0.08383018 -0.03950322 -0.027435975
0001d0 3d 2a a1 bc 54 ee 77 3c 75 8b bf 3c 07 b7 81 3c
       -0.019673461 0.015132505 0.023381928 0.015834345
0001e0 3d e9 c5 3c d2 5c 92 3d 10 8f b6 3c 87 6f 81 3c
       0.024159068 0.0714661 0.022285014 0.01580025
0001f0 e9 e1 bd 3c 5b 40 88 3c 4f 22 83 3d a0 f9 1b be
       0.023179011 0.01663225 0.06403028 -0.15231943
000200 cf 11 83 3d 58 74 33 be 35 ec 01 bf 33 24 2a be
       0.06399881 -0.1752485 -0.5075105 -0.16615371
000210 f6 94 96 3d c4 cb 38 be c9 69 39 3d 53 3f 17 3a
       0.07352631 -0.1804648 0.0452669 0.0005769629
000220 53 4b 1f 3d 79 68 ff bc 40 1e 8c 3d 7f 6a 06 3f
       0.038890194 -0.031177746 0.06841707 0.5250625
000230 d3 1b 98 3d f3 8f d3 bc f8 97 08 3d 98 c5 1d bb
       0.07427182 -0.025825476 0.033348054 -0.0024074074
