NTIRE2023_ESR/model_zoo/team14_GFMN.pth (torch, 921105 bytes, 280 tensors)

to_feat.weight f4 [36, 3, 3, 3]
0.024568276 -0.055889096 -0.014468936 -0.030090736 -0.025225664 0.018853212 0.009557037 0.036485683
-0.027784077 -0.103486285 0.06734448 -0.06918388 0.05498413 0.22317973 0.0027681277 -0.07315787
0.02826001 -0.032084167 0.063734986 -0.042655688 0.052440204 -0.019378051 -0.06707688 -0.022193238
0.03493243 -0.065436244 0.024049733 0.014296138 -0.02360167 -0.01981412 -0.024073206 0.0058968123
0.017017921 0.009483871 -0.0115065 -0.021492235 -0.034062818 0.009083956 -0.018484006 0.014744336
0.18022479 -0.026744897 -0.03509476 0.042150322 -0.0012190933 0.02884837 -0.024300171 0.027820094
-0.012174553 -0.06885321 -0.020327346 0.02070212 -0.05031164 0.016007705 -0.011213811 0.031831954
-0.0136915725 0.011180673 0.6058771 0.07805717 0.012463792 0.01259642 -0.020420238 0.057852205
0.019457178 0.023936303 0.026815655 -0.1077948 -0.051467244 0.0041806903 0.06172929 0.03271371
-0.039031904 -0.05710765 -0.016929856 -0.008819357 -0.52614945 -0.008785814 -0.025691638 -0.052064493
-0.026264688 0.0036553752 0.07403069 0.005234516 0.092110656 -0.28274387 0.1217791 0.01231836
0.0046476834 -0.018134255 0.071233205 0.14930108 0.052853 0.020003986 -0.49242443 0.01757482
-0.008253071 0.10023128 0.03415504 -0.06888493 -0.24752659 -0.06841401 -0.09087414 0.8092545
-0.13543049 -0.012680929 -0.09290762 -0.026955215 0.04043537 -0.07679669 0.0093810465 -0.11526329
0.1948061 -0.061703794 0.034563504 -0.053867836 -0.011169923 -0.055931073 0.017891483 -0.030889789
0.036012318 0.17556514 0.0016908457 -0.038699247 -0.025831936 0.0237753 0.031278532 -0.09981998
0.029448899 -0.02487187 0.11509962 -0.040603347 0.00882752 -0.027169585 -0.014173159 0.022440532
0.010788967 -0.0065838927 0.037275236 -0.04231788 0.044314764 0.013982575 0.024791082 -0.024464915
-0.04290084 -0.013086583 -0.025485532 -0.0030583546 0.02190753 -0.038908627 -0.033216357 -0.0072761383
0.01588737 0.040963832 -0.03500747 0.03319372 -0.011730532 0.10154223 -0.023254905 0.016544301
-0.047332875 0.007514261 -0.00083383964 0.03798698 -0.03951414 0.018552149 -0.069067545 0.07857479
0.0069992985 0.034436584 -0.037748177 -0.00091368915 -0.0004378367 0.028711444 0.06385356 -0.11846621
-0.028204652 -0.030159261 0.050379295 0.026270907 0.009199581 0.04363103 -0.004711582 0.03974551
-0.18688416 0.050933715 0.015181558 0.018599892 -0.001222138 0.10435142 0.027384102 0.023463635
-0.15273395 0.084880166 -0.061524164 0.042284187 -0.09011905 -0.043054637 -0.17655882 0.013591421
-0.037667055 0.10744192 0.23745297 0.029776523 -0.12921229 0.007043241 0.04491926 0.09129677
-0.04642887 0.010434904 0.084907085 -0.3928295 0.029375685 0.09603247 0.07324223 -0.010603863
0.02679193 -0.035246614 -0.01861754 -0.080623604 0.15338147 -0.005922332 0.020043012 -0.021579625
-0.036796425 -0.07641645 -0.020468073 -0.031954627 0.045006014 0.25720528 -0.047087193 -0.058363415
-0.0013400785 0.03230728 0.034499615 0.041105025 0.01928417 0.04937931 0.20616193 0.0650122
0.005200574 0.044332705 -0.034951724 0.051888395 0.092667334 0.042610496 0.071681276 -0.552352
0.07110929 0.066940874 0.1076221 0.038361948 0.030126935 -0.071375735 -0.019804316 0.09849657
00000000: 6943 c93c f7eb 64bd 1e0f 6dbc d980 f6bc
00000010: 0da6 cebc 0d72 9a3c 1e95 1c3c 0372 153d
00000020: 6f9b e3bc 9ef0 d3bd e7eb 893d 47b0 8dbd
00000030: 0a37 613d 3a89 643e 7a69 353b cbd3 95bd
00000040: 8981 e73c b06a 03bd 7d87 823d bbb7 2ebd
00000050: 8acb 563d b8be 9ebc 9a5f 89bd 98ce b5bc
00000060: 4f15 0f3d 7003 86bd f203 c53c 593a 6a3c
00000070: 4a58 c1bc 3951 a2bc 2c35 c5bc 0c3a c13b
00000080: 2b69 8b3c 3d62 1b3c c285 3cbc 7c10 b0bc
00000090: 7485 0bbd dfd4 143c c56b 97bc 3a92 713c
000000a0: d98c 383e 1d18 dbbc 86bf 0fbd d1a5 2c3d
000000b0: fcc9 9fba 6b53 ec3c 2711 c7bc f7e6 e33c
000000c0: c777 47bc e902 8dbd 8985 a6bc 7e97 a93c
000000d0: 9413 4ebd 9722 833c 22ba 37bc 3962 023d
000000e0: 9e52 60bc 242f 373c c31a 1b3f 70dc 9f3d
000000f0: ef34 4c3c 3761 4e3c 5848 a7bc 6ff6 6c3d
00000100: a964 9f3c 1116 c43c 81ac db3c 85c3 dcbd
00000110: 51cf 52bd 2cfe 883b dad7 7c3d d0fe 053d
00000120: ebdf 1fbd b6e9 69bd 7bb0 8abc 107f 10bc
00000130: bbb1 06bf 60f2 0fbc 4577 d2bc 9441 55bd
00000140: 0b29 d7bc 058f 6f3b 679d 973d 4e86 ab3b
00000150: 83a4 bc3d cec3 90be 5267 f93d f2d2 493c
00000160: 984b 983b 4a8e 94bc b7e2 913d 62e2 183e
00000170: 637c 583d 66df a33c 0e1f fcbe 12f9 8f3c
00000180: e437 07bc 0f46 cd3d 28e6 0b3d 8b13 8dbd
00000190: 9c77 7dbe a51c 8cbd 391c babd 4e2b 4f3f
000001a0: 4aae 0abe acc3 4fbc 5a46 bebd 2fd1 dcbc
000001b0: 8f9f 253d 9547 9dbd f6b2 193c 290f ecbd
000001c0: 407b 473e 1ebd 7cbd 7692 0d3d 85a4 5cbd
000001d0: 0d02 37bc fb17 65bd 2991 923c 950c fdbc
000001e0: a781 133d 59c7 333e 5e9f dd3a 1a83 1ebd
000001f0: 7f9d d3bc 6bc4 c23c eb1d 003d 6b6e ccbd
00000200: d13e f13c 18c0 cbbc 59b9 eb3d b24f 26bd
00000210: 4da1 103c c092 debc 8a36 68bc 35d5 b73c
00000220: 35c4 303c b2bd d7bb ebad 183d 8355 2dbd
00000230: 6683 353d 2c17 653c ab16 cb3c a56a c8bc
00000240: cbb8 2fbd 1c69 56bc 09c7 d0bc ad6e 48bb
00000250: 6c77 b33c a75e 1fbd e00d 08bd ac6c eebb
00000260: 3b26 823c b1c9 273d fe63 0fbd 23f6 073d
00000270: 6b31 40bc 5ff5 cf3d 1281 bebc ea87 873c
00000280: 1ee0 41bd 313a f63b 0896 5aba 3c98 1b3d
00000290: 94d9 21bd adfa 973c 4973 8dbd d2eb a03d
000002a0: 5f5a e53b 600d 0d3d d59d 1abd a484 6fba
000002b0: 728d e5b9 4334 eb3c a8c5 823d 6a9e f2bd
000002c0: 710d e7bc 8e10 f7bc 855a 4e3d 1636 d73c
000002d0: d7b9 163c 73b6 323d 9d63 9abb 30cc 223d
000002e0: 905e 3fbe df9f 503d 12bc 783c cd5e 983c
000002f0: 2530 a0ba 33b6 d53d a054 e03c cf36 c03c
00000300: 4a66 1cbe a7d5 ad3d c300 7cbd 2f32 2d3d
00000310: 5690 b8bd 0f5a 30bd d6cb 34be 8dae 5e3c
00000320: c548 1abd 820a dc3d df26 733e e5ed f33c
00000330: 3a50 04be fdca e63b 42fd 373d cdf9 ba3d
00000340: 332c 3ebd 29f7 2a3c c4e3 ad3d f320 c9be
00000350: 47a5 f03c acac c43d 0600 963d d3bb 2dbc
00000360: c07a db3c c15e 10bd d083 98bc fd1d a5bd
00000370: 0810 1d3e 1f10 c2bb 3e31 a43c c1c7 b0bc
00000380: d9b7 16bd 3a80 9cbd a9ac a7bc dbe2 02bd
00000390: 3a58 383d 69b0 833e 80de 40bd 7a0e 6fbd
000003a0: 93a5 afba a354 043d 784f 0d3d be5d 283d
000003b0: d6f9 9d3c f641 4a3d 1d1c 533e 1e25 853d
000003c0: 9469 aa3b 3696 353d 8a29 0fbd ed88 543d
000003d0: 5fc8 bd3d 5888 2e3d a2cd 923d f166 0dbf
000003e0: bfa1 913d 4c18 893d fa68 dc3d 6b21 1d3d
000003f0: c3cc f63c 712d 92bd a93c a2bc 92b8 c93d

to_feat.bias f4 [36]
-0.16448183 0.24442282 -0.074347645 0.063401096 0.43847662 0.06551262 0.43981746 -0.0639631
-0.12935849 -0.06854153 0.076538816 0.053071138 -0.06264363 -0.09441631 0.07882713 -0.023695473
0.08279286 -0.24900343 -0.008706578 -0.026006456 -0.7179444 0.05322706 -0.015662022 0.07138061
-0.09629516 -0.027025599 0.10758649 -0.09058354 -0.005552934 -0.10495294 0.04820966 -0.002342949
0.14179134 -0.116617866 -0.13095321 -0.007768627
00000000: ed6d 28be fa49 7a3e 9443 98bd 6fd8 813d
00000010: 0280 e03e 7b2b 863d c12f e13e 16ff 82bd
00000020: 8d76 04be 805f 8cbd 62c0 9c3d 1f61 593d
00000030: 4e4b 80bd 575d c1bd 1e70 a13d 021d c2bc
00000040: 4e8f a93d c1fa 7ebe 09a6 0ebc 7e0b d5bc
00000050: 34cb 37bf 9e04 5a3d a44d 80bc ff2f 923d
00000060: 6636 c5bd ca64 ddbc 4e56 dc3d dd83 b9bd
00000070: 63f5 b5bb 91f1 d6bd 7e77 453d 298c 19bb
00000080: c031 113e 59d5 eebd 9918 06be f78f febb

feats.0.norm1.weight f4 [36]
1.0485786 1.1738758 0.66790646 0.89620274 0.52568007 1.2519233 0.8518579 1.127706
1.1988571 0.6494178 0.60571045 -0.36084262 0.94762 0.9995448 0.20332375 0.51712483
1.218911 0.5537692 1.068277 1.02164 0.34937066 0.35581857 0.94071317 1.3923918
1.4117308 1.1597449 1.0462644 0.68423086 1.1066183 1.4758887 1.102926 1.0696695
0.9702258 1.003682 1.1844984 1.3059704
00000000: d337 863f 9041 963f ebfb 2a3f 8b6d 653f
00000010: f892 063f 063f a03f 5c13 5a3f ac58 903f
00000020: 2674 993f 3f40 263f d70f 1b3f 5dc0 b8be
00000030: 3997 723f 2be2 7f3f 1a34 503e 4b62 043f
00000040: 4705 9c3f d1c3 0d3f 4dbd 883f 19c5 823f
00000050: b6e0 b23e da2d b63e 94d2 703f e539 b23f
00000060: 98b3 b43f 8572 943f feeb 853f c129 2f3f
00000070: aba5 8d3f ece9 bc3f ae2c 8d3f eeea 883f
00000080: b860 783f a778 803f a59d 973f 0a2a a73f

feats.0.norm1.bias f4 [36]
0.26920572 -0.3842159 0.21221729 -0.27080712 -0.27623925 0.24955384 -0.3098958 -0.2562049
0.14098942 -0.24289818 -0.38183308 0.33482817 0.16349542 0.3808134 -0.0972256 0.08911353
-0.08617062 0.14587644 0.2212253 -0.11616283 -0.4392025 0.17300905 0.0022362655 0.14242303
0.7719536 -0.096994855 0.4390425 -0.091518484 -0.16278917 0.19758467 -0.38520297 -0.15172859
0.329441 0.31517532 0.08591614 0.10952728
00000000: 55d5 893e f2b7 c4be 7d4f 593e 3ba7 8abe
00000010: 3b6f 8dbe 0b8b 7f3e aaaa 9ebe 4a2d 83be
00000020: 885f 103e 4dba 78be a07f c3be 996e ab3e
00000030: 586b 273e f9f9 c23e 371e c7bd 2881 b63d
00000040: 397a b0bd a260 153e e388 623e c7e6 edbd
00000050: 26df e0be 4929 313e 4f8e 123b 58d7 113e
00000060: c09e 453f 3da5 c6bd 2eca e03e 0b6e bbbd
00000070: 34b2 26be a353 4a3e 5339 c5be bd5e 1bbe
00000080: 7eac a83e a95e a13e cdf4 af3d d74f e03d

feats.0.norm2.weight f4 [36]
0.7410078 0.829602 0.28900734 0.5100768 0.50220966 1.6353658 0.59507555 0.4812966
0.7273951 0.3643707 0.58740276 0.590394 0.42466095 0.6374684 0.2747622 0.38969415
1.1938511 0.850183 0.6132896 0.51769745 0.20711456 0.28104308 0.47101384 1.0804682
0.6060456 0.6885509 0.48478004 0.5613639 0.64405483 1.0357883 0.7674358 0.74265933
0.6256574 0.6023387 0.7440993 0.4690866
00000000: b0b2 3d3f cc60 543f c5f8 933e 6594 023f
00000010: d090 003f ab53 d13f df56 183f 826c f63e
00000020: 9136 3a3f cc8e ba3e 0760 163f 1024 173f
00000030: 296d d93e 2131 233f a2ad 8c3e fe85 c73e
00000040: 1dd0 983f 98a5 593f 8c00 1d3f d287 043f
00000050: d715 543e e1e4 8f3e ba28 f13e c84c 8a3f
00000060: ce25 1b3f df44 303f 1735 f83e 8bb5 0f3f
00000070: c7e0 243f b694 843f ac76 443f ec1e 3e3f
00000080: 152b 203f de32 1a3f 4b7d 3e3f 1e2c f03e

feats.0.norm2.bias f4 [36]
0.1312851 -0.4183033 -0.018861327 -0.2481279 -0.71477485 0.012783598 -0.6460526 0.0134651875
-0.06866732 0.0331789 -0.32142246 -0.44227168 0.023744186 0.14385225 -0.10995667 -0.05717316
-0.21385011 0.3062006 0.24209309 -0.07208728 0.62460625 -0.21343735 -0.057313964 -0.10964214
0.1628093 -0.08307268 -0.10499319 0.123211935 -0.14682175 -0.006352637 -0.29780784 -0.14407794
-0.056468032 0.12991032 0.043413002 -0.08505773
00000000: 9a6f 063e da2b d6be 1283 9abc 3d15 7ebe
00000010: 7cfb 36bf 4c72 513c b463 25bf 179d 5c3c
00000020: 74a1 8cbd 99e6 073d 7c91 a4be 6f71 e2be
00000030: 2b83 c23c 014e 133e f630 e1bd 672e 6abd
00000040: 86fb 5abe 53c6 9c3e 40e7 773e 7fa2 93bd
00000050: 32e6 1f3f 528f 5abe 0cc2 6abd 0f8c e0bd
00000060: 7bb7 263e 0222 aabd ab06 d7bd 8a56 fc3d
00000070: 7158 16be c829 d0bb 457a 98be 2b89 13be
00000080: 064b 67bd 3607 053e d5d1 313d bf32 aebd

feats.0.safm.mfr.0.weight f4 [9, 1, 3, 3]
-0.06167321 -0.11002843 -0.0670185 -0.12926424 -0.24260156 -0.11278768 -0.06299454 -0.065800086
-0.062534966 0.037914623 0.12271208 0.06617775 0.13076176 0.27583906 0.12664255 0.03870807
0.13496439 0.04684361 -0.03023905 -0.04604469 -0.029316805 -0.08414491 -0.24327458 -0.05706198
-0.011312389 -0.052504 -0.010493802 -0.012922963 -0.124146976 -8.7162334e-05 -0.12415928 -0.30447796
-0.108182475 -0.004468455 -0.07065646 0.011826041 0.03399136 -0.034011085 0.04202316 -0.026022375
-0.6965306 -0.01850549 0.032508828 -0.026989868 0.033264324 -0.049452208 0.13205044 -0.029541122
-0.013784214 0.4041244 0.065283544 -0.022248521 0.16339864 0.025307806 -0.051548984 -0.111623645
-0.07068511 -0.08350489 0.70016545 -0.100103736 -0.060276963 -0.08483062 -0.06253812 -0.002976625
-0.01941127 -0.015252663 0.032601893 -0.55153567 0.04572612 -0.023967363 -0.06564596 -0.0769118
0.038470335 0.10734777 0.03747858 0.100984514 0.37963697 0.093166836 0.040780246 0.08358649
0.037241556
00000000: 0c9d 7cbd 9656 e1bd ff40 89bd d85d 04be
00000010: 8b6c 78be 3afd e6bd 4803 81bd 32c2 86bd
00000020: 5512 80bd 5d4c 1b3d 7950 fb3d 3388 873d
00000030: 69e6 053e c73a 8d3e 96ae 013e 5a8c 1e3d
00000040: 1b34 0a3e 16df 3f3d e2b7 f7bc 5b99 3cbd
00000050: cc29 f0bc 2b54 acbd f91c 79be d3b9 69bd
00000060: 9957 39bc 6f0e 57bd 32ee 2bbc d6ba 53bc
00000070: c540 febd ecca b6b8 3847 febd 89e4 9bbe
00000080: c68e ddbd 1e6c 92bb 56b4 90bd 03c2 413c
00000090: 863a 0b3d 354f 0bbd 7a20 2c3d e02c d5bc
000000a0: d44f 32bf d398 97bc fa27 053d db19 ddbc
000000b0: 2c40 083d 668e 4abd 3b38 073e 3900 f2bc
000000c0: 2fd7 61bc 65e9 ce3e 61b3 853d 8842 b6bc
000000d0: f951 273e 5152 cf3c 0725 53bd f09a e4bd
000000e0: 5bc3 90bd 9d04 abbd 0b3e 333f 3003 cdbd
000000f0: fae4 76bd adbb adbd fc13 80bd 7b13 43bb
00000100: 6204 9fbc 4ee6 79bc 9089 053d 7131 0dbf
00000110: 504b 3b3d 3457 c4bc 6471 86bd ef83 9dbd
00000120: 1293 1d3d 26d9 db3d 2483 193d f8d0 ce3d
00000130: c75f c23e 41ce be3d 3009 273d 652f ab3d
00000140: 9a8a 183d

feats.0.safm.mfr.0.bias f4 [9]
-0.5397302 -1.0815936 0.047850512 0.07915253 0.56314576 -0.5338941 -0.15043618 -0.40761352
0.0036743619
00000000: c22b 0abf a971 8abf e6fe 433d b91a a23d
00000010: 522a 103f 49ad 08bf f10b 1abe b8b2 d0be
00000020: 90cd 703b

feats.0.safm.mfr.1.weight f4 [9, 1, 3, 3]
0.023738863 0.049771596 0.030500276 0.04926694 0.13159749 0.056649942 0.023242606 0.047597833
0.025654547 -0.012081004 -0.021746987 -0.010969881 -0.025695283 -0.007433091 -0.019336909 -0.012718342
-0.021598874 -0.014139483 -0.020171614 0.15514685 -0.020097809 0.14761016 0.7850451 0.16378358
-0.011914677 0.14847158 -0.016850898 0.011653117 0.033527408 0.015663695 0.03200717 0.13943008
0.03710928 0.013918649 0.03808707 0.013028198 0.0027008946 0.025015736 0.0032927438 0.02839996
0.18299127 0.029852945 0.005590538 0.031724714 0.00476916 -0.053483758 -0.17360573 -0.05361151
-0.18229805 -0.5457044 -0.18933253 -0.053030733 -0.17561169 -0.053532984 -0.021443706 -0.06074447
-0.016795654 -0.068065315 -0.2663522 -0.057461575 -0.020287553 -0.054226045 -0.015692292 -0.010055262
-0.07264774 -0.016003182 -0.06689598 -0.259977 -0.06846021 -0.0093245525 -0.074961066 -0.015907098
-0.00061680126 -0.043887228 0.0019390696 -0.043779615 -0.5712382 -0.03973769 0.00249012 -0.047216274
0.0038286175
00000000: 0178 c23c 4ddd 4b3d b7db f93c 22cc 493d
00000010: 7ec1 063e c509 683d 4767 be3c f2f5 423d
00000020: 7c29 d23c 67ef 45bc bd26 b2bc 04bb 33bc
00000030: ea7e d2bc 4991 f3bb 7068 9ebc 9860 50bc
00000040: 1ff0 b0bc 4aa9 67bc f13e a5bc d1de 1e3e
00000050: 29a4 a4bc 1e27 173e b7f8 483f e2b6 273e
00000060: c735 43bc ef08 183e e50a 8abc b7ec 3e3c
00000070: 0954 093d 2651 803c f319 033d c2c6 0e3e
00000080: e6ff 173d 0c0b 643c 3001 1c3d 3974 553c
00000090: 7e01 313b cded cc3c 13cb 573b 08a7 e83c
000000a0: 1062 3b3e 2a8e f43c d530 b73b c6f1 013d
000000b0: 9d46 9c3b c911 5bbd b3c5 31be be97 5bbd
000000c0: 57ac 3abe 49b3 0bbf 63e0 41be c136 59bd
000000d0: 8dd3 33be 6745 5bbd b6aa afbc 32cf 78bd
000000e0: 0a97 89bc d465 8bbd 515f 88be d45c 6bbd
000000f0: 1532 a6bc 211c 5ebd 1f8d 80bc d3be 24bc
00000100: 57c8 94bd 1b19 83bc c200 89bd b51b 85be
00000110: de34 8cbd 02c6 18bc 3085 99bd 9a4f 82bc
00000120: d5b0 21ba 18c3 33bd 6128 fe3a 4152 33bd
00000130: ab3c 12bf fdc3 22bd 4831 233b da65 41bd
00000140: 8be9 7a3b

feats.0.safm.mfr.1.bias f4 [9]
0.14741416 0.25664517 -0.23775527 0.03831258 0.026066218 0.14213051 0.05609222 0.2046375
-0.17959124
00000000: bdf3 163e ff66 833e 1e76 73be a7ed 1c3d
00000010: d288 d53c a98a 113e f5c0 653d 7e8c 513e
00000020: c4e6 37be

feats.0.safm.mfr.2.weight f4 [9, 1, 3, 3]
-0.0008773852 0.013641868 3.6893484e-06 0.014756317 0.2333747 0.0158223 7.236054e-05 0.014761603
0.0011765928 0.006966348 0.020401575 0.0076015824 0.026298981 0.05645186 0.029941145 0.0052567413
0.020286713 0.00878051 -0.0029367302 0.0030954329 -0.004513398 0.0027685328 0.5709733 0.0031014583
-0.0039478145 0.0032236108 -0.00428326 -0.045897342 -0.13843551 -0.053864628 -0.1347909 -0.26120752
-0.14125392 -0.053894036 -0.1409653 -0.05469692 0.0011119603 0.003071841 0.0008785668 0.0024233405
0.00088888314 0.002147456 -0.00040599794 0.00054109504 -8.730891e-05 -0.011302904 -0.04024123 -0.016165596
-0.047428258 -0.11820515 -0.047128644 -0.022564275 -0.05020479 -0.017352866 0.01545477 0.059084997
0.018360216 0.05266697 0.10450993 0.055273324 0.015587985 0.0576069 0.01851658 -0.015126323
-0.021564707 -0.00910013 -0.022694083 -0.0562089 -0.022393279 -0.0052593183 -0.01477605 -0.00869439
0.007790565 0.029769138 0.0071977344 0.03538629 0.08218324 0.03956606 0.010788432 0.035166968
0.00845756
00000000: 5300 66ba 2482 5f3c 8696 7736 7bc4 713c
00000010: c7f9 6e3e c59d 813c 45c0 9738 a7da 713c
00000020: e737 9a3a f645 e43b 3421 a73c b216 f93b
00000030: f670 d73c 113a 673d 2247 f53c be40 ac3b
00000040: 5230 a63c 21dc 0f3c 2876 40bb bfdc 4a3b
00000050: 20e5 93bb 4670 353b 4e2b 123f d641 4b3b
00000060: ab5c 81bb 3743 533b 975a 8cbb dafe 3bbd
00000070: 0ac2 0dbe 28a1 5cbd a006 0abe febc 85be
00000080: dea4 10be febf 5cbd 3559 10be e109 60bd
00000090: 32bf 913a f150 493b 9f4f 663a e8d0 1e3b
000000a0: f003 693a 55bc 0c3b 1fdc d4b9 46d8 0d3a
000000b0: 9d19 b7b8 d12f 39bc fdd3 24bd b66d 84bc
000000c0: 2244 42bd 8b15 f2bd f709 41bd b7d8 b8bc
000000d0: 8aa3 4dbd 9927 8ebc 0136 7d3c 1c03 723d
000000e0: 2a68 963c 52b9 573d 4d09 d63d 4866 623d
000000f0: bf64 7f3c 36f5 6b3d 15b0 973c 66d4 77bc
00000100: 78a8 b0bc b618 15bc f1e8 b9bc 4e3b 66bd
00000110: 1c72 b7bc 5c56 acbb 3f17 72bc ea72 0ebc
00000120: ff47 ff3b 68de f33c f9da eb3b 37f1 103d
00000130: b04f a83d 0510 223d f7c1 303c 3d0b 103d
00000140: 9491 0a3c

feats.0.safm.mfr.2.bias f4 [9]
0.23883902 -0.034599937 0.83637357 0.4020366 0.16035946 0.30850595 -0.3731332 0.028536405
-0.36610502
00000000: 3792 743e aab8 0dbd 941c 563f bed7 cd3e
00000010: 4535 243e 7ef4 9d3e 510b bfbe 2ec5 e93c
00000020: 1e72 bbbe

feats.0.safm.mfr.3.weight f4 [9, 1, 3, 3]
0.015560508 0.06131367 0.015764987 0.06261299 0.2108872 0.062465265 0.013881765 0.059791945
0.015598836 -0.00074675813 0.0078014717 -0.003429797 0.027305922 0.0778211 0.019108484 0.0013412766
0.00855559 -0.0032603196 -0.008686247 -0.052475527 -0.0034091154 -0.049880367 -0.33358335 -0.047760658
-0.0062840837 -0.052228924 -0.0017444097 -0.011713498 -0.030882161 -0.017369736 -0.03253653 -0.07107973
-0.03766455 -0.011544764 -0.03038556 -0.017201953 -0.022504242 -0.04166806 -0.018112443 -0.042316485
-0.088297434 -0.038858477 -0.015951667 -0.037024148 -0.021498902 -0.019362073 -0.075527854 -0.02159325
-0.06512221 -0.10895213 -0.069394454 -0.01974175 -0.072645806 -0.02077954 0.014922634 0.04533564
0.016844368 0.037735045 0.09283957 0.040802658 0.013263215 0.0441339 0.018345388 -0.014202763
-0.037145663 -0.015984597 -0.035762556 -0.10227698 -0.033133153 -0.013329934 -0.03579785 -0.012807923
0.015914034 0.050623216 0.016142758 0.04608339 0.1843422 0.045176737 0.014614018 0.047416892
0.01466679
00000000: 80f1 7e3c 0b24 7b3d 9325 813c 3d3b 803d
00000010: d0f2 573e 94db 7f3d 5870 633c 66e8 743d
00000020: 4392 7f3c 17c2 43ba 7da3 ff3b 72c6 60bb
00000030: abb0 df3c ab60 9f3d 6589 9c3c c6cd af3a
00000040: bf2c 0c3c 16ab 55bb c350 0ebc 94f0 56bd
00000050: 776b 5fbb 5b4f 4cbd 70cb aabe aea0 43bd
00000060: b7ea cdbb ffed 55bd ada4 e4ba f9e9 3fbc
00000070: 96fc fcbc fa4a 8ebc 0645 05bd 4092 91bd
00000080: 2546 1abd 4026 3dbc 23eb f8bc 1ceb 8cbc
00000090: d15a b8bc 21ac 2abd 8c60 94bc 0d54 2dbd
000000a0: 49d5 b4bd 112a 1fbd 12ad 82bc a2a6 17bd
000000b0: 771e b0bc 369d 9ebc 59ae 9abd 54e4 b0bc
000000c0: cb5e 85bd 4b22 dfbd ae1e 8ebd 73b9 a1bc
000000d0: 53c7 94bd db39 aabc 107e 743c ddb1 393d
000000e0: 33fd 893c 1090 1a3d ac22 be3d b020 273d
000000f0: f54d 593c c0c5 343d 1149 963c b5b2 68bc
00000100: 0d26 18bd 21f2 82bc c27b 12bd 9876 d1bd
00000110: a1b6 07bd cc65 5abc c4a0 12bd 53d8 51bc
00000120: 265e 823c 4a5a 4f3d d13d 843c f0c1 3c3d
00000130: 34c4 3c3e 3e0b 393d a26f 6f3c 3738 423d
00000140: fa4c 703c

feats.0.safm.mfr.3.bias f4 [9]
0.15589075 -0.08564689 -0.062037658 0.07078345 0.035877887 0.5160292 -0.057582557 -0.07359671
-0.16814795
00000000: d3a1 1f3e a367 afbd 331b 7ebd eaf6 903d
00000010: b1f4 123d 7d1a 043f b0db 6bbd dfb9 96bd
00000020: fa2e 2cbe

feats.0.safm.aggr.weight f4 [36, 36, 1, 1]
-0.15276176 -0.033890467 0.5719817 0.04969945 0.020512434 0.24853115 -0.151173 -0.05499684
-0.5170269 0.06933649 -0.3075814 0.14637028 -0.007120463 0.0142088095 -0.0965925 -0.076693766
0.2901161 -0.041454777 -0.6313879 0.33108816 0.097563 0.17892358 -0.3453087 0.052082945
0.29513547 0.106605165 -0.015986018 -0.0040022074 0.1509313 0.1059365 0.06530861 -0.058792908
-0.05667777 0.20894997 -0.03377621 -0.0032520574 -0.06289797 0.021181846 0.51030403 -0.032834493
0.90601283 0.13274775 0.19248511 -0.026470793 -0.4398005 -0.07484472 -0.268721 -8.518472e-05
-0.034198977 -0.018771911 0.046485163 0.037552923 0.090342715 0.05394291 -0.019677429 -0.056840897
-0.0020957654 0.055869024 -0.17190385 -0.03506694 -0.00046005182 -0.018140374 -0.0010699426 -0.064313784
-0.10558761 -0.14124233 -0.11052533 -0.010925129 0.05777979 -0.10425 0.06301281 0.0032950107
0.1148323 0.34766507 0.3605341 0.00930074 0.12923807 0.096560515 0.21796878 -0.050528232
-0.38967064 -0.06645986 -0.044454385 -0.19070865 -0.07509567 -0.0057044243 -0.11657925 0.094607025
-0.055470623 -0.041056383 0.04230024 0.08000729 -0.05294117 -0.002176331 0.13160805 -0.05778348
0.008591686 -0.07710483 0.016335139 -0.36454222 0.12393037 0.06619992 0.12555161 0.061713066
-0.008221866 0.41138938 -0.03474322 -0.096971706 0.3498758 0.21951212 -0.14311165 0.09060817
-0.19401102 0.12288344 0.115695335 0.02437886 0.08258226 -0.26040003 0.017176148 0.059883427
-0.5141781 0.0036158182 0.031774007 0.95107883 -0.19314845 -0.052337635 0.018234324 0.10044936
-0.05331805 0.2755076 0.118461296 -0.28564498 0.08786034 -0.18947394 -0.05381171 -0.9259693
0.073725164 0.048546106 -0.29858583 0.13737483 0.16417156 0.16600378 -0.111624606 -0.062267102
-0.17018953 -0.34894845 0.18972813 -0.18362941 0.35034406 0.20582074 0.16480212 0.02618693
-0.16266623 -0.060645867 -0.3406009 -0.3780004 0.020161582 -0.03336472 0.45200598 -0.19739978
0.20341289 -0.09445344 -0.018562043 -0.11341765 0.10685123 0.15933368 -0.44474706 -0.026974993
0.10591732 0.16180573 0.015864043 -0.26605818 -0.17420438 -0.24966003 -0.10017103 -0.039802518
0.02541312 -0.1899989 0.032613866 0.060977016 0.06507609 0.23567547 -0.11816606 0.13131088
-0.30798665 -0.0018723687 0.18013115 -0.006484026 0.022870507 -0.04774867 -0.27588883 0.067256
-0.002621808 -0.07629202 -0.1601954 0.23817578 0.23349883 0.14661594 0.010983303 0.13929468
-0.11752607 -0.28210908 -0.102499485 0.09309126 -0.15945475 0.03282493 -0.07052197 0.13943651
-0.023330195 0.1639751 0.17918244 -0.031404335 -0.091442205 -0.16204433 -0.18779173 0.008657316
-0.081920706 0.12121261 0.20642728 -0.05760251 0.50921094 0.16466126 -0.15292692 -0.05738926
-0.27878776 -0.026055152 -0.34615052 -0.26456663 -0.07661944 0.077066235 -0.03841104 -0.008770189
-0.1577222 -0.08814552 -0.0021812613 0.07486823 -0.0115469685 0.18862365 -0.5688246 -0.028927056
0.24350812 0.050976954 0.027702767 -0.26240554 0.09931963 0.06738623 0.042780586 -0.06528328
0.1423487 0.16337028 0.1499412 0.27165532 0.015988117 -0.007451722 0.32640687 -0.20595732
00000000: 946d 1cbe bbd0 0abd 656d 123f a791 4b3d
00000010: b109 a83c f37e 7e3e 18cd 1abe 5e44 61bd
00000020: e05b 04bf 4a00 8e3d 4f7b 9dbe 17e2 153e
00000030: c652 e9bb 11cc 683c 4ad2 c5bd 9f11 9dbd
00000040: 198a 943e 7ccc 29bd a3a2 21bf 6384 a93e
00000050: 1ccf c73d be37 373e 4dcc b0be ed54 553d
00000060: ff1b 973e cf53 da3d 1cf5 82bc f324 83bb
00000070: bc8d 1a3e 3cf5 d83d 85c0 853d d5d0 70bd
00000080: f326 68bd fbf6 553e ec58 0abd 7820 55bb
00000090: a7d0 80bd 8d85 ad3c 49a3 023f 767d 06bd
000000a0: 75f0 673f 07ef 073e d11a 453e 47d9 d8bc
000000b0: 882d e1be 3048 99bd cd95 89be 33a5 b2b8
000000c0: 3a14 0cbd 8dc7 99bc 3a67 3e3d 18d1 193d
000000d0: 9a05 b93d 3ef3 5c3d 8f32 a1bc 00d2 68bd
000000e0: 1c59 09bb ebd6 643d 9007 30be 5aa2 0fbd
000000f0: 1c33 f1b9 1f9b 94bc 513d 8cba f2b6 83bd
00000100: 513e d8bd d4a1 10be 1b5b e2bd 50ff 32bc
00000110: 80aa 6c3d 0681 d5bd dc0c 813d 1bf1 573b
00000120: 322d eb3d 2801 b23e ed97 b83e 2262 183c
00000130: fc56 043e 85c1 c53d 3533 5f3e b1f6 4ebd
00000140: e982 c7be 1b1c 88bd cd15 36bd 2149 43be
00000150: c2cb 99bd 2eec babb 1ac1 eebd 54c1 c13d
00000160: 2a35 63bd bd2a 28bd 0443 2d3d ddda a33d
00000170: d7d8 58bd c6a0 0ebb 43c4 063e 5fae 6cbd
00000180: 25c4 0c3c 23e9 9dbd 45d1 853c 47a5 babe
00000190: 35cf fd3d d393 873d 9a90 003e d7c6 7c3d
000001a0: 01b5 06bc a1a1 d23e e84e 0ebd 1a99 c6bd
000001b0: ec22 b33e c9c7 603e dc8b 12be c790 b93d
000001c0: d3aa 46be 50aa fb3d adf1 ec3d 2db6 c73c
000001d0: e320 a93d 2753 85be feb4 8c3c 5348 753d
000001e0: 2da1 03bf 5df7 6c3b 7625 023d e779 733f
000001f0: b5c8 45be fd5f 56bd 2660 953c 65b8 cd3d
00000200: 0764 5abd 550f 8d3e d69b f23d 0f40 92be
00000210: 1ff0 b33d 7505 42be ab69 5cbd 530c 6dbf
00000220: 38fd 963d 48d8 463d 3ee0 98be fdab 0c3e
00000230: 971c 283e e5fc 293e 719b e4bd ca0b 7fbd
00000240: 2a46 2ebe 5fa9 b2be 1748 423e 5909 3cbe
00000250: 4c60 b33e acc2 523e e3c1 283e f985 d63c
00000260: fa91 26be cd67 78bd 3e63 aebe 4589 c1be
00000270: e729 a53c 72a9 08bd 546d e73e 2b23 4abe
00000280: 784b 503e ce70 c1bd 6d0f 98bc 8347 e8bd
00000290: d1d4 da3d 5e28 233e e3b5 e3be a9fa dcbc
000002a0: 2eeb d83d 67b0 253e 4ff5 813c c738 88be
000002b0: a262 32be e1a6 7fbe 7826 cdbd f707 23bd
000002c0: 2d2f d03c 128f 42be 1e96 053d 09c3 793d
000002d0: 9d46 853d e954 713e 0c01 f2bd 5c76 063e
000002e0: 6db0 9dbe 456a f5ba 4d74 383e f477 d4bb
000002f0: ee5a bb3c 1c94 43bd 4d41 8dbe 84bd 893d
00000300: a4d2 2bbb fe3e 9cbd 430a 24be 5ae4 733e
00000310: 511a 6f3e 7d22 163e 50f3 333c 44a3 0e3e
00000320: 82b1 f0bd 9a70 90be 40eb d1bd a1a6 be3d
00000330: 1b48 23be 6f73 063d d36d 90bd 72c8 0e3e
00000340: f71e bfbc 17e9 273e 9a7b 373e d5a1 00bd
00000350: 0d46 bbbd f3ee 25be 7a4c 40be 6ad7 0d3c
00000360: 0bc6 a7bd 513e f83d ac61 533e 9cf0 6bbd
00000370: a65b 023f f69c 283e e098 1cbe 0011 6bbd
00000380: 45bd 8ebe 9d71 d5bc a43a b1be 4775 87be
00000390: a7ea 9cbd e7d4 9d3d e554 1dbd d7b0 0fbc
000003a0: ee81 21be a385 b4bd 7ef3 0ebb 8454 993d
000003b0: 7f2f 3dbc 8f26 413e 7d9e 11bf 6ff8 ecbc
000003c0: 315a 793e 36cd 503d eaf0 e23c 055a 86be
000003d0: 1768 cb3d cb01 8a3d b23a 2f3d 3eb3 85bd
000003e0: dcc3 113e 8a4a 273e 308a 193e 6816 8b3e
000003f0: 83f9 823c 932d f4bb cd1e a73e 7ae6 52be

feats.0.safm.aggr.bias f4 [36]
-0.066205844 -0.5031587 -0.041601837 -0.07126607 -0.22731215 -0.40269643 -0.773323 -0.033386994
-0.2540502 0.022456931 -0.22149096 0.3499861 -0.08174953 -0.35682258 0.13661942 0.11747852
-0.524965 -0.29906273 -0.21265876 -0.16536212 0.4560259 0.18263972 -0.26035136 -0.26497748
-0.54930377 -0.12188968 -0.20953293 0.04815571 -0.25691715 -0.3548503 -0.13316034 -0.12551986
-0.2909492 -0.19386514 -0.3232498 0.066780426
00000000: ee96 87bd 02cf 00bf b066 2abd f2f3 91bd
00000010: 84c4 68be 3a2e cebe 7ff8 45bf cdc0 08bd
00000020: de12 82be 99f7 b73c 87ce 62be 6131 b33e
00000030: 4c6c a7bd 73b1 b6be f6e5 0b3e 9498 f03d
00000040: 1b64 06bf c01e 99be 38c3 59be b054 29be
00000050: 3a7c e93e e805 3b3e c64c 85be 21ab 87be
00000060: 2c9f 0cbf 4ca1 f9bd cd8f 56be ec3e 453d
00000070: a58a 83be f0ae b5be 2f5b 08be 4788 00be
00000080: 4bf7 94be 9584 46be ff80 a5be 2dc4 883d

feats.0.ffd.project_in.weight f4 [144, 36, 1, 1]
-0.1748702 0.07421757 -0.2830694 -0.13248304 -0.19945705 0.03684339 0.27084795 0.009018911
-0.11677299 0.24719776 -0.42420775 -0.21463472 -0.3134136 -0.077492744 -0.16973054 -0.07652802
0.15310071 0.163583 0.3328089 0.27554297 -0.18793142 -0.059085105 0.0034701587 -0.47381252
0.009010885 -0.24687459 0.0025828506 -0.10466556 1.3108207 -0.08235315 0.530641 0.2887191
-0.119922906 -0.10753103 -0.14128655 0.032383487 -0.18551388 -0.07070868 -0.2043107 0.7463572
-0.20214236 -0.2727726 -0.28410873 -0.25671732 -0.029756397 -0.1464105 0.68544936 -0.25320613
-0.505617 0.14820017 -0.30346867 -0.8787309 0.16687626 -0.056471772 -0.107693836 0.11189796
0.093562 0.053461142 0.25867334 -0.4684506 0.03835347 0.31669855 -0.107431 -0.12812378
0.6399729 -0.35476702 0.0060352464 -0.83510375 -0.17390065 -0.036760435 0.105820104 -0.2730031
0.19277337 0.715872 0.029058026 0.34058943 -0.06020856 -0.6783926 -0.68778014 -0.38855
0.33517718 -0.10399105 0.1349853 -0.93309957 0.111593746 0.31996915 0.0923906 0.10094059
1.128214 -0.099682726 0.10961494 -0.20845217 0.17083876 0.11701515 0.12983856 -0.066658355
0.11862548 0.10746032 -0.038972527 -0.22297654 0.080995776 -0.15018389 0.09122987 -0.012552641
0.52597016 0.2782993 -0.93165195 0.20872346 0.6772456 0.3877582 0.78397447 -0.08192172
0.15228888 -1.1796955 0.70111734 0.36815402 0.43122044 0.30594435 -0.08575117 -0.2941067
-0.50688434 0.48336747 0.097724356 0.19614424 1.3125998 0.0121569475 -0.17088531 0.14561018
-0.014813628 0.6191083 0.41677532 -0.34124896 0.8368793 -0.089455895 0.15666902 -0.37598565
-0.054551627 0.5325775 0.09856107 0.025389422 -0.13086757 1.139328 0.1299801 0.13629328
1.2535439 0.15818813 -0.53813916 0.7031089 -0.10266334 -0.46244287 -0.06668485 -0.5082429
0.41098407 -0.39276603 0.415529 -0.12406555 0.5624733 -0.08050281 0.050932262 -0.68305534
-0.35682178 0.3465507 0.2341052 0.22404306 -0.11168124 0.36508772 0.11499214 -0.32846048
-0.033983395 0.039268415 0.6215585 0.17203301 0.17734304 -0.45295665 -0.05703579 0.29578936
0.70673907 -0.02976664 0.78361416 -0.0798427 0.6332807 0.040789317 0.13502233 0.6549536
0.13547058 -0.50179577 -0.1862325 -0.22385857 0.0040260744 -0.27047023 0.61586905 -0.103021204
-0.078919485 -0.008919492 -0.062430087 -0.3988071 0.038488027 0.11250616 0.20501126 0.2414143
0.44738546 0.10781413 0.046376865 -0.32293066 0.26254514 -0.04962127 0.77859503 -0.24933697
-0.14204037 0.14626144 0.1424388 0.7479039 0.5210037 0.19755112 0.039141644 -0.2843697
0.08127881 0.054280743 0.31314063 0.14405096 0.10351268 0.23436451 -0.38119036 0.20862201
0.13469757 0.098930284 0.21157213 0.27085882 0.41307074 0.16740224 0.34931284 0.3454506
0.19184935 -0.2067533 0.15101458 0.06569619 0.5054203 0.5117984 0.3861822 0.19270554
0.20316446 0.065056786 0.050624717 0.09947627 0.101647474 -0.11437547 0.11017097 0.16178787
0.1846397 0.14216442 -0.010633478 0.15407075 0.5052907 0.054582227 0.06553164 -0.051487803
00000000: 2c11 33be 62ff 973d 79ee 90be a2a9 07be
00000010: 783e 4cbe 18e9 163d 95ac 8a3e 0ec4 133c
00000020: ad26 efbd 6921 7d3e c231 d9be 34c9 5bbe
00000030: bf77 a0be 84b4 9ebd d8cd 2dbe b9ba 9cbd
00000040: 6fc6 1c3e 4d82 273e ee65 aa3e f813 8d3e
00000050: 1871 40be 3903 72bd 9a6b 633b 8e97 f2be
00000060: 64a2 133c b1cc 7cbe 0b45 293b e65a d6bd
00000070: f9c8 a73f c5a8 a8bd 17d8 073f fdd2 933e
00000080: 249a f5bd 3b39 dcbd 6cad 10be 8ca4 043d
00000090: 5af7 3dbe b6cf 90bd d336 51be 4411 3f3f
000000a0: 68fe 4ebe daa8 8bbe b376 91be 7470 83be
000000b0: b0c3 f3bc a2ec 15be 9c79 2f3f 3ca4 81be
000000c0: 1e70 01bf c9c1 173e 3f60 9bbe 82f4 60bf
000000d0: 9ce1 2a3e f24e 67bd 968e dcbd c22a e53d
000000e0: 6f9d bf3d 12fa 5a3d d570 843e c2d8 efbe
000000f0: 8718 1d3d 5026 a23e c904 dcbd e132 03be
00000100: 44d5 233f 06a4 b5be 51c3 c53b 5cc9 55bf
00000110: 0313 32be 1c92 16bd 36b8 d83d 10c7 8bbe
00000120: 6266 453e 6343 373f 190b ee3c bd61 ae3e
00000130: 409d 76bd 23ab 2dbf 5c12 30bf 07f0 c6be
00000140: 589c ab3e 42f9 d4bd 9639 0a3e 9ddf 6ebf
00000150: 438b e43d ffd2 a33e 4837 bd3d f1b9 ce3d
00000160: 5169 903f 7526 ccbd cc7d e03d 7c74 55be
00000170: 5bf0 2e3e a4a5 ef3d 66f4 043e 2d84 88bd
00000180: eaf1 f23d 2814 dc3d a8a1 1fbd f653 64be
00000190: 1de1 a53d cec9 19be bad6 ba3d 98a9 4dbc
000001a0: fba5 063f 3f7d 8e3e be80 6ebf 9abb 553e
000001b0: f85f 2d3f 3e88 c63e 8db2 483f 93c6 a7bd
000001c0: 9ef1 1b3e 4300 97bf 6d7c 333f af7e bc3e
000001d0: edc8 dc3e bda4 9c3e 4f9e afbd 2795 96be
000001e0: 2cc3 01bf f17b f73e b523 c83d 09da 483e
000001f0: 4503 a83f ef2d 473c 8ffc 2ebe d61a 153e
00000200: dcb4 72bc e27d 1e3f 9363 d53e 2fb8 aebe
00000210: b93d 563f a734 b7bd d86d 203e 3181 c0be
00000220: 8771 5fbd 0057 083f 63da c93d 7afd cf3c
00000230: 2602 06be 80d5 913f 8119 053e 7790 0b3e
00000240: 2074 a03f 12fc 213e 7dc3 09bf f2fe 333f
00000250: 2841 d2bd 50c5 ecbe 1192 88bd 351c 02bf
00000260: 816c d23e a118 c9be 38c0 d43e 1416 febd
00000270: 40fe 0f3f a8de a4bd 599e 503d b7dc 2ebf
00000280: 58b1 b6be 186f b13e 46b9 6f3e 8b6b 653e
00000290: 22b9 e4bd c7ec ba3e 0081 eb3d f92b a8be
000002a0: 2c32 0bbd ebd7 203d 751e 1f3f 6c29 303e
000002b0: 6a99 353e efe9 e7be 5c9e 69bd b471 973e
000002c0: daec 343f 2bd9 f3bc f09a 483f 9284 a3bd
000002d0: af1e 223f b312 273d 4b43 0a3e 0aab 273f
000002e0: cdb8 0a3e b075 00bf bcb3 3ebe 2e3b 65be
000002f0: 29ed 833b 137b 8abe 98a9 1d3f c8fc d2bd
00000300: 8aa0 a1bd 1023 12bc b1b6 7fbd 7230 ccbe
00000310: 9fa5 1d3d a169 e63d 79ee 513e 4f35 773e
00000320: b50f e53e a8cd dc3d abf5 3d3d 2b57 a5be
00000330: 516c 863e ac3f 4bbd 0152 473f 3152 7fbe
00000340: 0873 11be 8fc5 153e 7adb 113e a176 3f3f
00000350: 8060 053f d74a 4a3e fd52 203d e898 91be
00000360: 8175 a63d 7c55 5e3d f853 a03e 1882 133e
00000370: 75fe d33d 40fd 6f3e 622b c3be 02a1 553e
00000380: 29ee 093e f69b ca3d 5da6 583e 02ae 8a3e
00000390: 027e d33e 7e6b 2b3e 22d9 b23e e7de b03e
000003a0: 2874 443e 23b7 53be 91a3 1a3e b98b 863d
000003b0: 3a63 013f 3805 033f acb9 c53e 9a54 453e
000003c0: 580a 503e 7e3c 853d dd5b 4f3d 37ba cb3d
000003d0: 8d2c d03d b03d eabd 51a1 e13d b8ab 253e
000003e0: 3112 3d3e 8d93 113e 0a38 2ebc b9c4 1d3e
000003f0: bb5a 013f 9d91 5f3d 7435 863d e0e4 52bd

feats.0.ffd.dwconv.weight f4 [144, 1, 3, 3]
0.017245416 -0.057573717 0.031061504 -0.25034997 -0.4787572 -0.18289603 0.015037743 -0.0030166828
0.047107533 -0.056788336 -0.24292205 0.08976489 -0.24055414 -0.81612986 0.19007027 0.21578322
0.10256882 0.43007654 0.07372429 0.12131968 0.122624226 0.08992813 0.40307766 0.10670684
0.09609769 0.10086592 0.11889071 0.25066003 -0.82583994 0.24129663 0.03443406 0.114386864
-0.008904423 -0.2877724 0.7382605 -0.24755475 0.0856126 0.039630692 -0.11235976 0.65712446
-0.044461902 -0.6890638 0.07723045 0.033387393 -0.07021616 0.085218355 -0.0004517376 0.06637202
0.03933934 -1.0206066 0.015447285 0.09689777 -0.023807237 0.07604945 -0.09111279 -0.8131132
-0.11207027 0.078464106 0.08436201 -0.02950429 0.051665194 0.5915537 0.14415044 -0.03523628
-0.2246487 -0.06438078 -0.21245113 -0.05460996 -0.12915891 -0.07523046 -0.20660678 -0.07978564
0.10220909 -0.25415128 0.13250937 -0.34548384 -0.4016458 -0.2815922 0.127863 -0.3046788
0.15168554 0.016216107 0.071073435 -0.002211638 0.09558767 0.48547852 0.12506652 0.0021543785
0.059943452 -0.0218938 0.047794048 0.1630029 0.04441522 0.12037292 0.34386978 0.15154986
0.05590783 0.17437759 0.06241648 -0.023125725 0.19007295 -0.039546452 0.18263221 0.34853536
0.22709885 0.0068926667 0.2185601 0.010891593 -0.0018975432 -0.061638024 0.004641288 -0.08054944
-0.9097747 -0.06793397 0.0008706941 -0.07979161 0.003961058 -0.026245618 -0.008210146 -0.04299454
-0.048541497 -0.74989456 -0.049367413 -0.04485939 -0.032534443 -0.021103412 0.1762414 -0.09393372
0.1954515 -0.105822735 0.5044532 -0.08954546 0.16340083 -0.1313169 0.21324691 0.008447117
0.12561403 0.010156498 0.10259604 -1.0125055 0.099186346 0.019631049 0.10634868 0.019449266
0.022721397 -0.2124956 -0.23939678 0.29507053 0.11327307 -0.33951288 0.21166632 0.20144765
-0.15411504 -0.0813141 0.105207756 -0.08721946 0.092681274 0.78139067 0.038278762 -0.07721179
0.06535189 -0.076233804 0.014086828 -0.085260235 0.028155822 -0.08776383 -0.82351995 -0.08654827
0.07761738 0.90390855 0.068660356 0.085767284 0.12693766 0.08696085 0.12509958 0.4652314
0.100045666 0.07488452 0.20231822 0.045610324 0.01608362 -0.1002621 -0.004034679 -0.102944225
-0.5377416 -0.1389491 0.0074254256 -0.10653148 -0.011466811 0.14287588 -0.71168983 0.11301424
0.09667347 -0.26703283 0.14117257 0.16297239 0.045815703 0.18233117 0.1321315 0.13875239
0.13686222 0.10854472 0.4916885 0.13734126 0.13699165 0.13198471 0.1238525 -0.011893407
-0.10000845 -0.0011839631 -0.01559419 -0.6546689 -0.022991365 0.03095669 -0.05675612 0.011090643
0.07281438 0.16477232 -0.03469015 0.30545777 -1.0384575 0.2234988 0.08685612 0.19637021
0.037693974 -0.02931174 -0.06379109 -0.05710107 0.039865475 -0.5864654 -0.05215688 -0.043113537
-0.119641535 -0.073229775 0.03924011 0.10870675 0.05491848 0.11977143 0.28414208 0.11217772
0.04925103 0.11221001 0.05765318 0.18144278 0.27910283 -0.029673666 -0.5819012 -0.70350707
0.042503405 0.20231834 0.3893953 -0.013091573 0.06816241 -0.588093 0.15934223 -0.25269318
00000000: 4246 8d3c 6bd2 6bbd b274 fe3c df2d 80be
00000010: aa1f f5be 1949 3bbe de60 763c 8ab3 45bb
00000020: d4f3 403d e39a 68bd 8fc0 78be a8d6 b73d
00000030: d353 76be e3ed 50bf c8a1 423e 47f6 5c3e
00000040: 9a0f d23d fe32 dc3e c3fc 963d 7476 f83d
00000050: 6922 fb3d 3d2c b83d 3260 ce3e 1e89 da3d
00000060: dece c43d cb92 ce3d f97c f33d 8356 803e
00000070: 3f6a 53bf 7716 773e bb0a 0d3d a943 ea3d
00000080: dbe3 11bc e756 93be a4fe 3c3f fe7e 7dbe
00000090: a955 af3d cb53 223d e01c e6bd 4f39 283f
000000a0: af1d 36bd 7c66 30bf 002b 9e3d 38c1 083d
000000b0: 7dcd 8fbd f686 ae3d 32d7 ecb9 0eee 873d
000000c0: 4a22 213d 3da3 82bf 9c16 7d3c 5772 c63d
000000d0: 6507 c3bc d0bf 9b3d 5899 babd 3028 50bf
000000e0: 1985 e5bd cab1 a03d fdc5 ac3d fbb2 f1bc
000000f0: e29e 533d 1070 173f 2c9c 133e eb53 10bd
00000100: 4f0a 66be 12da 83bd ca8c 59be b2ae 5fbd
00000110: 3c42 04be 6d12 9abd ba90 53be a766 a3bd
00000120: 0053 d13d 1e20 82be 89b0 073e 42e3 b0be
00000130: 85a4 cdbe da2c 90be 85ee 023e dcfe 9bbe
00000140: 7453 1b3e a4d7 843c f38e 913d 21f1 10bb
00000150: 78c3 c33d a490 f83e 7011 003e 7930 0d3b
00000160: 4487 753d a05a b3bc b1c3 433d 3bea 263e
00000170: bcec 353d 1486 f63d b30f b03e e32f 1b3e
00000180: 9cff 643d 0a90 323e 6ca8 7f3d 2972 bdbc
00000190: 7ca2 423e 76fb 21bd f003 3b3e 3a73 b23e
000001a0: 9a8c 683e e1db e13b 38ce 5f3e a772 323c
000001b0: fcb6 f8ba 2778 7cbd f215 983b 1bf7 a4bd
000001c0: ffe6 68bf f720 8bbd 4b3f 643a c969 a3bd
000001d0: c3cb 813b 0d01 d7bc d983 06bc 0b1b 30bd
000001e0: 73d3 46bd 17f9 3fbf 7c35 4abd 7bbe 37bd
000001f0: d642 05bd 10e1 acbc a078 343e 5260 c0bd
00000200: 7024 483e 97b9 d8bd d823 013f 9c63 b7bd
00000210: 8c52 273e f077 06be 665d 5a3e c765 0a3c
00000220: f7a0 003e 7167 263c df1d d23d c899 81bf
00000230: 3622 cb3d 4bd1 a03c 56cd d93d 1154 9f3c
00000240: 3922 ba3c 7298 59be 6e24 75be 7c13 973e
00000250: b6fb e73d a2d4 adbe 0ebf 583e 4b48 4e3e
00000260: 55d0 1dbe 0288 a6bd 2a77 d73d 1ea0 b2bd
00000270: aecf bd3d 3809 483f 31ca 1c3d 3721 9ebd
00000280: 36d7 853d 7820 9cbd 70cc 663c eb9c aebd
00000290: 0aa7 e63c 86bd b3bd 34d2 52bf 3840 b1bd
000002a0: dcf5 9e3d 8d66 673f cd9d 8c3d c2a6 af3d
000002b0: f2fb 013e 8818 b23d 1b1a 003e cf32 ee3e
000002c0: bee4 cc3d 0e5d 993d 822c 4f3e e4d1 3a3d
000002d0: ccc1 833c 3756 cdbd 5735 84bb 6cd4 d2bd
000002e0: 6fa9 09bf ac48 0ebe fc50 f33b 2d2d dabd
000002f0: 4bdf 3bbc 0e4e 123e 4e31 36bf 0374 e73d
00000300: befc c53d 87b8 88be 8b8f 103e 3ce2 263e
00000310: 3fa9 3b3d 06b5 3a3e 7b4d 073e 1b15 0e3e
00000320: 9c25 0c3e b24c de3d 98be fb3e 30a3 0c3e
00000330: 8a47 0c3e 0027 073e 61a6 fd3d 91dc 42bc
00000340: 3bd1 ccbd 362f 9bba c67e 7fbc 6298 27bf
00000350: 6358 bcbc e298 fd3c 1b79 68bd 87b5 353c
00000360: b51f 953d 13ba 283e 4217 0ebd f664 9c3e
00000370: 2dec 84bf dfdc 643e 9fe1 b13d 4615 493e
00000380: ff64 1a3d 2d1f f0bc e7a4 82bd d0e2 69bd
00000390: fb49 233d 9922 16bf 74a2 55bd d297 30bd
000003a0: 9f06 f5bd 7ef9 95bd 3dba 203d a5a1 de3d
000003b0: 33f2 603d b94a f53d 127b 913e 6fbd e53d
000003c0: 73bb 493d 5dce e53d be25 6c3d 23cc 393e
000003d0: 91e6 8e3e 3016 f3bc 7af7 14bf 0a19 34bf
000003e0: 0d18 2e3d 8a2c 4f3e d25e c73e 097e 56bc
000003f0: bc98 8b3d 438d 16bf 9c2a 233e 0061 81be

feats.0.ffd.project_out.weight f4 [36, 72, 1, 1]
0.56395626 0.01867314 -0.10542541 -0.021991871 -0.6973562 -0.40461063 -0.12672614 1.1241325
-0.080982044 0.1404767 -0.025753958 -0.13078482 0.102096595 0.38232172 0.23763768 -0.2270339
0.19315687 0.16424434 -0.0693596 -0.20702845 -0.08374832 0.043125886 -0.16744956 0.03690958
-0.0030410504 0.19528419 -0.073944174 -0.39309865 -0.23635513 0.34277758 0.2876037 -0.34775773
-0.1904729 0.27851853 -0.16153522 -0.05336159 -0.051689453 0.119544216 0.0930746 -0.99169165
-0.2638854 0.92138565 -0.23449329 0.024478441 1.0834436 -0.10697438 -0.62432975 0.4199714
0.13609499 -0.0097692 -0.05415704 0.9240076 0.7554922 -0.0520067 0.14620195 0.2557102
-0.12004509 0.3880137 -0.791103 0.20060767 0.19986065 0.19797817 -0.16278659 -0.03445736
0.45743445 -0.17865439 -0.04714123 -0.7449902 -0.6551691 0.042247217 -0.06233416 0.28673777
-0.9416944 0.030000513 0.23107915 -1.4984728 1.6754041 0.23700684 -0.07559119 -0.4126854
-0.41008416 -0.5450236 0.23451225 0.048576485 -0.19279538 -0.074110046 0.004354872 0.66079974
-0.09623331 0.33982506 -0.11435029 0.38215634 -0.17460176 -0.05950547 -0.098296225 0.30562508
-0.25329983 -0.11829545 0.08659778 0.78783554 0.8855966 -1.4360203 -0.016308533 0.67896444
0.13151482 0.17235607 -0.001984466 0.17283872 0.41020992 0.0069706975 -0.028411973 0.23123126
-0.10936181 -1.4036497 0.419652 -0.2978875 -0.22485664 0.49247175 0.7833425 -0.19801907
0.06710464 0.052915793 0.13555463 -0.5866637 -0.37924355 -0.40757918 0.0459427 0.21607392
0.5278797 0.35723513 -0.117282934 0.104219414 -0.10116099 0.05316582 -0.51371384 0.03625227
-1.1563959 -0.24571729 -0.04995338 1.9558704 0.23796813 -0.20030083 -0.12413473 0.4282787
0.12635452 0.108082846 -0.83750063 -0.019144343 -0.12877208 0.28470463 0.015653597 0.022315359
-0.0043174345 -0.0081007155 0.041130714 -0.13035154 0.14737576 -0.7763682 0.18470718 0.07114405
0.115630485 -0.31693 -0.07219813 -0.005344886 0.8998292 -0.07907087 0.07452296 -0.20079614
-0.056741897 0.19068353 0.10308092 -0.033953924 -0.051658284 0.09316984 -0.055069484 0.19149278
0.29333058 0.18451667 0.04661207 0.8653782 -0.024976278 0.0639521 -0.130911 -0.11330537
0.0655506 0.08794574 0.07826297 -0.607976 0.09261861 0.29328966 -0.0826536 0.12799647
0.13361049 0.13699448 -0.123872384 0.031912513 0.12031388 -0.16868782 0.021847531 0.09194081
-0.01720018 -0.047816068 -0.08156047 0.19769861 -0.20114066 0.2004184 -0.34043217 -0.019616226
0.16983464 -0.02433456 -0.025065644 -0.004522909 -0.14198828 0.23603523 -0.057051063 0.32471567
0.17110991 0.04028701 -0.30766433 0.40706775 0.023820331 0.8692444 -0.13398892 -0.2640072
0.10926731 0.03989113 -0.3493689 -0.4813004 -0.17483923 0.2262931 0.11902693 0.6030922
0.1100168 -0.0064785727 -0.34023514 0.2825896 -0.398774 -0.97167015 0.116640806 0.11191791
0.24703562 -0.311099 0.54990286 -0.21002357 -0.51717997 0.7318813 -0.104863696 -0.14306447
0.37106112 -0.134234 0.1331969 0.27168292 0.025397973 0.1795481 -0.09783656 -0.062290784
00000000: 705f 103f 6af8 983c 47e9 d7bd 4c28 b4bc
00000010: f085 32bf 2029 cfbe 7fc4 01be 93e3 8f3f
00000020: ead9 a5bd 20d9 0f3e f7f9 d2bc 75ec 05be
00000030: 0518 d13d acbf c33e 4b57 733e 937b 68be
00000040: eaca 453e ab2f 283e 680c 8ebd 44ff 53be
00000050: 3d84 abbd c5a4 303d e677 2bbe 802e 173d
00000060: 5c4c 47bb 94f8 473e 0b70 97bd 3a44 c9be
00000070: 1407 72be 8b80 af3e cb40 933e 4d0d b2be
00000080: 540b 43be fb99 8e3e 7d69 25be af91 5abd
00000090: 52b8 53bd 99d3 f43d e59d be3d 81df 7dbf
000000a0: fd1b 87be eedf 6b3f 021f 70be 0387 c83c
000000b0: 48ae 8a3f 6215 dbbd 13d4 1fbf 7e06 d73e
000000c0: 7c5c 0b3e ff0e 20bc c6d3 5dbd c38b 6c3f
000000d0: f067 413f fa04 55bd f7b5 153e 73ec 823e
000000e0: 33da f5bd bba9 c63e ba85 4abf 196c 4d3e
000000f0: 45a8 4c3e caba 4a3e 87b1 26be 2923 0dbd
00000100: d934 ea3e 2df1 36be 2a17 41bd aeb7 3ebf
00000110: 2ab9 27bf 6b0b 2d3d 1b52 7fbd 4bcf 923e
00000120: e212 71bf a3c3 f53c 03a0 6c3e f5cd bfbf
00000130: a473 d63f ecb1 723e 8ecf 9abd 804b d3be
00000140: 8df6 d1be ab86 0bbf fb23 703e 23f8 463d
00000150: 276c 45be 02c7 97bd 50b3 8e3b 2c2a 293f
00000160: f815 c5bd 8dfd ad3e 7c30 eabd ffa9 c33e
00000170: ceca 32be 02bc 73bd 884f c9bd e47a 9c3e
00000180: 84b0 81be e344 f2bd 2d5a b13d 97af 493f
00000190: 75b6 623f 83cf b7bf 7999 85bc 9dd0 2d3f
000001a0: d2ab 063e 1c7e 303e d10d 02bb a2fc 303e
000001b0: 0907 d23e 736a e43b 3ac0 e8bc e3c7 6c3e
000001c0: 16f9 dfbd cbaa b3bf a0dc d63e b684 98be
000001d0: d240 66be 4225 fc3e 2289 483f 83c5 4abe
000001e0: 286e 893d 3bbe 583d d5ce 0a3e 982f 16bf
000001f0: 362c c2be 38ae d0be 6a2e 3c3d 7b42 5d3e
00000200: 2023 073f 86e7 b63e 0932 f0bd fd70 d53d
00000210: 7e2d cfbd 67c4 593d c082 03bf 437d 143d
00000220: c804 94bf 509d 7bbe ea9b 4cbd f659 fa3f
00000230: ebad 733e a91b 4dbe 593a febd 5947 db3e
00000240: 1463 013e 8a5a dd3d 7166 56bf 99d4 9cbc
00000250: d4dc 03be cec4 913e f93b 803c b3ce b63c
00000260: 4479 8dbb ddb8 04bc ae78 283d e07a 05be
00000270: ace9 163e 11c0 46bf e123 3d3e f9b3 913d
00000280: adcf ec3d a644 a2be 9ddc 93bd 2724 afbb
00000290: 355b 663f e9ef a1bd 7e9f 983d 819d 4dbe
000002a0: 316a 68bd 8b42 433e 171c d33d 4513 0bbd
000002b0: a397 53bd d4cf be3d 8a90 61bd af16 443e
000002c0: 6d2f 963e f0f1 3c3e 4cec 3e3d 6d89 5d3f
000002d0: 0d9b ccbc 52f9 823d 880d 06be a50c e8bd
000002e0: 653f 863d e51c b43d 5648 a03d 51a4 1bbf
000002f0: d3ae bd3d 102a 963e 4a46 a9bd 8211 033e
00000300: 30d1 083e 4848 0c3e ceb0 fdbd b2b6 023d
00000310: 2067 f63d 80bc 2cbe 98f9 b23c 774b bc3d
00000320: 64e7 8cbc c8da 43bd 2d09 a7bd 8171 4a3e
00000330: d1f7 4dbe 7b3a 4d3e 204d aebe 35b2 a0bc
00000340: 22e9 2d3e 4559 c7bc 7756 cdbc e934 94bb
00000350: 6065 11be 38b3 713e 60ae 69bd 2241 a63e
00000360: 7037 2f3e fe03 253d 2e86 9dbe 2f6b d03e
00000370: db22 c33c cd86 5e3f 6434 09be f42b 87be
00000380: 8ac7 df3d e264 233d 7be0 b2be 026d f6be
00000390: 0e09 33be 61b9 673e 64c4 f33d 4064 1a3f
000003a0: 7d50 e13d 354a d4bb 4d33 aebe 96af 903e
000003b0: 1b2c ccbe 60bf 78bf 60e1 ee3d 3835 e53d
000003c0: e8f6 7c3e 5e48 9fbe 6fc6 0c3f 6b10 57be
000003d0: e865 04bf 935c 3b3f c7c2 d6bd 7e7f 12be
000003e0: b9fb bd3e a374 09be c564 083e 061a 8b3e
000003f0: 690f d03c 75db 373e 895e c8bd 9f24 7fbd

feats.1.norm1.weight f4 [36]
1.1372086 1.286237 0.9178638 1.4731022 0.85040206 1.2290945 0.56319433 1.4412441
1.1913286 0.4735398 1.2474513 0.7682112 1.3477967 1.3600906 0.17706119 1.170164
1.522148 1.033064 1.5128844 1.3382119 0.42086747 1.2613968 1.0543307 1.8020614
1.2766913 0.86210036 1.5048904 1.4955463 0.8994248 1.0057958 1.4194254 1.3933111
1.0723568 0.69023764 1.1418192 1.344434
00000000: 0d90 913f 6aa3 a43f 1ff9 6a3f 9d8e bc3f
00000010: f3b3 593f f852 9d3f 812d 103f b07a b83f
00000020: 757d 983f cf73 f23e 7cac 9f3f 7da9 443f
00000030: 9a84 ac3f 7317 ae3f 874f 353e efc7 953f
00000040: bfd5 c23f 713b 843f 32a6 c13f 874a ab3f
00000050: f17b d73e 7375 a13f 4ff4 863f f3a9 e63f
00000060: 9f6a a33f 9cb2 5c3f 40a0 c03f 106e bf3f
00000070: b440 663f ebbd 803f bbaf b53f 0558 b23f
00000080: fd42 893f 6ab3 303f 2227 923f 6a16 ac3f

feats.1.norm1.bias f4 [36]
-0.039185617 -0.07357729 0.02412729 -0.30609584 -0.6770093 -0.0700433 -0.19888052 -0.011789142
0.018350841 0.16254656 -0.16949841 0.05433589 0.19257155 0.19485332 -0.16766986 -0.08625466
-0.29158726 -0.07344184 0.11973687 -0.27769178 1.0731272 -0.16533244 -0.12863173 -0.5201283
0.04177872 0.047932763 -0.023956588 -0.3152409 -0.17779167 0.14163917 -0.3472782 0.037815254
-0.06109466 -0.45270056 -0.3394074 0.17798842
00000000: 1981 20bd b1af 96bd 98a6 c53c 98b8 9cbe
00000010: 7b50 2dbf dd72 8fbd 56a7 4bbe 3f27 41bc
00000020: 8154 963c 9b72 263e fe90 2dbe 4f8f 5e3d
00000030: 7a31 453e a187 473e a6b1 2bbe 48a6 b0bd
00000040: ed4a 95be ad68 96bd 9b38 f53d 9e2d 8ebe
00000050: 3b5c 893f e84c 29be 09b8 03be 2127 05bf
00000060: 2a20 2b3d 2555 443d 9b40 c4bc 4167 a1be
00000070: 050f 36be dc09 113e 73ce b1be 2be4 1a3d
00000080: 653e 7abd 5ec8 e7be cfc6 adbe 9942 363e

feats.1.norm2.weight f4 [36]
0.77277684 0.78747374 0.43669105 0.93897086 0.5590563 0.8721931 0.4516798 0.750262
0.8945283 0.19647677 1.0577329 0.62066454 0.6603538 0.6682343 0.17679963 0.38943622
1.079902 0.96553266 0.6986915 0.98062336 0.21447861 0.63268703 0.4150699 0.8123051
0.61118674 0.581216 0.52601445 0.8644635 0.52963394 0.69984215 0.94411373 0.9968799
0.7442024 0.5555244 0.8290769 0.77763987
00000000: b4d4 453f e197 493f f895 df3e 6560 703f
00000010: 501e 0f3f 0c48 5f3f 9342 e73e 2c11 403f
00000020: cfff 643f 3531 493e cb63 873f dfe3 1e3f
00000030: f20c 293f 6711 2b3f f60a 353e 2f64 c73e
00000040: 3b3a 8a3f 262d 773f 72dd 323f 220a 7b3f
00000050: 48a0 5b3e c7f7 213f 0b84 d43e 3af3 4f3f
00000060: bc76 1c3f 92ca 143f e2a8 063f 7b4d 5d3f
00000070: 1796 073f db28 333f 70b1 713f 8533 7f3f
00000080: 0c84 3e3f d936 0e3f 623e 543f 6813 473f

feats.1.norm2.bias f4 [36]
0.09236329 -0.14651583 -0.02098889 -0.2688369 -0.7650699 -0.038033534 -0.5466489 0.039628644
-0.026807755 0.0030012233 -0.25499222 -0.34138098 0.114240825 0.09814463 -0.05777464 -0.031341866
-0.18504767 0.10066475 0.112484165 -0.17803805 0.69312453 -0.3048724 -0.049634583 -0.18688278
0.026470711 -0.046928708 -0.053650152 -0.15447465 -0.11475631 -0.00698608 -0.27417418 -0.02820151
-0.051687766 -0.1217801 -0.12089174 -0.03703077
00000000: f728 bd3d 3f08 16be e5f0 abbc fda4 89be
00000010: 9fdb 43bf 0dc9 1bbd 2ff1 0bbf a551 223d
00000020: f09b dbbc 2cb0 443b 578e 82be 7dc9 aebe
00000030: 18f7 e93d 0d00 c93d 1aa5 6cbd 5460 00bd
00000040: 237d 3dbe 5229 ce3d 195e e63d 9b4f 36be
00000050: 9c70 313f 3c18 9cbe a24d 4bbd 335e 3fbe
00000060: 1bd9 d83c 5138 40bd 43c0 5bbd 9a2e 1ebe
00000070: 5b05 ebbd 7deb e4bb 8f60 8cbe da06 e7bc
00000080: 8db6 53bd d867 f9bd 1796 f7bd 94ad 17bd
