NTIRE2023_ESR/model_zoo/team16_mfa.pth (torch, 895395 bytes, 328 tensors)

to_feat.weight f4 [33, 3, 3, 3]
0.0021102086 0.0166733 0.015763437 -0.018156787 0.022767445 0.0007007772 0.01533654 0.032821056
-0.021463176 -0.0021604272 0.013362436 -0.0105057275 0.023784308 0.018176321 -0.009500244 -0.0128676845
0.0007584388 0.028114436 0.021106824 -0.048222627 0.0097560715 -0.016773747 -0.32236063 -0.014453137
0.012832409 -0.03664276 0.0018567495 -0.040887974 -0.20469774 -0.033269625 0.022847328 0.37184215
0.019229395 -0.020857003 0.056084312 -0.03509227 0.02098065 0.07817113 0.033502344 -0.02169069
-0.07479081 -0.049267553 0.015062004 -0.02540938 0.043387096 0.024445113 0.07442474 0.007354046
-0.011627099 -0.09398631 0.03705315 -0.0059948093 -0.033573955 -0.004519445 -0.006108264 -0.09964325
0.0023756374 -0.1940704 0.51460737 0.0024309438 -0.00977712 -0.17287733 -0.0143076945 0.029971836
0.017110623 0.05336533 0.07427107 0.017825784 -0.046869792 0.00089206616 0.11711981 0.023342112
-0.003147935 0.06990359 -0.042919077 0.115475975 -0.6352226 0.040675264 0.02122001 0.05617473
-0.0035130407 -0.010001993 -0.021124762 -0.01881247 0.013241155 -0.16409925 0.035687514 0.019760024
0.0060758153 -0.019137327 -0.0061002355 0.048507757 0.0044643 0.051800825 -0.25729582 2.5321164e-05
-0.04284844 0.060642157 -0.008579392 0.011245937 -0.03133383 -0.011851475 -0.031985402 -0.089534655
-0.014074305 0.020662487 -0.039776955 0.00732921 0.008710421 0.020936854 -0.018359186 -0.008996465
0.20158732 -0.24619596 0.03610959 0.002219119 -0.027120192 0.0050985585 0.04683406 -0.033592768
0.05490645 0.32371306 -0.41914862 -0.026968798 0.05716714 -0.02512642 0.020735923 -0.022188239
-0.014562117 0.033571586 0.19050926 -0.19628179 0.016511567 0.0023809306 -0.0241037 -0.0011100975
0.63737327 0.020604607 -0.010010293 -0.70682406 0.014049844 0.0049983715 0.06244336 -0.051250063
0.009269124 -0.07651818 0.013048303 0.0014570742 0.06653807 -0.025531119 -0.026109468 0.0018691121
0.029480489 0.011366124 -0.60776544 -0.019821133 -0.0082947565 0.6553132 -0.022732392 0.037137847
-0.08175946 0.033268776 0.010553082 -0.028278539 0.007393166 -0.02702082 -0.107585125 0.05270623
0.028932668 0.02920427 -0.009417223 -0.019941265 0.087110355 -0.01588038 0.20421492 -0.44280922
0.121364534 -0.04278373 0.1098057 -0.004316728 0.020355256 -0.005716636 0.0024069685 0.056499682
-0.17431599 0.024657054 0.019358585 0.029157905 0.016650572 0.012845656 0.0059590866 0.0039602276
0.03725642 -0.36399767 0.11488002 0.023812449 0.12060032 0.012044463 -0.033992644 -0.053501546
0.0061807777 -0.04323723 0.5951568 -0.10906781 -0.06236214 -0.13849822 -0.027948763 0.012163673
0.07166159 -0.011495278 0.07790608 -0.36924282 0.09601117 0.020030923 0.054810576 0.021333778
0.036653843 -0.0512997 0.028063416 -0.07638888 0.28542823 -0.024968667 0.07559897 -0.06448899
0.014806491 -0.0118336845 0.009716195 -0.025693685 -0.05491671 0.30495518 -0.062387846 -0.037215237
-0.016267415 0.012322957 0.02298783 -0.06235992 0.03097533 0.03575059 0.08909512 0.06455952
0.0027506787 -0.066341616 0.0061675105 -0.0043681473 0.045405317 0.023196995 0.037818596 -0.3725957
0.16733786 0.005758984 0.04198273 0.0109185865 0.01711387 0.035859168 0.028840236 0.106222846
00000000: 6d4b 0a3b 7296 883c 5322 813c 8bbd 94bc
00000010: cb82 ba3c 5db4 373a 1c46 7b3c 5f6f 063d
00000020: 8bd3 afbc f495 0dbb 1eee 5a3c 3720 2cbc
00000030: 4fd7 c23c 82e6 943c e9a6 1bbc fbd2 52bc
00000040: f7d1 463a 3f50 e63c 38e8 ac3c 1785 45bd
00000050: eed7 1f3c 1969 89bc 740c a5be dacc 6cbc
00000060: 063f 523c b816 16bd 2d5e f33a 267a 27bd
00000070: 499c 51be bb45 08bd 522a bb3c 1862 be3e
00000080: f786 9d3c 4edc aabc aab8 653d e9bc 0fbd
00000090: 9ddf ab3c 2f18 a03d c139 093d adb0 b1bc
000000a0: ed2b 99bd c6cc 49bd a0c6 763c 5527 d0bc
000000b0: abb6 313d 1e41 c83c 006c 983d 36fa f03b
000000c0: 967f 3ebc e57b c0bd 0bc5 173d 1b70 c4bb
000000d0: d884 09bd da17 94bb d527 c8bb c311 ccbd
000000e0: 95b0 1b3b 64ba 46be 4fbd 033f 7850 1f3b
000000f0: 3730 20bc c106 31be d26a 6abc 7f87 f53c
00000100: 942b 8c3c 9b95 5a3d 6e1b 983d 6107 923c
00000110: 8afa 3fbd 8cd9 693a 83dc ef3d f537 bf3c
00000120: 964d 4ebb 9d29 8f3d eacb 2fbd ab7e ec3d
00000130: f39d 22bf 1b9b 263d 96d5 ad3c 7917 663d
00000140: 0b3b 66bb 66df 23bc d60d adbc 9c1c 9abc
00000150: 6ef1 583c a209 28be 122d 123d c6df a13c
00000160: a217 c73b e2c5 9cbc 7ce4 c7bb 12b0 463d
00000170: 4349 923b 1a2d 543d 47bc 83be c968 d437
00000180: d981 2fbd e963 783d 9490 0cbc e140 383c
00000190: e757 00bd b02c 42bc 2003 03bd f25d b7bd
000001a0: ea97 66bc 6044 a93c 29ed 22bd df29 f03b
000001b0: 27b6 0e3c c483 ab3c 0166 96bc e965 13bc
000001c0: e86c 4e3e cb1a 7cbe a6e7 133d a46e 113b
000001d0: 2a2b debc cf11 a73b 12d5 3f3d 9298 09bd
000001e0: 96e5 603d b8bd a53e a69a d6be abed dcbc
000001f0: 1728 6a3d ecd5 cdbc 62de a93c 1cc4 b5bc
00000200: f295 6ebc 5c82 093d dc14 433e 18fe 48be
00000210: 4443 873c 6309 1c3b 1f75 c5bc b180 91ba
00000220: e52a 233f feca a83c 3602 24bc 6cf2 34bf
00000230: 5131 663c 61c9 a33b 9cc4 7f3d 96eb 51bd
00000240: 86dd 173c 90b5 9cbd 8dc8 553c 4cfb be3a
00000250: 1d45 883d a326 d1bc 86e3 d5bc fffc f43a
00000260: 1181 f13c fb38 3a3c 8496 1bbf ee5f a2bc
00000270: bbe6 07bc 9bc2 273f 4839 babc db1d 183d
00000280: 8171 a7bd d744 083d d6e6 2c3c 65a8 e7bc
00000290: 5f42 f23b c45a ddbc 9755 dcbd 7de2 573d
000002a0: 3404 ed3c cb3d ef3c b24a 1abc dd5b a3bc
000002b0: ea66 b23d 9217 82bc b71d 513e e4b7 e2be
000002c0: f88d f83d fe3d 2fbd d0e1 e03d 5773 8dbb
000002d0: 11c0 a63c 9e52 bbbb 3bbe 1d3b 366c 673d
000002e0: e47f 32be 97fd c93c e595 9e3c 8fdc ee3c
000002f0: c866 883c 9676 523c 7144 c33b ccc4 813b
00000300: 309a 183d e75d babe 3746 eb3d 5312 c33c
00000310: 4dfd f63d 2456 453c df3b 0bbd 7024 5bbd
00000320: 1f88 ca3b 8619 31bd 325c 183f f25e dfbd
00000330: 716f 7fbd 7ad2 0dbe cef4 e4bc 244a 473c
00000340: 50c3 923d b156 3cbc 398d 9f3d 650d bdbe
00000350: 81a1 c43d e417 a43c 0e81 603d 2dc4 ae3c
00000360: 5722 163d a21f 52bd 40e5 e53c c671 9cbd
00000370: a623 923e 178b ccbc a2d3 9a3d ce12 84bd
00000380: ed96 723c 12e2 41bc ad30 1f3c 907b d2bc
00000390: 58f0 60bd 1623 9c3e 668a 7fbd 016f 18bd
000003a0: 3e43 85bc 3ae6 493c f950 bc3c 1e6d 7fbd
000003b0: fabf fd3c 366f 123d 8177 b63d c837 843d
000003c0: bb44 343b 1dde 87bd d418 ca3b ad22 8fbb
000003d0: edfa 393d a007 be3c ace7 1a3d ddc4 bebe
000003e0: 9e5a 2b3e dcb5 bc3b 15f6 2b3d dfe3 323c
000003f0: 6332 8c3c 10e1 123d 5c42 ec3c 5d8b d93d

to_feat.bias f4 [33]
0.022060594 -0.13558698 -0.07583967 0.70759076 -0.0041850084 0.004532196 -0.11040494 -0.42615563
-0.46829373 -0.16437311 0.81493556 -0.081241645 -0.056126043 0.008867007 0.15977697 0.04766493
0.0134427985 -0.10569001 0.09051918 -0.15907633 0.057263196 -0.145291 0.2257842 0.013117355
0.113534726 0.011471412 0.011744885 0.030035641 0.030731719 0.024229148 -0.058532905 0.00047179562
-0.0031791483
00000000: 6bb8 b43c 50d7 0abe d451 9bbd ab24 353f
00000010: 6522 89bb d182 943b fc1b e2bd 1231 dabe
00000020: 32c4 efbe 6d51 28be 9e9f 503f 0562 a6bd
00000030: 6ce4 65bd ec46 113c 939c 233e 4d3c 433d
00000040: 2f3f 5c3c 0174 d8bd 1f62 b93d e8e4 22be
00000050: d08c 6a3d 2ac7 14be f933 673e 2dea 563c
00000060: e584 e83d 97f2 3b3c 9e6d 403c 4e0d f63c
00000070: 16c1 fb3c 357c c63c 33c0 6fbd 565b f739
00000080: 4259 50bb

feats.0.norm1.weight f4 [33]
1.3280677 1.1555945 0.72444874 0.91820955 0.8610813 1.0977945 0.8743544 0.31755587
1.438297 0.87151664 1.0958102 1.2404292 1.198256 1.4072624 1.2717099 0.9587618
1.2975789 1.0644579 1.3295745 1.5182122 1.3666271 1.6447119 1.3314891 1.0389822
1.8945228 0.25992298 0.7064205 1.2711022 0.7448421 1.057846 0.93224406 1.4127743
1.3882657
00000000: 1ffe a93f 85ea 933f 7975 393f c80f 6b3f
00000010: d36f 5c3f 8884 8c3f b1d5 5f3f af96 a23e
00000020: 1e1a b83f b71b 5f3f 8243 8c3f 62c6 9e3f
00000030: 7460 993f 2d21 b43f 64c7 a23f 6a71 753f
00000040: 1117 a63f 2840 883f 7f2f aa3f c754 c23f
00000050: a3ed ae3f eb85 d23f 3c6e aa3f 5efd 843f
00000060: b97f f23f a014 853e f9d7 343f 7ab3 a23f
00000070: f9ad 3e3f 7f67 873f 8ca7 6e3f cad5 b43f
00000080: b1b2 b13f

feats.0.norm1.bias f4 [33]
0.09017667 0.19264252 0.022327747 -0.73588926 0.08142525 0.021649567 0.18134259 -0.6782786
0.020484978 0.27862972 0.84965867 0.056716334 0.1698767 -0.3274613 0.29901138 -0.11387663
0.31332815 0.030884223 0.16189855 0.27546242 -0.24124053 0.43023416 0.4142044 -0.0050579514
-0.7422636 -0.10385813 -0.009269574 0.18778734 -0.024816472 0.10334808 0.20712557 0.12095412
0.65221167
00000000: 8cae b83d 1544 453e aee8 b63c 3d63 3cbf
00000010: 48c2 a63d 6f5a b13c dfb1 393e aba3 2dbf
00000020: 1dd0 a73c 8ea8 8e3e 3b83 593f 634f 683d
00000030: 28f4 2d3e 02a9 a7be 0518 993e 2738 e9bd
00000040: 8c6c a03e e900 fd3c bcc8 253e 6909 8d3e
00000050: c207 77be a747 dc3e 9912 d43e 2cbd a5bb
00000060: fd04 3ebf 92b3 d4bd 69df 17bc 534b 403e
00000070: ea4b cbbc 28a8 d33d ba18 543e cbb6 f73d
00000080: 58f7 263f

feats.0.norm2.weight f4 [33]
0.7952227 0.76442504 0.63992554 0.32662216 0.1823112 0.52465427 0.7073318 0.526924
0.88641214 0.62676847 0.44651583 0.711375 0.68413544 0.44545928 0.4185986 0.8194104
0.9120994 0.81774133 0.7956435 0.8032745 0.99145657 0.5905429 0.65740216 0.5019347
0.40346864 0.22514504 0.17747821 0.7808435 0.7335764 0.5990424 0.62882495 0.9243296
0.6626157
00000000: b793 4b3f 5cb1 433f 29d2 233f 053b a73e
00000010: caaf 3a3e be4f 063f b213 353f 7ee4 063f
00000020: e8eb 623f e673 203f b99d e43e ac1c 363f
00000030: 8023 2f3f 3d13 e43e 8e52 d63e e1c4 513f
00000040: 597f 693f 7f57 513f 4baf 4b3f 66a3 4d3f
00000050: 19d0 7d3f d22d 173f 824b 283f cb7e 003f
00000060: 7193 ce3e 6c8c 663e d9bc 353e 5ce5 473f
00000070: aacb 3b3f d85a 193f acfa 203f dda0 6c3f
00000080: 2fa1 293f

feats.0.norm2.bias f4 [33]
0.08165875 0.22721548 0.29437453 -1.2203432 0.013573863 0.03828072 0.4773998 0.9410973
-0.029517133 0.61197674 -0.34706518 0.17674722 0.33633047 -0.16442496 -0.087254375 0.27796903
0.19090626 0.22765724 0.4321595 0.35783547 -0.2834368 0.21764462 -0.106015146 -0.024573013
-0.741539 -0.23834212 -0.010366439 0.1794802 -0.18372074 -0.015623511 0.19483246 0.09771149
0.41161188
00000000: b43c a73d 2dab 683e 42b8 963e 3534 9cbf
00000010: e864 5e3c 3fcc 1c3d bf6d f43e c1eb 703f
00000020: eacd f1bc 82aa 1c3f 87b2 b1be 39fd 343e
00000030: 8233 ac3e 045f 28be 6cb2 b2bd f551 8e3e
00000040: ee7c 433e fb1e 693e 0344 dd3e 3636 b73e
00000050: a11e 91be 3bde 5e3e 781e d9bd 584d c9bc
00000060: 80d5 3dbf f50f 74be ffd7 29bc a8c9 373e
00000070: 4a21 3cbe c1f9 7fbc 2982 473e f61c c83d
00000080: cbbe d23e

feats.0.safm.dwConv1.0.weight f4 [33, 1, 3, 3]
-0.047134075 -0.3430765 -0.054333534 0.053932447 -0.026305225 0.06219257 -0.013022569 0.015947396
0.0020007202 0.009130608 0.022499789 2.4560317e-05 -0.06486125 0.65932447 -0.06478264 0.058251668
-0.11415852 0.025431527 0.11313705 0.15333952 0.010107476 0.21959825 1.1210904 0.025980016
0.09898496 0.18002243 0.026176516 0.010954228 -0.021923691 0.025307702 -0.10563196 -0.41099945
-0.0964014 -0.0128150005 -0.10522046 -0.0061681205 0.08183133 0.388267 -0.02757367 -0.9846715
3.6767585 0.037595615 0.224394 0.10520412 -0.034919184 -0.010239022 0.16192925 -0.13009414
-0.1679265 -8.515853 -0.0061207945 0.0333337 -0.00937937 0.1029503 -0.021058228 0.20844458
0.0065645413 0.101828225 0.92090076 0.15384327 -0.018367259 0.09108797 -0.0034022548 0.54523146
1.2768065 0.52257156 -0.47473922 -0.08662595 -0.3837344 0.42669818 0.31570122 0.34866646
0.40615305 1.7056378 0.24388541 -0.4622766 -1.6715416 -0.2903026 0.028014839 -0.1634705
0.022499818 0.13105787 0.05464022 0.08434943 0.1569104 1.18525 -0.6387984 0.17372248
0.15576826 0.021818839 0.08864596 -0.1643585 0.17035554 -0.23772638 0.27241412 -0.05638703
-0.28186274 -0.3152908 0.12783858 -0.09633959 -0.01427354 0.5766964 -0.23678397 -1.5553051
4.0711613 -0.04847333 0.37962306 0.7731537 -0.06814028 -0.44564375 -0.10048662 -0.09533649
0.9030896 0.13363627 -0.056672256 -0.23920424 -0.059660014 -0.026843125 0.010672353 -0.03139162
0.012141079 0.59386957 0.04447436 -0.023492482 0.0690025 -0.050902963 -0.07482569 -0.027054287
0.080458894 0.20367071 0.538014 -0.88677317 0.02698761 0.18109049 -0.11233417 0.010098845
0.0053816508 0.017128829 0.048688162 1.0328473 0.0506173 0.02402028 0.07757458 0.009732529
-0.12903231 0.23799741 -0.0324862 -0.092556246 -0.30612314 0.51287824 -0.19703889 0.031853598
-0.033704877 -0.020032771 -0.20494258 -0.35195622 0.18548037 -0.21961515 0.9365821 -0.022611273
-0.2084316 -0.2917507 0.022170627 -0.0644772 0.011830147 -0.037839234 0.44681123 -0.012694143
0.031444665 -0.049495615 0.02997381 0.13237302 -0.40070087 0.2411518 0.021129446 0.05929549
-0.02844892 0.061010696 -0.13115768 0.029735237 -0.003489564 0.029004345 0.040838405 0.053299177
-0.23988551 -0.23602058 0.06894112 -0.4867 -0.33721864 0.13862836 0.002517945 0.023456922
0.30338857 0.090339705 -0.054253124 0.110144295 0.008677259 0.0082433345 -0.075054295 -0.054330725
-0.18413484 -0.1432292 0.10584616 0.04566037 -0.069881156 -0.049772687 -0.1709598 -0.34407339
0.13186412 -0.19166991 0.42308322 -0.05207165 0.27257583 -0.21502969 -0.024641445 -0.051225144
0.37943837 -0.026759688 -0.19003941 -0.26286098 -0.01794315 -0.062215578 -0.25088137 -0.14628324
-0.12082348 0.374126 -0.09203961 0.03501507 -0.9112958 0.80030715 -0.4692309 0.33463547
-0.088959 -0.0017988125 -0.16497758 0.6261761 -0.24070679 -0.035170823 -0.06358857 0.0047877054
-0.07599857 0.24258168 -0.101300165 0.14667614 0.0066391528 -0.100484274 -0.6521585 0.3323032
-0.05757897 0.5025919 -0.18056926 -0.014350048 -0.05758823 -0.090004444 0.41184255 -0.43334547
00000000: a90f 41bd b9a7 afbe d78c 5ebd 45e8 5c3d
00000010: 0e7e d7bc a3bd 7e3d 9d5c 55bc 1da4 823c
00000020: 841e 033b 8c98 153c 7a51 b83c e106 ce37
00000030: fad5 84bd 7dc9 283f c3ac 84bd 4d99 6e3d
00000040: f1cb e9bd c755 d03c 66b4 e73d 0905 1d3e
00000050: d499 253c 5dde 603e e47f 8f3f 0bd4 d43c
00000060: a0b8 ca3d cd57 383e 2270 d63c 5d79 333c
00000070: 5099 b3bc 1952 cf3c 9255 d8bd 856e d2be
00000080: 196e c5bd 02f6 51bc d37d d7bd f21d cabb
00000090: 2f97 a73d efca c63e 2de2 e1bc 6e13 7cbf
000000a0: 0350 6b40 dcfd 193d 8ac7 653e 4275 d73d
000000b0: 6b07 0fbd 92c1 27bc c8d0 253e 6637 05be
000000c0: edf4 2bbe ef40 08c1 f290 c8bb eb88 083d
000000d0: eeab 19bc 9bd7 d23d 4e82 acbc 7f72 553e
000000e0: 5d1b d73b 518b d03d 27c0 6b3f 1789 1d3e
000000f0: ef76 96bc 548c ba3d 5df8 5ebb 4a94 0b3f
00000100: 656e a33f 40c7 053f 0511 f3be f268 b1bd
00000110: d678 c4be 2f78 da3e 97a3 a13e 6984 b23e
00000120: 4bf3 cf3e 5752 da3f 19bd 793e 85af ecbe
00000130: 13f5 d5bf 8ba2 94be 607f e53c d064 27be
00000140: 8a51 b83c 0934 063e 6cce 5f3d 65bf ac3d
00000150: 1fad 203e 46b6 973f 4b88 23bf 4ee4 313e
00000160: b781 1f3e 6cbd b23c 038c b53d 984d 28be
00000170: af71 2e3e 8b6e 73be dd79 8b3e 16f6 66bd
00000180: 5050 90be cc6d a1be 1ee8 023e b14d c5bd
00000190: 91db 69bc 60a2 133f 7f77 72be 3d14 c7bf
000001a0: f446 8240 f88b 46bd f45d c23e 67ed 453f
000001b0: 228d 8bbd 6b2b e4be eecb cdbd c73f c3bd
000001c0: e130 673f f2d7 083e 2b21 68bd f5f1 74be
000001d0: 0f5e 74bd 1de6 dbbc 18db 2e3c 8094 00bd
000001e0: 60eb 463c d607 183f bf2a 363d 4e73 c0bc
000001f0: 2f51 8d3d a07f 50bd 363e 99bd f4a0 ddbc
00000200: a2c7 a43d 0e8f 503e 49bb 093f 9103 63bf
00000210: 1f15 dd3c c96f 393e 750f e6bd a075 253c
00000220: 8f58 b03b c251 8c3c 3d6d 473d 5734 843f
00000230: 1654 4f3d 2ec6 c43c 6cdf 9e3d 2f75 1f3c
00000240: 0c21 04be 98b5 733e 4010 05bd 218e bdbd
00000250: 2cbc 9cbe fd4b 033f 90c4 49be eb78 023d
00000260: 200e 0abd c41b a4bc 78dc 51be 9b33 b4be
00000270: 91ee 3d3e cbe2 60be d8c3 6f3f 473b b9bc
00000280: 186f 55be 5960 95be 2d9f b53c 9f0c 84bd
00000290: 3cd3 413c 50fd 1abd 71c4 e43e 18fb 4fbc
000002a0: 1fcc 003d eabb 4abd a38b f53c cb8c 073e
000002b0: aa28 cdbe 7ff0 763e a917 ad3c d4df 723d
000002c0: b60d e9bc 5ae6 793d 334e 06be 5097 f33c
000002d0: 2bb1 64bb 859a ed3c 2c46 273d 3d50 5a3d
000002e0: 8ca4 75be 61af 71be 0031 8d3d be30 f9be
000002f0: eca7 acbe 98f4 0d3e 1b04 253b bb28 c03c
00000300: bf55 9b3e 0604 b93d 8638 5ebd 5593 e13d
00000310: 102b 0e3c 0d0f 073c 11b6 99bd e589 5ebd
00000320: d88d 3cbe adaa 12be dfc5 d83d 5e06 3b3d
00000330: da1d 8fbd 72de 4bbd 1610 2fbe 632a b0be
00000340: 6307 073e 1e45 44be 5d9e d83e 1549 55bd
00000350: 0f8f 8b3e be30 5cbe dbdc c9bc 75d1 51bd
00000360: bf45 c23e 2237 dbbc b199 42be b795 86be
00000370: 83fd 92bc c3d5 7ebd 8673 80be 46cb 15be
00000380: 4d72 f7bd 718d bf3e 437f bcbd f66b 0f3d
00000390: ae4a 69bf eee0 4c3f 083f f0be 5755 ab3e
000003a0: 2330 b6bd 22c6 ebba e2ef 28be 144d 203f
000003b0: d77b 76be 480f 10bd b93a 82bd 2fe2 9c3b
000003c0: 23a5 9bbd 5567 783e 7676 cfbd 4532 163e
000003d0: 408d d93b b3ca cdbd dcf3 26bf a523 aa3e
000003e0: edd7 6bbd dda9 003f 26e7 38be 771c 6bbc
000003f0: a3e1 6bbd 4054 b8bd 07dd d23e 75df ddbe

feats.0.safm.dwConv1.0.bias f4 [33]
0.0016805975 0.48853573 0.3974722 0.84068274 -0.16016793 -0.23585154 0.36774665 0.9681867
-0.38940805 0.48379424 0.7590788 1.5527594 -0.03581661 -0.028108845 -0.24738061 0.50454295
0.0844919 -0.037317634 0.44633782 -0.075692125 -0.61167264 -0.6156436 0.42185834 0.013259632
-0.65812016 0.10523754 -0.1557323 0.20225883 0.068850614 0.14546022 0.23840925 0.0037591965
-0.41489792
00000000: 7f47 dc3a 5b21 fa3e 7a81 cb3e fc36 573f
00000010: 1003 24be 1183 71be 4a49 bc3e 15db 773f
00000020: 7e60 c7be e1b3 f73e fd52 423f d2c0 c63f
00000030: 70b4 12bd 8544 e6bc 5851 7dbe ba29 013f
00000040: 170a ad3d 60da 18bd 6486 e43e 7904 9bbd
00000050: 9496 1cbf d29a 1dbf d1fd d73e ed3e 593c
00000060: 907a 28bf c886 d73d 4a78 1fbe f01c 4f3e
00000070: 8d01 8d3d 86f3 143e 8e21 743e da5c 763b
00000080: 806d d4be

feats.0.safm.dwConv2.0.weight f4 [16, 1, 3, 3]
-0.098479286 -0.23448367 -0.07923231 -0.28605592 -0.5904848 -0.21895431 -0.07435085 -0.21138787
-0.074896984 -0.022940224 -0.071595006 -0.02846714 -0.0715701 -0.2864281 -0.07430223 -0.020452205
-0.06901318 -0.022732113 0.021730898 0.08579154 0.025634265 0.11107505 0.2262479 0.12017468
0.0386694 0.10619519 0.038313553 0.046012364 0.14178675 0.02668059 0.121081755 0.32704982
0.09696295 0.037347194 0.10538735 0.015246217 0.015494059 0.08590718 0.028496994 0.045804396
0.24664998 0.08856063 0.008701119 0.06370007 0.020835381 -0.06392831 -0.08060501 -0.059012063
-0.15751402 -0.64691657 -0.0988077 -0.08815509 -0.1169907 -0.036420427 -0.45746547 -1.0911608
-0.51351017 -1.1153377 -3.3717759 -1.2672725 -0.4138312 -1.1952283 -0.54126275 -0.10394681
-0.28344646 -0.07097192 -0.22364993 -0.45655245 -0.22591472 -0.030476356 -0.20616287 -0.05391446
-0.23426194 -0.2516436 -0.27019015 -0.37220743 -0.32606456 -0.3892073 -0.28088617 -0.2675556
-0.26001537 0.10691937 0.11994391 0.1277764 0.35616267 0.23761313 0.20473665 0.20228149
0.15841673 0.18129554 0.06206153 0.09524974 0.08581288 0.06961067 0.14405468 0.101089284
0.042051166 0.07236188 0.075576745 -0.20447947 -0.27516237 -0.19295503 -0.30112344 -0.23700431
-0.2925005 -0.20733115 -0.27676874 -0.1809306 0.22141747 0.31294852 0.2258043 0.30046096
0.8079942 0.3394403 0.26526636 0.4273109 0.22456048 -0.0980622 -0.10918123 -0.091824725
-0.13967767 -0.120303206 -0.12825319 -0.10524557 -0.119755365 -0.107118905 -0.16411471 -0.6777861
-0.23852749 -0.6318009 -1.258054 -0.6174075 -0.18814258 -0.6546026 -0.184805 -0.02557487
0.084029794 0.006941553 0.05636177 0.64432156 0.0006368364 -0.0048959916 0.057625126 0.026955998
00000000: 82af c9bd 7d1c 70be 8d44 a2bd ec75 92be
00000010: 032a 17bf 8f35 60be 4245 98bd 1076 58be
00000020: 9763 99bd 23ed bbbc 67a0 92bd eb33 e9bc
00000030: 5893 92bd b4a6 92be c42b 98bd 628b a7bc
00000040: c856 8dbd b238 babc ff04 b23c 7ab3 af3d
00000050: f3fe d13c 517b e33d 88ad 673e 251e f63d
00000060: ce63 1e3d dd7c d93d acee 1c3d 7677 3c3d
00000070: 8c30 113e 4191 da3c b6f9 f73d 1373 a73e
00000080: 8394 c63d 5ff9 183d 53d5 d73d 45cb 793c
00000090: cbda 7d3c 1bf0 af3d 8772 e93c 649d 3b3d
000000a0: d091 7c3e 475f b53d 238f 0e3c 2f75 823d
000000b0: f6ae aa3c d9ec 82bd 3d14 a5bd a2b6 71bd
000000c0: 5b4b 21be 539c 25bf b15b cabd a88a b4bd
000000d0: d298 efbd 962d 15bd ea38 eabe 28ab 8bbf
000000e0: 6775 03bf 63c3 8ebf 2dcb 57c0 fc35 a2bf
000000f0: afe1 d3be 3efd 98bf 3290 0abf 11e2 d4bd
00000100: e51f 91be ba59 91bd 7d04 65be 3ec1 e9be
00000110: 3056 67be 8da9 f9bc 5c1c 53be 69d5 5cbd
00000120: 5de2 6fbe 6ed7 80be 5d56 8abe f991 bebe
00000130: eff1 a6be 2e46 c7be 50d0 8fbe 0cfd 88be
00000140: bc20 85be 8bf8 da3d 27a5 f53d d1d7 023e
00000150: f45a b63e db50 733e 7ca6 513e e122 4f3e
00000160: ff37 223e 8aa5 393e 3b34 7e3d 4c12 c33d
00000170: aabe af3d 0a90 8e3d 1283 133e e607 cf3d
00000180: d83d 2c3d 7732 943d fbc7 9a3d 1163 51be
00000190: 15e2 8cbe 0196 45be da2c 9abe 42b1 72be
000001a0: a0c2 95be 9e4e 54be a2b4 8dbe df45 39be
000001b0: 43bb 623e ca3a a03e 3e39 673e 05d6 993e
000001c0: b5d8 4e3f 1ecb ad3e fed0 873e 7fc8 da3e
000001d0: 2ff3 653e d6d4 c8bd 699a dfbd 9a0e bcbd
000001e0: aa07 0fbe 8761 f6bd ce54 03be fd8a d7bd
000001f0: 4d42 f5bd 2861 dbbd b00d 28be 6483 2dbf
00000200: 8d40 74be b4bd 21bf ea07 a1bf 6b0e 1ebf
00000210: 73a8 40be 0994 27bf 863d 3dbe 6482 d1bc
00000220: d017 ac3d f875 e33b 99db 663d 42f2 243f
00000230: 5ef1 263a 8e6e a0bb 5308 6c3d d3d2 dc3c

feats.0.safm.dwConv2.0.bias f4 [16]
0.3957632 0.080576435 -0.064823665 0.033178084 -0.015313458 -0.25053194 0.4173564 0.13230981
0.28328276 -0.11486549 -0.0074592805 0.2634844 0.2815136 0.2608624 0.13366885 -0.057849575
00000000: 79a1 ca3e 4205 a53d 45c2 84bd bee5 073d
00000010: 4ce5 7abc b945 80be bdaf d53e 397c 073e
00000020: 700a 913e 993e ebbd fb6c f4bb 6de7 863e
00000030: 8d22 903e c28f 853e 7de0 083e adf3 6cbd

feats.0.safm.dwConv3.0.weight f4 [8, 1, 3, 3]
0.098736204 0.46165872 0.094236955 0.41363657 1.050271 0.4320867 0.0751462 0.43916303
0.10691767 0.10502791 0.11103272 0.09593672 0.13024738 0.11975643 0.13729912 0.11469441
0.09788692 0.12966713 0.026413195 0.106478855 0.02545712 0.10105342 0.4433033 0.10561398
0.018648565 0.1100541 0.022323476 0.07484423 0.3497487 0.085184224 0.3565419 1.7976937
0.3242128 0.07701246 0.32418212 0.09448716 0.0069558965 0.021643251 0.0085380105 0.026919484
0.2129888 0.02304281 0.006929677 0.025721345 0.009583443 -0.036448646 -0.08573404 -0.05235601
-0.103973456 -0.39664677 -0.10868402 -0.056330748 -0.087996304 -0.03546113 -0.049187336 -0.11790244
-0.054896377 -0.118235566 -0.39841294 -0.11673587 -0.055489734 -0.11558231 -0.057904713 -0.021968419
-0.05021211 -0.015938396 -0.06076799 -0.34062517 -0.06389049 -0.020240042 -0.06868723 -0.018729698
00000000: 3536 ca3d 885e ec3e 4eff c03d 2cc8 d33e
00000010: 486f 863f 783a dd3e 40e6 993d fad9 e03e
00000020: a7f7 da3d df18 d73d 1f65 e33d 797a c43d
00000030: 925f 053e dc42 f53d 2498 0c3e e7e4 ea3d
00000040: f078 c83d 76c7 043e 7c60 d83c 9611 da3d
00000050: 738b d03c 18f5 ce3d a6f8 e23e 244c d83d
00000060: e0c4 983c 0b64 e13d b9df b63c ef47 993d
00000070: 4312 b33e 1175 ae3d a98c b63e d41a e63f
00000080: 38ff a53e b5b8 9d3d 33fb a53e 7c82 c13d
00000090: 4aee e33b 304d b13c 03e3 0b3c 4086 dc3c
000000a0: bc19 5a3e 46c4 bc3c 5812 e33b 92b5 d23c
000000b0: e003 1d3c 2d4b 15bd 5495 afbd 4173 56bd
000000c0: 09f0 d4bd 4915 cbbe ba95 debd 12bb 66bd
000000d0: 6837 b4bd b13f 11bd a978 49bd d676 f1bd
000000e0: 06db 60bd 7d25 f2bd c8fc cbbe 3713 efbd
000000f0: 3449 63bd 6bb6 ecbd 7e2d 6dbd 1df7 b3bc
00000100: 37ab 4dbd 3d91 82bc dbe7 78bd 6c66 aebe
00000110: 04d9 82bd 72ce a5bc e4ab 8cbd 066f 99bc

feats.0.safm.dwConv3.0.bias f4 [8]
0.16289254 -0.0225581 -0.111690044 -0.10271567 -0.13552642 0.0045923623 0.033847652 0.0050482634
00000000: 4dcd 263e c4cb b8bc c0bd e4bd 985c d2bd
00000010: 70c7 0abe 877b 963b d6a3 0a3d e76b a53b

feats.0.safm.ConvCat.weight f4 [33, 33, 1, 1]
-1.0560942 0.18387389 0.18665527 0.36634642 0.018182345 0.004598187 0.12077687 -0.1284554
0.022066604 0.11534959 -0.036039744 0.00461017 -0.22068314 0.093286894 0.05321024 2.347019
0.066769525 0.010449592 -0.026362892 -0.17747271 0.2454414 -0.04719999 0.34257725 -0.01937903
-0.24804752 -0.013281283 0.16030854 0.044299852 -0.118947744 -0.044648558 -0.3772124 0.12289354
0.048036586 0.29318103 -0.31373504 -0.3851576 -0.79294163 -0.0034847406 0.0118955625 -0.006670613
0.35058695 -0.022103075 0.07890265 0.005020885 0.012118121 0.07773144 0.23353153 0.25697592
0.8757844 0.29272595 -0.059469484 0.32352313 0.5186086 -0.21605894 0.29416758 0.03967313
-0.087278396 0.22646603 -0.15146527 0.05300257 -0.42757708 -0.10003528 0.0752063 -0.2688259
-0.20764005 0.0449687 0.08336013 -0.12215827 -0.16236624 -0.11751893 -0.0027268564 -0.0025533754
-0.036155917 0.0062953387 -0.0050104395 0.12962142 -0.030335877 -0.0125348065 0.279458 0.082649685
-0.040929984 0.4628179 0.041874245 -0.00048905006 0.0683644 -0.047607068 0.17340639 -0.38606536
0.76835907 0.10463334 -0.45666566 -0.2534438 0.4988041 -0.099266686 -0.15060179 -0.29493293
-1.011779 -0.0984152 0.21078973 -0.1480255 -0.36375248 -0.009343721 1.4754156 0.011005023
0.03301848 -0.10345614 -0.007952503 0.018444045 0.2200168 -0.08823801 0.031526376 0.25409007
-0.03846377 -0.057328 -0.6387295 0.15307125 -0.061655577 -0.46859974 0.26495844 -0.0650283
0.088236414 0.42444453 -0.025900492 -0.22787677 -0.070750475 -0.16557862 -0.08092052 -0.4036841
-0.08213022 -0.39268446 -0.096523106 0.0027149231 0.12696841 -0.13012761 0.06416389 0.2951053
-0.13459213 -0.0011386411 -0.62069637 0.19042513 -0.023371657 -0.64628685 0.07188936 -0.07440921
-0.019711955 0.08863121 -0.65433824 0.39398494 -0.9501757 0.121982284 0.37229276 -1.4862891
-0.19967438 -0.47196636 0.4566 0.19520806 0.1780817 0.4651323 0.34168 -0.47022536
-0.2523002 0.12343015 0.4438138 -0.22087906 0.02592373 1.3688363 1.4061486 -0.010661098
-1.0150375 0.022984706 -0.10905293 0.46231994 -0.03175999 -0.13553776 0.026103767 0.12619206
-0.0081021 -0.47347364 -0.080571845 0.16009817 0.35506967 0.16365132 -0.042632025 -0.16349214
1.099425 -0.07625228 0.0071617397 0.46462208 0.5691935 0.15701601 -0.31726852 0.41982642
-0.54360706 0.04548991 -0.008440648 -0.6188467 -0.7744397 -0.3235225 0.14132099 -0.21528612
0.101218954 -0.27612385 -0.016829526 0.009773816 -0.075596236 0.25011358 -0.013185594 0.039484087
0.044960853 0.003245931 0.154534 -0.035817463 -0.12627581 -0.23816347 -0.18628149 0.692405
-0.14659694 -1.6035905 0.08465413 0.32013273 0.49888393 0.055362962 -0.1402984 0.28514853
0.26780683 -0.0006503084 -0.39116395 0.18531764 0.19925687 -0.36828157 -0.03661839 0.073789865
0.0038763524 0.010530535 -0.245618 -0.0015741007 -0.0024590187 0.034443323 -0.038304657 -0.009329714
0.19812578 -0.04116504 0.0086785965 -0.08085218 -0.11751451 0.108445495 -0.2733101 0.22296444
-0.042041935 -0.057703532 0.38308114 0.075725295 0.20044376 0.21735637 -0.070533976 -0.50410366
00000000: 182e 87bf 7049 3c3e 8f22 3f3e c291 bb3e
00000010: 24f3 943c 63ac 963b dd59 f73d d089 03be
00000020: 06c5 b43c 683c ec3d 699e 13bd e910 973b
00000030: c3fa 61be 330d bf3d fbf2 593d 8f35 1640
00000040: 76be 883d c434 2b3c fef6 d7bc 68bb 35be
00000050: fe54 7b3e c754 41bd 4966 af3e c6c0 9ebc
00000060: 2b00 7ebe bd99 59bc ec27 243e c373 353d
00000070: e09a f3bd 68e1 36bd fc21 c1be 9caf fb3d
00000080: 03c2 443d d31b 963e e1a1 a0be 6033 c5be
00000090: 39fe 4abf 3f60 64bb 9be5 423c 2895 dabb
000000a0: 2280 b33e 8211 b5bc b697 a13d 3c86 a43b
000000b0: 158b 463c a931 9f3d e422 6f3e 5992 833e
000000c0: 6833 603f 2de0 953e 4696 73bd d3a4 a53e
000000d0: 89c3 043f 8e3e 5dbe 229d 963e 4b80 223d
000000e0: 04bf b2bd b6e6 673e b619 1bbe 3919 593d
000000f0: 62eb dabe 4cdf ccbd c305 9a3d 8ca3 89be
00000100: 989f 54be 1931 383d b7b8 aa3d 1d2e fabd
00000110: 5643 26be c4ad f0bd 0fb5 32bb 8856 27bb
00000120: 3a18 14bd 2149 ce3b 9d2e a4bb 7abb 043e
00000130: f282 f8bc ca5e 4dbc 1e15 8f3e 3d44 a93d
00000140: 33a6 27bd 78f6 ec3e 5484 2b3d 9833 00ba
00000150: a202 8c3d a1ff 42bd 7291 313e 5caa c5be
00000160: 2eb3 443f 014a d63d 15d0 e9be 63c3 81be
00000170: 4063 ff3e 554c cbbd 5b37 1abe 7301 97be
00000180: f981 81bf e98d c9bd 43d9 573e ff93 17be
00000190: c43d babe 6816 19bc 6bda bc3f 694e 343c
000001a0: 633e 073d d0e0 d3bd 374b 02bc f717 973c
000001b0: 164c 613e 21b6 b4bd cd21 013d 1818 823e
000001c0: 308c 1dbd c4d0 6abd c783 23bf b6be 1c3e
000001d0: 8f8a 7cbd 4eec efbe a2a8 873e 8f2d 85bd
000001e0: 4bb5 b43d cb50 d93e 452d d4bc 8758 69be
000001f0: a0e5 90bd 718d 29be a8b9 a5bd afaf cebe
00000200: e433 a8bd f00d c9be e8ad c5bd daec 313b
00000210: 0204 023e 2c40 05be 5c68 833d 0b18 973e
00000220: 85d2 09be 753e 95ba f5e5 1ebf cefe 423e
00000230: eb75 bfbc 0e73 25bf bb3a 933d db63 98bd
00000240: f77a a1bc 4884 b53d b682 27bf 65b8 c93e
00000250: b73e 73bf d9d1 f93d 289d be3e b93e bebf
00000260: 7177 4cbe 93a5 f1be 7ac7 e93e 9fe4 473e
00000270: 0d5b 363e d225 ee3e aef0 ae3e 61c1 f0be
00000280: 7e2d 81be f2c8 fc3d 903b e33e 1f2e 62be
00000290: 015e d43c 0736 af3f adfc b33f e3ab 2ebc
000002a0: c0ec 81bf 6c4a bc3c 2457 dfbd 33b5 ec3e
000002b0: c316 02bd 69ca 0abe 91d7 d53c 7e38 013e
000002c0: acbe 04bc 236b f2be da02 a5bd c6f0 233e
000002d0: b1cb b53e 3694 273e eb9e 2ebd 7c6a 27be
000002e0: f5b9 8c3f 282a 9cbd 07ad ea3b f2e2 ed3e
000002f0: aab6 113f cec8 203e 0571 a2be 7df3 d63e
00000300: d529 0bbf a153 3a3d a54a 0abc bd6c 1ebf
00000310: ae41 46bf bea4 a5be 73b6 103e f773 5cbe
00000320: e24b cf3d 1b60 8dbe 13de 89bc 5b22 203c
00000330: 33d2 9abd e30e 803e 6408 58bc 11ba 213d
00000340: df28 383d afb9 543b 293e 1e3e 55b5 12bd
00000350: 724e 01be 20e1 73be 93c0 3ebe 7441 313f
00000360: 821d 16be 7442 cdbf 255f ad3d 70e8 a33e
00000370: b76d ff3e 46c4 623d 62aa 0fbe fdfe 913e
00000380: fa1d 893e 7579 2aba a446 c8be e8c3 3d3e
00000390: fe09 4c3e 678f bcbe 2afd 15bd 241f 973d
000003a0: 670a 7e3b 4488 2c3c 4983 7bbe 0e52 ceba
000003b0: 7d27 21bb 7114 0d3d 58e5 1cbd a8db 18bc
000003c0: 7ce1 4a3e ac9c 28bd ac30 0e3c d495 a5bd
000003d0: 73ab f0bd ac18 de3d 4def 8bbe ca50 643e
000003e0: 2a34 2cbd 8a5a 6cbd 3623 c43e dd15 9b3d
000003f0: 2141 4d3e ab92 5e3e 1e74 90bd f00c 01bf

feats.0.safm.ConvCat.bias f4 [33]
-0.44848928 -0.55033857 -0.11653683 0.06350005 0.3129639 -0.140723 -0.30024055 -0.4014312
-0.68229324 -0.2625281 -0.3999738 -0.48843893 -0.18646875 -0.21364532 -0.37143332 -0.34678438
-0.4932205 -0.26279464 -0.5748929 -0.3856012 -0.4296352 -0.51964885 -0.34156656 0.30980533
0.20409551 0.12150751 0.33051905 -0.27789032 -0.10376939 0.18328078 -0.2122904 -0.031773996
-0.15701771
00000000: 63a0 e5be fde2 0cbf ddaa eebd 500c 823d
00000010: ce3c a03e b119 10be 21b9 99be 6488 cdbe
00000020: c5aa 2ebf 156a 86be 5ec9 ccbe ab14 fabe
00000030: aaf1 3ebe d7c5 5abe 822c bebe b98d b1be
00000040: 6687 fcbe 058d 86be 2e2c 13bf 856d c5be
00000050: 25f9 dbbe b507 05bf d0e1 aebe ce9e 9e3e
00000060: 6afe 503e eed8 f83d cb39 a93e a447 8ebe
00000070: 0c85 d4bd f5ad 3b3e a862 59be 7325 02bd
00000080: 40c9 20be

feats.0.ccm.Conv1.weight f4 [118, 33, 1, 1]
0.077511586 0.921937 0.13985898 0.049606573 -0.090447694 0.032242674 0.0871066 -0.6025324
0.18362752 -0.55586964 -0.116634615 -0.036730867 -0.4241065 0.3975893 -0.0060308874 0.09199239
0.11149594 0.18009362 0.3792117 -0.23105408 0.15802401 0.23848665 -0.07090008 -0.35860342
-0.2865554 0.2154901 0.1051925 0.018479604 0.3747674 0.56143963 -0.4594216 -1.2835323
0.1615084 -0.068365835 0.625027 0.008264566 -0.22644366 0.07305077 0.73339194 -0.13792442
-0.2911434 -0.4062622 -0.18962474 -0.18226515 -0.718534 0.9721532 0.20249352 -0.04155068
-0.10935952 -0.59604746 -0.5525538 -0.046464074 0.06422808 -0.008164683 0.32636008 -0.5297521
0.10467585 -0.12626226 -0.23258471 0.059962202 -0.1562549 0.94653434 -0.39768064 0.22994857
0.41405475 0.98735505 -0.16659999 -0.062405076 0.07860722 -0.30264637 -0.062713 0.95001763
0.04409256 -0.1713918 -0.0033467554 0.008265319 -0.10947746 -0.049065355 0.11407627 -0.19953255
0.21094574 -0.2019102 -0.1730976 -0.18803722 0.064686336 -0.22113852 0.09949512 -0.02515627
0.06757576 0.119212985 -0.19821768 -0.12082097 1.1414399 0.05148093 -0.11363679 -0.4094792
-0.167694 -0.24304931 0.05027127 0.005424486 -0.15938236 -0.009814429 -0.28858387 -0.20742038
-0.34455726 0.14387639 -0.21364105 -0.15377843 0.10371251 -0.41242668 0.03143659 -0.15937431
-0.14016019 -0.47045082 -0.17141536 0.3447944 -0.21691234 -0.03603102 -0.36195436 -0.32560572
-0.017281296 -0.21478781 -0.08423791 -0.02862027 -0.30028042 0.7750885 0.0285061 0.005205963
-0.08838867 0.012226049 0.108820386 -0.11556764 0.33800772 -0.61741114 -0.07460893 -0.07185307
-0.18137814 -0.08031126 0.27793542 0.4118707 -0.33627388 -0.14311124 -0.30287674 -0.21800727
0.37567076 0.6825149 -0.6736239 -0.37448955 -0.56577796 0.21883482 -0.042810835 -0.09339782
-0.28379005 0.0022843578 0.4066137 0.05440205 -0.16338912 -0.30979788 0.12014239 -0.5218732
-0.35239044 0.78109276 0.4953883 0.28761622 1.0887218 0.04454087 0.24760023 0.49826667
0.38712716 0.10643142 -0.099942036 -0.25600114 -0.118413605 -0.35677958 -0.47188947 -0.29594707
-0.13755786 0.0049965307 -1.0468895 0.6095571 -0.20718989 -0.079747126 0.32054284 -0.080195315
0.3399023 0.6730356 0.2449313 0.23897292 0.070974655 0.26188347 -0.10261473 0.16728641
-0.2031049 -0.62722033 -0.18517129 0.2890482 0.17293227 0.32560873 0.19225933 0.12377656
-0.2804682 -0.30954278 0.0584186 0.018256895 0.37822676 -0.09129362 0.340817 -0.05938653
0.17884527 -0.21821126 0.10859561 0.17444327 -0.0154668195 0.5722352 -0.062459547 -0.45276457
0.45912844 -0.053207558 0.16371636 -0.102809444 -0.18048817 0.03850252 -0.08736089 -0.23678614
0.022933457 -0.26143283 -0.05739545 -0.30303994 -0.0422975 -0.19132814 0.44998723 -0.07251244
0.5007443 -0.15138596 0.5889131 -0.111938536 0.05062223 -0.36395055 -0.5343955 0.0065208985
-0.11615537 0.11230083 -0.34219944 -0.15718885 -0.66183525 0.25297448 -0.29865423 -0.04354091
0.24677752 0.890758 -0.24417394 -0.27764875 -0.28595456 0.56917906 0.09933035 -0.007874472
00000000: 65be 9e3d 1004 6c3f 3137 0f3e 4330 4b3d
00000010: a43c b9bd e510 043d f264 b23d 903f 1abf
00000020: da08 3c3e 794d 0ebf 21de eebd 1b73 16bd
00000030: 7d24 d9be d390 cb3e c09e c5bb 8266 bc3d
00000040: fc57 e43d 766a 383e 0928 c23e 7199 6cbe
00000050: 0cd1 213e d835 743e 1034 91bd de9a b7be
00000060: 64b7 92be 70a9 5c3e 2a6f d73d 8a62 973c
00000070: 83e1 bf3e 82ba 0f3f 4f39 ebbe c94a a4bf
00000080: 7562 253e 6303 8cbd c501 203f 1a68 073c
00000090: d9e0 67be a49b 953d 93bf 3b3f 0f3c 0dbe
000000a0: bf10 95be 9901 d0be fd2c 42be b7a3 3abe
000000b0: d8f1 37bf 08df 783f 765a 4f3e 0c31 2abd
000000c0: e2f7 dfbd 9196 18bf 2a74 0dbf 1d51 3ebd
000000d0: 038a 833d 2ac5 05bc ab18 a73e d59d 07bf
000000e0: 4b60 d63d e54a 01be b02a 6ebe ed9a 753d
000000f0: 4901 20be 1350 723f cc9c cbbe a377 6b3e
00000100: fcfe d33e 4dc3 7c3f 3099 2abe 779c 7fbd
00000110: d2fc a03d 77f4 9abe ac6f 80bd 5b34 733f
00000120: 669a 343d 5581 2fbe 3d55 5bbb 436b 073c
00000130: b835 e0bd c1f8 48bd d2a0 e93d 4352 4cbe
00000140: 2902 583e 8cc1 4ebe 7f40 31be d48c 40be
00000150: 457a 843d 2372 62be 19c4 cb3d 8614 cebc
00000160: 2965 8a3d f025 f43d 93f9 4abe fc70 f7bd
00000170: b41a 923f abdd 523d 68ba e8bd 42a7 d1be
00000180: fab7 2bbe ebe1 78be 3fe9 4d3d e3bf b13b
00000190: 2135 23be b3cc 20bc 44c1 93be 0266 54be
000001a0: cf69 b0be 5554 133e b8c4 5abe 1878 1dbe
000001b0: 3967 d43d 9729 d3be a7c3 003d 0533 23be
000001c0: 2786 0fbe eede f0be 8287 2fbe e488 b03e
000001d0: 451e 5ebe 4395 13bd 1552 b9be cbb5 a6be
000001e0: 8191 8dbc 56f1 5bbe ed84 acbd 0e75 eabc
000001f0: 5bbe 99be 336c 463f a085 e93c c896 aa3b
00000200: 1e05 b5bd c44f 483c 39dd de3d baae ecbd
00000210: 590f ad3e a80e 1ebf 91cc 98bd b427 93bd
00000220: 31bb 39be 3b7a a4bd 8d4d 8e3e b7e0 d23e
00000230: 172c acbe c18b 12be a912 9bbe 4c3d 5fbe
00000240: eb57 c03e 4cb9 2e3f 9e72 2cbf 18bd bfbe
00000250: d3d6 10bf 3c16 603e 6a5a 2fbd 5b47 bfbd
00000260: ee4c 91be 2ab5 153b ac2f d03e afd4 5e3d
00000270: 7a4f 27be d49d 9ebe 370d f63d 7b99 05bf
00000280: 856c b4be b2f5 473f 89a3 fd3e 6f42 933e
00000290: 3c5b 8b3f 7d70 363d ea8a 7d3e cf1c ff3e
000002a0: 8835 c63e b7f8 d93d 69ae ccbd 9512 83be
000002b0: d582 f2bd d0ab b6be 7f9b f1be 6086 97be
000002c0: f8db 0cbe f0b9 a33b 7a00 86bf ef0b 1c3f
000002d0: 9629 54be 7652 a3bd 311e a43e 713d a4bd
000002e0: ad07 ae3e 104c 2c3f 45cf 7a3e 51b5 743e
000002f0: 295b 913d 9715 863e ac27 d2bd 214d 2b3e
00000300: bbfa 4fbe 8391 20bf 8b9d 3dbe 20fe 933e
00000310: 2815 313e 30b6 a63e a1df 443e 917e fd3d
00000320: 8799 8fbe 647c 9ebe 5848 6f3d 7c8f 953c
00000330: f0a6 c13e 26f8 babd 917f ae3e 4a3f 73bd
00000340: 3723 373e c672 5fbe 6067 de3d 42a1 323e
00000350: 8b68 7dbc 027e 123f 95d5 7fbd c2d0 e7be
00000360: e212 eb3e 2bf0 59bd 43a5 273e c28d d2bd
00000370: e4d1 38be d2b4 1d3d 44ea b2bd 1178 72be
00000380: f2de bb3c 86da 85be 7e17 6bbd 0d28 9bbe
00000390: 2540 2dbd 86eb 43be ba64 e63e 6781 94bd
000003a0: c730 003f ec04 1bbe 02c3 163f 0840 e5bd
000003b0: 4159 4f3d ba57 babe 25ce 08bf 43ad d53b
000003c0: dee2 edbd fafd e53d c434 afbe 1df6 20be
000003d0: 096e 29bf df85 813e 35e9 98be f457 32bd
000003e0: 3fb3 7c3e b708 643f bc08 7abe fa27 8ebe
000003f0: a368 92be b8b5 113f b66d cb3d ee03 01bc

feats.0.ccm.Conv1.bias f4 [118]
0.051902283 0.026635181 -0.18444541 -0.08273129 0.006003797 -0.0016138977 0.03990696 -0.12587875
0.112225 -0.2164299 -0.5071829 -0.10047464 0.06464747 -0.33043697 0.13660268 -0.031559717
-0.2047651 0.014637039 0.1770492 0.016092794 -0.061097488 -0.0080118915 -0.105924055 0.421131
-0.022426743 -0.09575292 -0.1993473 -0.07909107 0.46437076 -0.02608208 0.04010483 -0.11280278
0.4815354 0.11128995 -0.28576404 0.079284854 -0.091962636 0.2869936 -0.20926152 -0.12228721
0.10102334 0.119842514 -0.055910237 -0.2724884 0.19344905 -0.00430059 0.13756658 -0.033213846
-0.290793 -0.12510857 0.11110158 -0.0776409 -0.3115201 0.3275394 0.011620328 0.26174423
-0.028698152 -0.22919476 -0.004182233 -0.006981477 -0.14539209 0.5236501 0.06496616 0.042856563
-0.032476228 0.32124937 0.2988051 0.05100145 0.11828271 1.1512185 -0.1822604 0.10905709
0.5797905 0.08710258 0.027629334 -0.019753527 0.20445569 0.0054160845 0.038192306 -0.13331397
0.25342348 0.1558992 0.117891796 -0.20288254 -0.044441175 -0.26912472 0.16726547 0.15801276
0.11909824 -0.2763727 0.33637163 0.10362042 -0.07777035 0.035571873 -0.009321875 -0.25638944
-0.02693449 0.03311191 -0.054051828 0.012534891 -0.2793847 -0.029776018 0.0947116 -0.053615224
-0.043307986 -0.0784256 -0.21841002 -0.16586234 -0.033489678 -0.15115751 0.011422378 0.006617002
-0.14133841 0.10479705 -0.035567988 0.40603456 0.026371224 0.042894308
00000000: 7d97 543d 0632 da3c 42df 3cbe 066f a9bd
00000010: 80bb c43b 6c89 d3ba 7b75 233d 5ce6 00be
00000020: 39d6 e53d cd9f 5dbe bdd6 01bf a6c5 cdbd
00000030: e565 843d 092f a9be 93e1 0b3e c344 01bd
00000040: f1ad 51be 31d0 6f3c 634c 353e 09d5 833c
00000050: 5c41 7abd 4f44 03bc b6ee d8bd 7c9e d73e
00000060: 4ab8 b7bc 1b1a c4bd b321 4cbe 80fa a1bd
00000070: 01c2 ed3e 16aa d5bc f644 243d 2505 e7bd
00000080: cf8b f63e fceb e33d aa4f 92be 1960 a23d
00000090: e856 bcbd d3f0 923e a748 56be b771 fabd
000000a0: 53e5 ce3d fe6f f53d 2202 65bd 9983 8bbe
000000b0: 8217 463e f7eb 8cbb 41de 0c3e 3e0b 08bd
000000c0: d2e2 94be 761c 00be 3a89 e33d 3102 9fbd
000000d0: 907f 9fbe 3fb3 a73e 3063 3e3c 5703 863e
000000e0: 6318 ebbc 08b2 6abe 1d0b 89bb e0c4 e4bb
000000f0: aae1 14be ef0d 063f fa0c 853d 5d8a 2f3d
00000100: cb05 05bd cc7a a43e fbfc 983e e5e6 503d
00000110: 353e f23d 215b 933f 78a2 3abe 5359 df3d
00000120: 266d 143f d662 b23d ea56 e23c 26d2 a1bc
00000130: d55c 513e 6979 b13b 896f 1c3d 7583 08be
00000140: b9c0 813e 0aa4 1f3e 4171 f13d 71c0 4fbe
00000150: f307 36bd b7ca 89be a447 2b3e 19ce 213e
00000160: c7e9 f33d b980 8dbe e738 ac3e f136 d43d
00000170: 1046 9fbd d0b3 113d c7ba 18bc 7a45 83be
00000180: b8a5 dcbc 5ba0 073d 7365 5dbd 255f 4d3c
00000190: 830b 8fbe d6ec f3bc 28f8 c13d a39b 5bbd
000001a0: b763 31bd 9a9d a0bd e0a6 5fbe d1d7 29be
000001b0: 792c 09bd 09c9 1abe ed24 3b3c 70d3 d83b
000001c0: 04bb 10be d69f d63d bdaf 11bd c3e3 cf3e
000001d0: 7708 d83c f1b1 2f3d

feats.0.ccm.Conv2.0.weight f4 [118, 1, 2, 5]
-0.053902898 -0.5176269 0.821474 0.19952111 0.10318111 -0.024311647 -0.17224124 -0.26891983
-0.09945672 -0.04619342 0.041305996 -0.1931484 0.82068527 0.010735021 0.010018187 0.0380442
-0.11860383 -0.17430428 -0.0971997 0.0143924635 0.03328828 -0.03051452 0.129256 -0.096945725
0.026532909 -0.030111998 -0.005878975 0.70259225 -0.043071896 -0.00888053 0.0074609662 -0.027101485
-0.08510254 0.041040976 0.004967853 -0.017453052 -0.079845086 -0.8876013 0.031724893 -0.014272876
0.043856677 -0.04874866 0.0020058963 0.0063461573 -0.0004545041 -0.04561645 0.766941 -0.07951227
0.0031253805 -0.015856463 0.011313838 -0.05296541 0.15480612 0.045878604 -0.009482721 -0.08018612
-0.18751518 0.75921535 0.2572704 0.020831862 -0.0151162855 -0.087973185 -0.69385386 0.098863795
0.015997741 0.013863459 0.21799982 0.69202083 -0.04449641 0.016216842 -0.0057491427 0.15253098
0.45858613 -0.07155074 0.04369752 0.0012877005 0.08512894 0.2401544 -0.004016372 0.009074435
0.05682074 -0.0037574803 0.18564756 0.08364923 -0.027090365 0.06390828 0.20423979 0.076334536
-0.009501788 0.0012130808 -0.1643067 0.010533174 0.03600987 0.047876574 0.021828806 -0.5880066
0.37145606 0.08760626 0.12270205 0.004745344 -0.0122199375 0.599653 -0.0682289 -0.15541744
0.0010377438 0.05715692 0.34224415 0.11589836 0.07253124 0.035992492 0.0758769 -0.87813485
0.18202619 -0.054691054 0.015197056 -0.048566 0.034849707 -0.01965709 -0.0037378795 0.0003861884
0.1346727 -0.09118077 0.021715902 0.008342182 -0.0077658044 -0.05159673 0.73630226 -0.03608956
-0.0006280613 0.020476228 -0.08594216 -0.029040009 -0.31038997 0.74849653 -0.31762412 -0.03727577
-0.038431596 -0.38840902 0.22892249 0.36388707 0.06212362 0.25849536 0.42221615 0.12219952
-0.006673882 0.083077036 0.2566001 0.203254 0.045927312 -0.014108302 0.0032004113 0.24850771
-0.46865955 -0.07310176 -0.003701764 -0.0010022086 0.01741177 -0.18392353 -0.048171557 -0.010001652
-0.032901328 0.07321877 -0.60435694 0.2475554 -0.0641874 -0.07585849 0.08519837 0.54577273
-0.015958574 -0.033829827 -0.1498691 0.8333457 0.1900947 -0.10091688 0.07810621 0.0042270883
-0.09731152 -0.10972113 0.04597715 -0.028910067 0.009260184 -0.18316157 -0.45293677 -0.13915777
0.009567187 -0.024614712 -0.0058985376 0.045104284 -0.0036430836 -0.0022637355 -0.00041949886 -0.079262964
0.17296037 -0.034905035 -0.0102668805 0.03379468 -0.030201342 0.65776473 0.12781602 0.072480425
-0.016618991 -0.17689417 -0.73751533 0.059379768 -0.014898018 0.01892811 -0.073414765 -0.24412191
-0.04237354 0.04616018 -0.08108156 0.13186216 -0.04653997 -0.017706525 -0.017202267 0.14628117
-1.0908744 0.010862455 0.011978916 -0.016760616 0.06925328 0.0073174327 -0.3696325 0.2898014
0.26915497 -0.05957801 -0.062988915 -0.08115023 0.15195167 0.037418943 -0.0074496595 -0.10310774
-0.27086616 0.025603695 0.003988789 0.010490715 0.059858453 0.05847487 -0.00089155184 0.03399059
0.03606229 0.020203713 -0.56021017 -0.19661604 -0.030463612 0.0032664416 0.11852399 -0.027728744
-0.008254179 -0.043006863 0.0313209 0.51980597 -0.9816479 -0.3537909 -0.107471794 0.008134567
00000000: 49c9 5cbd 3283 04bf 1f4c 523f 434f 4c3e
00000010: 9e50 d33d 3829 c7bc 0260 30be dcaf 89be
00000020: f7af cbbd 5035 3dbd 7a30 293d b2c8 45be
00000030: 6e18 523f f1e1 2f3c 5223 243c 3cd4 1b3d
00000040: 91e6 f2bd d27c 32be a310 c7bd 5ece 6b3c
00000050: 4b59 083d 96f9 f9bc af5b 043e 7b8b c6bd
00000060: 8b5b d93c 70ad f6bc 6ba4 c0bb 16dd 333f
00000070: 286c 30bd a47f 11bc 1f7b f43b ef03 debc
00000080: 3e4a aebd 951a 283d 5fc9 a23b b4f9 8ebc
00000090: d285 a3bd d739 63bf f6f1 013d c8d8 69bc
000000a0: 0fa3 333d adac 47bd 5b75 033b 6df3 cf3b
000000b0: 824a eeb9 51d8 3abd 3f56 443f 54d7 a2bd
000000c0: 2fd3 4c3b 6ae5 81bc ad5d 393c 42f2 58bd
000000d0: 7f85 1e3e 34eb 3b3d 6a5d 1bbc 9f38 a4bd
000000e0: fb03 40be f05b 423f f2b8 833e 95a7 aa3c
000000f0: 4caa 77bc 492b b4bd 68a0 31bf 1a79 ca3d
00000100: b20d 833c 9023 633c 583b 5f3e 4728 313f
00000110: de41 36bd 2fd9 843c 4e63 bcbb 1531 1c3e
00000120: cdcb ea3e 3289 92bd 2cfc 323d 0fc8 a83a
00000130: 1558 ae3d 09eb 753e c59b 83bb f0ac 143c
00000140: ddbc 683d 0f40 76bb 651a 3e3e 4a50 ab3d
00000150: 9dec ddbc 58e2 823d 3c24 513e 4855 9c3d
00000160: 63ad 1bbc 3d00 9f3a 0440 28be 5593 2c3c
00000170: 167f 133d 3a1a 443d 53d2 b23c 9a87 16bf
00000180: 7d2f be3e e96a b33d 364b fb3d d57e 9b3b
00000190: 2236 48bc dc82 193f 98bb 8bbd c025 1fbe
000001a0: e704 883a 601d 6a3d a03a af3e 1f5c ed3d
000001b0: 428b 943d dd6c 133d 5965 9b3d 72cd 60bf
000001c0: 1365 3a3e ba03 60bd 13fd 783c 24ed 46bd
000001d0: 91be 0e3d e807 a1bc 36f7 74bb 5479 ca39
000001e0: a4e7 093e fcbc babd 8ce5 b13c a6ad 083c
000001f0: 4a78 febb 1857 53bd 4e7e 3c3f a5d2 13bd
00000200: 7ba4 24ba c3bd a73c 7102 b0bd 50e5 edbc
00000210: 6feb 9ebe 789d 3f3f a19f a2be 7aae 18bd
00000220: 736a 1dbd 8cdd c6be a86a 6a3e 684f ba3e
00000230: 5675 7e3d 8159 843e b72c d83e be43 fa3d
00000240: 94b0 dabb 4b24 aa3d 1761 833e d121 503e
00000250: 471e 3c3d 8226 67bc febd 513b ce78 7e3e
00000260: 25f4 efbe 60b6 95bd 4b99 72bb 8a5c 83ba
00000270: 21a3 8e3c 7356 3cbe 8a4f 45bd f8dd 23bc
00000280: 8bc3 06bd b9f3 953d 23b7 1abf 2a7f 7d3e
00000290: af74 83bd b25b 9bbd 7c7c ae3d c3b7 0b3f
000002a0: 8ebb 82bc 2591 0abd 4977 19be 2556 553f
000002b0: 2fa8 423e 82ad cebd 26f6 9f3d 6383 8a3b
000002c0: 434b c7bd 79b5 e0bd 8952 3c3d ced4 ecbc
000002d0: 07b8 173c b58e 3bbe 54e7 e7be 607f 0ebe
000002e0: b1bf 1c3c cba4 c9bc 8548 c1bb 45bf 383d
000002f0: cdc0 6ebb 2e5b 14bb 2ff0 dbb9 9f54 a2bd
00000300: 861c 313e 95f8 0ebd 6b36 28bc 4a6c 0a3d
00000310: ce68 f7bc 4563 283f 34e2 023e 9e70 943d
00000320: 8d24 88bc bf23 35be cecd 3cbf 3338 733d
00000330: d116 74bc 200f 9b3c 7b5a 96bd 18fb 79be
00000340: e18f 2dbd 7512 3d3d 170e a6bd e006 073e
00000350: b2a0 3ebd 460d 91bc c5eb 8cbc bbca 153e
00000360: c6a1 8bbf 70f8 313c 3743 443c 8f4d 89bc
00000370: aad4 8d3d 13c7 ef3b 7940 bdbe d960 943e
00000380: aece 893e 1208 74bd 5500 81bd 1732 a6bd
00000390: 3899 1b3e 9b44 193d 461c f4bb 272a d3bd
000003a0: f8ae 8abe d7be d13c 63b4 823b 3fe1 2b3c
000003b0: 232e 753d 5883 6f3d 08b7 69ba b839 0b3d
000003c0: 0db6 133d 4282 a53c ef69 0fbf b755 49be
000003d0: d38e f9bc cc11 563b b5bc f23d 6427 e3bc
000003e0: 893c 07bc f727 30bd 584a 003d 0112 053f
000003f0: 474d 7bbf 1524 b5be 2c1a dcbd d946 053c

feats.0.ccm.Conv2.0.bias f4 [118]
-0.000118250326 -0.006718846 0.022069432 -0.03933811 0.092429005 -0.048614763 -0.0147769 0.073751226
0.10399893 0.013296179 0.27963665 -0.011903703 0.02136669 0.11360892 -0.026329806 0.074327685
0.03852803 -0.17269641 0.02599849 0.026663106 -0.1131064 -0.067030065 0.035680894 -0.42040768
0.048839353 -0.002656505 -0.1985271 -0.10350263 0.4658989 -0.061086353 0.08569155 0.118963346
0.21442133 -0.021602893 -0.11599441 -0.065372035 0.47227582 0.10148568 0.29730883 0.02470258
0.020471213 0.046301864 0.019886855 -0.041410662 0.08446282 -0.087763965 0.09136416 -0.023522573
-0.19177678 -0.051299777 -0.07719746 0.05729116 -0.16635767 -0.2880262 -0.06095474 0.16934972
-0.014144839 -0.08061181 0.031852942 0.000582568 -0.0052094916 -0.30137464 -0.14199145 -0.006227868
-0.02310599 0.0046791793 -0.1753645 0.040021967 0.0031043899 0.5738664 0.0018014918 -0.09841131
0.112768166 0.066146694 0.02611749 -0.0113423765 -0.2244876 -0.09388123 0.054002106 -0.0039428403
-0.0083061 0.015326798 0.7244337 -0.20921655 -0.030610517 -0.1840072 0.044531163 -0.061126262
0.06498532 0.1111243 -0.094006345 -0.0606861 -0.08542825 0.01808773 0.10894766 0.58836126
0.010940357 0.002303291 0.00069367234 0.014052083 0.07530906 0.102526814 0.36130294 -0.13536577
-0.089358 0.0103675695 -0.07887816 0.05165055 -0.1491999 0.1245735 0.059572276 0.115610234
0.108969904 -0.0056638317 -0.03505067 0.087048545 0.13106434 -0.101744756
00000000: 29fd f7b8 c429 dcbb f4ca b43c ff20 21bd
00000010: 6b4b bd3d 4620 47bd d01a 72bc e20a 973d
00000020: 64fd d43d 37d8 593c 892c 8f3e c007 43bc
00000030: 3209 af3c cbab e83d 9bb1 d7bc 1d39 983d
00000040: 91cf 1d3d 54d7 30be c9fa d43c 966c da3c
00000050: 54a4 e7bd 0f47 89bd 2126 123d ad3f d7be
00000060: c60b 483d c218 2ebb b04a 4bbe 30f9 d3bd
00000070: 4d8a ee3e af35 7abd 0d7f af3d 0ea3 f33d
00000080: 4491 5b3e 8df8 b0bc 7a8e edbd c6e1 85bd
00000090: 23ce f13e b9d7 cf3d dd38 983e 115d ca3c
000000a0: 3fb3 a73c 06a7 3d3d c2e9 a23c 3a9e 29bd
000000b0: d8fa ac3d 98bd b3bd 221d bb3d 69b2 c0bc
000000c0: 2261 44be b71f 52bd b419 9ebd 23aa 6a3d
000000d0: aa59 2abe 2c78 93be adab 79bd 036a 2d3e
000000e0: c1bf 67bc ce17 a5bd 3b78 023d 7ab7 183a
000000f0: 62b4 aabb c74d 9abe 3566 11be 2513 ccbb
00000100: c648 bdbc cd53 993b c092 33be 13ee 233d
00000110: 0573 4b3b e9e8 123f 0920 ec3a de8b c9bd
00000120: fff2 e63d eb77 873d 59f4 d53c 60d5 39bc
00000130: 14e0 65be cd44 c0bd 5031 5d3d f132 81bb
00000140: 4f16 08bc 401d 7b3c 7d74 393f dd3c 56be
00000150: e8c2 fabc 626c 3cbe 4f66 363d 885f 7abd
00000160: 0617 853d 2395 e33d 6686 c0bd fd91 78bd
00000170: 02f5 aebd b82c 943c f31f df3d d89e 163f
00000180: 2f3f 333c d0f2 163b 90d7 353a b53a 663c
00000190: a33b 9a3d 94f9 d13d b3fc b83e 539d 0abe
000001a0: 5401 b7bd bddc 293c df8a a1bd 878f 533d
000001b0: dcc7 18be 6420 ff3d 0f02 743d 0fc5 ec3d
000001c0: 9d2b df3d aa97 b9bb 4b91 0fbd 8246 b23d
000001d0: bb35 063e 8e5f d0bd
