NTIRE2023_ESR/model_zoo/team15_SAFMN.pth (torch, 971051 bytes, 60 tensors)

norm.gamma f4 [1, 36, 1, 1]
0	0xbe20c250	-0.15699124
1	0x3b24e54a	0.002516108
2	0x3b6e14e3	0.0036328367
3	0xbe8099da	-0.2511738
4	0xbd15c824	-0.036567822
5	0x3c5c3f51	0.01344283
6	0xbb9b89ba	-0.004746643
7	0xbe75e840	-0.24014378
8	0xbb2db711	-0.002650682
9	0xbe6f467c	-0.23366731
10	0xbb97dc5f	-0.0046344246
11	0xbdc3687b	-0.095414124
12	0x3d5ae959	0.053445194
13	0xbdbccdbb	-0.092189275
14	0x3c67f166	0.014156675
15	0xbebb276c	-0.36553514
16	0xbf1a2840	-0.60217667
17	0xbdb48c2a	-0.08815797
18	0xbd84c148	-0.06482178
19	0x3b044c4a	0.0020187073
20	0x3b5a8358	0.0033342447
21	0xbcae05af	-0.021242945
22	0xbb4c7708	-0.0031198878
23	0xbc0ba6a9	-0.008523622
24	0xbf17af8a	-0.59252226
25	0xbec3eb04	-0.3826524
26	0xbf057e76	-0.5214609
27	0x3bcbb015	0.006216059
28	0xb8b9af35	-8.854122e-05
29	0xbe5dc16f	-0.2165582
30	0xbb48db05	-0.0030648124
31	0x3b9028fc	0.004399417
32	0xbe2842da	-0.16431752
33	0x3d019cac	0.031643555
34	0xbf17cbe7	-0.59295505
35	0xbf168fe7	-0.5881333

norm.beta f4 [1, 36, 1, 1]
0	0x3d9f95a3	0.07792213
1	0xbbe4f82c	-0.006987592
2	0x3c73ffa9	0.014892497
3	0x3d0ab561	0.033864383
4	0x3de19aba	0.1101584
5	0xbca9bc4b	-0.020719668
6	0xbdbde722	-0.09272601
7	0x3b871bb9	0.004123178
8	0x3d2c63c7	0.042087343
9	0xbce64316	-0.028108161
10	0x3d492e43	0.049116384
11	0xbd40fa91	-0.04711396
12	0xbcdb05b1	-0.026736112
13	0xbcf5e703	-0.030017382
14	0xbe012818	-0.12612951
15	0xbc80d5e4	-0.015726991
16	0x3c925ad8	0.017865583
17	0xbc8e8406	-0.017396938
18	0xbdf1704a	-0.117889956
19	0xbde25a05	-0.11052326
20	0xbdd32c79	-0.10311217
21	0x3d7abef9	0.061217282
22	0xbe0e8c76	-0.13920769
23	0x3db60b00	0.08888817
24	0xbc0f5a16	-0.0087495055
25	0x3d4d27a2	0.050086625
26	0xba9f905b	-0.0012173759
27	0xbdd88209	-0.10571677
28	0x3dd455e3	0.10367944
29	0xbdd9bbc7	-0.10631519
30	0x3e07ac1d	0.1324925
31	0xbdcda89c	-0.10041925
32	0xbc15203f	-0.009101926
33	0xbe0b8f27	-0.13628827
34	0xbbf869d2	-0.007580974
35	0xbbad391b	-0.0052863485

to_feat.bias f4 [36]
0	0xbcae0cc2	-0.021246318
1	0x3e65e994	0.22452384
2	0x3e998421	0.2998362
3	0x3ab5ced0	0.0013870839
4	0xbe1eebdc	-0.1551966
5	0xbe37df6b	-0.17956321
6	0x3da22eac	0.07919058
7	0xbc0ab35c	-0.008465614
8	0x3c1347b8	0.008989267
9	0x3e07d57e	0.13265035
10	0xbe269b12	-0.16270092
11	0x3d48463c	0.048895106
12	0x3cfeb188	0.031090513
13	0x3deb4c2e	0.114891395
14	0x3e02cff2	0.12774637
15	0xbc517ee2	-0.012786599
16	0x3d7aa239	0.061189864
17	0xbd409a32	-0.047022052
18	0x3e25869b	0.16164629
19	0x3df75ece	0.120786294
20	0x3dea0e10	0.114284635
21	0x3bce70c0	0.006300062
22	0x3e5a5ab0	0.21323657
23	0x3a4f6100	0.00079108775
24	0x3d4a6279	0.049410317
25	0xbd9aba94	-0.07555118
26	0xbb273054	-0.0025510984
27	0x3e3ba3ea	0.18324247
28	0xbe7eaa6a	-0.24869695
29	0x3dffdba3	0.12493064
30	0xbebd6e0d	-0.36998025
31	0x3e89fb36	0.2694947
32	0x3d5cc160	0.053895354
33	0x3e48b1be	0.19599053
34	0x3d8a9ecc	0.06768569
35	0xbd400f32	-0.04688949

feats.0.safm.mfr.0.weight f4 [9, 1, 3, 3]
0	0x3f67353e	0.90315616
1	0x3f4f2bfe	0.809265
2	0x3f472c09	0.7780157
3	0x3f515cfb	0.817825
4	0x3f120ae1	0.5704785
5	0x3f79824c	0.9746444
6	0x3eeb5b21	0.45967963
7	0x3f4ec4b2	0.80768883
8	0x3f1a35cc	0.6023834
9	0x3d1e259a	0.03861008
10	0x3ee73fa0	0.4516573
11	0x3dc525d5	0.096263565
12	0x3eed56b9	0.46355227
13	0x3ffc0cac	1.9691367
14	0x3ee09852	0.4386621
15	0xbd597b18	-0.053095907
16	0x3ec8efb7	0.39245388
17	0x3ccb0d0a	0.024786491
18	0xbe940764	-0.2891189
19	0xbf33570b	-0.7005469
20	0xbe393c7f	-0.18089484
21	0xbf380577	-0.7188334
22	0xbf3e08e0	-0.7423229
23	0xbf49d1d8	-0.7883582
24	0xbe3ec391	-0.1862929
25	0xbf39f339	-0.72636753
26	0xbdef598e	-0.11687003
27	0xbe177c37	-0.14793478
28	0xbf8c3044	-1.095223
29	0xbe29922f	-0.16559671
30	0xbf88f421	-1.0699502
31	0xbff7334a	-1.9312527
32	0xbf702708	-0.93809557
33	0xbe24975c	-0.16073364
34	0xbf69b2b8	-0.9128833
35	0xbdb6eb76	-0.08931629
36	0x3f1a1b22	0.6019765
37	0x3eb9edae	0.36314148
38	0x3ef59799	0.47967222
39	0x3dcf391d	0.10118315
40	0xbfa5b8e8	-1.2947054
41	0x3ebc2780	0.36748886
42	0x3f24a443	0.64313143
43	0x3f26d8fb	0.65174836
44	0x3ef315ff	0.4747772
45	0x3ed0c209	0.40773037
46	0x3f21d4b0	0.6321516
47	0x3f029dd9	0.51022106
48	0x3f0d40d1	0.55177027
49	0x3ee54b2b	0.4478391
50	0x3eb521aa	0.35377246
51	0x3ec8420c	0.3911289
52	0x3ea1df7e	0.31615824
53	0x3f03ace0	0.5143566
54	0xbd87ad42	-0.06624843
55	0xbef0c8e5	-0.4702827
56	0x3ae76b36	0.0017655853
57	0xbf5593b0	-0.8342848
58	0xbf47f8ab	-0.7811381
59	0xbf032830	-0.51233196
60	0xbda70b89	-0.08156497
61	0xbf5e6675	-0.8687509
62	0x3c3e8a59	0.011629664
63	0xbe79a63f	-0.24379824
64	0xbf6e8dcb	-0.9318511
65	0xbe6102b0	-0.21973681
66	0xbf76b270	-0.96366024
67	0xbf735fc8	-0.95068026
68	0xbf5ba52c	-0.8579891
69	0xbe269efe	-0.16271588
70	0xbf63e072	-0.8901435
71	0xbdf7a351	-0.12091697
72	0x3c8c714a	0.017143864
73	0xbe8807f2	-0.26568562
74	0xbcf6a7f7	-0.030109389
75	0xbde8e727	-0.11372214
76	0xc036fe03	-2.8592536
77	0xbe6e0295	-0.23243172
78	0x3dca3416	0.09873216
79	0xbd73e232	-0.05954189
80	0x3c2fd307	0.010731465

feats.0.safm.mfr.1.weight f4 [9, 1, 3, 3]
0	0x3f5ce8b3	0.8629257
1	0x3edcfe1c	0.4316262
2	0x3f43481a	0.76281893
3	0x3eebd5c0	0.46061516
4	0x3e48f982	0.1962643
5	0x3ed48600	0.41508484
6	0x3f4e5dcb	0.80611867
7	0x3ea774ad	0.32706204
8	0x3f648fb5	0.8928178
9	0xbd1d8247	-0.03845432
10	0x3ec303f6	0.3808896
11	0xbc46475b	-0.012101973
12	0x3ec30556	0.38090008
13	0x4056d2bf	3.356613
14	0x3ec56a4f	0.3855767
15	0xbd16c248	-0.036806375
16	0x3ebf641b	0.37381062
17	0xbd2a2bcb	-0.04154567
18	0xbdd93ccd	-0.106073
19	0xbf0fc0ff	-0.56153864
20	0xbdee93d7	-0.11649292
21	0xbf11e2cd	-0.56986696
22	0xbff51ad6	-1.9148815
23	0xbf0f8266	-0.5605835
24	0xbddb7d76	-0.10717289
25	0xbf121651	-0.570653
26	0xbdc04808	-0.09388739
27	0xbe73d980	-0.23813438
28	0xbf57b549	-0.84260994
29	0xbe6b375a	-0.22970334
30	0xbf62a0ce	-0.8852662
31	0xc02a2ca7	-2.6589754
32	0xbf602766	-0.8756012
33	0xbe5c244d	-0.21498223
34	0xbf574503	-0.8408968
35	0xbe794754	-0.24343616
36	0x3eaf5a47	0.34248564
37	0xbe659a2d	-0.22422095
38	0x3eb800ca	0.35938102
39	0xbe389e09	-0.18029036
40	0xbf6266ca	-0.88438094
41	0xbda81a6b	-0.08208164
42	0x3e9d0cff	0.30673978
43	0xbdf158ee	-0.1178454
44	0x3ec03ef0	0.37548018
45	0x3e80120d	0.25013772
46	0x3f3c19f0	0.7347708
47	0x3e645a83	0.22300152
48	0x3f4304c3	0.7617914
49	0x3fe3e9b0	1.7805691
50	0x3f396b3c	0.7242925
51	0x3e5b5a84	0.21421248
52	0x3f3ad20e	0.7297677
53	0x3e707f3a	0.23486033
54	0x3e87f8fe	0.26557153
55	0x3f700a66	0.93765867
56	0x3e8430ca	0.25818473
57	0x3f7e76d2	0.99400055
58	0x403d22c1	2.9552462
59	0x3f7addf8	0.9799495
60	0x3e90fee6	0.28319472
61	0x3f8124bf	1.0089339
62	0x3e9186d6	0.28423184
63	0x3def4e93	0.11684909
64	0x3f1eae39	0.6198459
65	0x3e002bf0	0.12516761
66	0x3f33a1dc	0.7016885
67	0x400063ba	2.0060868
68	0x3f239d12	0.63911545
69	0x3de8a906	0.11360364
70	0x3f234b87	0.6378712
71	0x3ddf181a	0.10893269
72	0xbdff19d8	-0.12456101
73	0xbf0e8c1e	-0.5568255
74	0xbe016960	-0.12637854
75	0xbf0f8de4	-0.5607588
76	0xbffaf71a	-1.960666
77	0xbf0c429e	-0.5478915
78	0xbdf6e5de	-0.120555624
79	0xbf051e41	-0.5199929
80	0xbdd8ad6f	-0.10579955

feats.0.safm.mfr.2.weight f4 [9, 1, 3, 3]
0	0x3e9d489f	0.30719468
1	0x3f5daf35	0.8659547
2	0x3e8692d0	0.26283884
3	0x3f59bd08	0.85054064
4	0x3fff7703	1.9958194
5	0x3f589ecb	0.846173
6	0x3e9ba5f5	0.30400053
7	0x3f61e815	0.88244754
8	0x3e88d99e	0.2672853
9	0xbe7c89d3	-0.24661951
10	0xbf32cac5	-0.6984065
11	0xbe8232c4	-0.25429356
12	0xbf2b5d34	-0.6693909
13	0xc0141e19	-2.314337
14	0xbf2f7cc9	-0.6854978
15	0xbe673495	-0.22578652
16	0xbf31adc5	-0.69405776
17	0xbe71e90c	-0.23624057
18	0xbe0b0127	-0.13574658
19	0xbe846cdc	-0.25864303
20	0xbe1ac303	-0.15113454
21	0xbe7ce58e	-0.24696943
22	0xbf0372e8	-0.5134721
23	0xbe78f077	-0.2431048
24	0xbe28aa85	-0.16471298
25	0xbe949cfc	-0.2902602
26	0xbe084cc5	-0.13310535
27	0x3d859d22	0.06524111
28	0x3e566c19	0.20939673
29	0x3d25a307	0.040438678
30	0x3e3fe39b	0.18739168
31	0x3fd931c6	1.6968315
32	0x3e2f3109	0.17108549
33	0x3d588952	0.052865334
34	0x3e3b28b2	0.18277243
35	0x3cb33605	0.021876344
36	0x3e72a23d	0.23694701
37	0x3ef5feab	0.4804586
38	0x3e648d8b	0.2231962
39	0x3ef1563f	0.47136113
40	0x3f721874	0.9456856
41	0x3ef0f948	0.47065187
42	0x3e6b85c6	0.2300025
43	0x3ef1b0cf	0.47205207
44	0x3e682400	0.22669983
45	0x3c843757	0.01613967
46	0x3de8f969	0.11375696
47	0x3c055beb	0.008139591
48	0x3de2490f	0.11049091
49	0x3faf6c7b	1.3704981
50	0x3de36594	0.11103359
51	0x39547918	0.00020263006
52	0x3dcadff1	0.09905995
53	0x3a8266f5	0.0009948896
54	0x3e5b7d8a	0.21434608
55	0x3f1e4646	0.6182598
56	0x3e710eee	0.23540851
57	0x3f1278e3	0.5721571
58	0x3fcd8c8f	1.605852
59	0x3f183331	0.5945311
60	0x3e4a7499	0.19771041
61	0x3f17d774	0.5931313
62	0x3e52cf32	0.20586851
63	0x3ca94d45	0.020666728
64	0xbe0cba99	-0.13743056
65	0x3c78c8ff	0.01518464
66	0xbdd1755a	-0.10227461
67	0xc04b810b	-3.1797512
68	0xbe0605ce	-0.13088152
69	0x3d030b22	0.03199304
70	0xbdf6b4cc	-0.12046203
71	0x3c6caa73	0.014444935
72	0xbe10a055	-0.14123662
73	0xbee7d262	-0.45277697
74	0xbe1190f2	-0.14215448
75	0xbed67c56	-0.41891736
76	0xbfc5c444	-1.545052
77	0xbed9fb9a	-0.4257477
78	0xbdf14d36	-0.11782305
79	0xbed8aae6	-0.42317885
80	0xbdeb7bee	-0.11498247

feats.0.safm.mfr.3.weight f4 [9, 1, 3, 3]
0	0x3da86ae7	0.08223515
1	0x3e929f0f	0.28636977
2	0x3d9d58a6	0.07682924
3	0x3e8e8d02	0.27841955
4	0x3f9c1214	1.2193017
5	0x3e89ca25	0.26912037
6	0x3d9b895e	0.0759456
7	0x3e8afd89	0.27146557
8	0x3d6f67ac	0.05844848
9	0xbb9b3dfb	-0.0047376133
10	0xbdbc118e	-0.09183036
11	0xbbfc36b7	-0.007696952
12	0xbdae9eb1	-0.08526362
13	0xc02636f3	-2.5971038
14	0xbdcba19a	-0.099429324
15	0xbba5d6a5	-0.005060988
16	0xbdcfd192	-0.10147394
17	0xbc071ca2	-0.008246573
18	0xbe046b9d	-0.12931676
19	0xbec37558	-0.38175464
20	0xbe08d24a	-0.13361469
21	0xbeba9ed5	-0.36449304
22	0xbf8451ff	-1.0337523
23	0xbec63d54	-0.38718665
24	0xbdfd70e2	-0.12375046
25	0xbec579f6	-0.3856961
26	0xbdf6aaac	-0.12044272
27	0x3ccb9ca2	0.024854962
28	0x3df497c4	0.119430095
29	0x3ce75c10	0.028242141
30	0x3ddd11d0	0.10794413
31	0x4000fec1	2.015549
32	0x3dd5618b	0.104189955
33	0x3cb488a0	0.022037804
34	0x3de8ce78	0.11367506
35	0x3c884178	0.01663278
36	0xbd38d192	-0.045121737
37	0xbef66508	-0.48123956
38	0xbd1dc900	-0.038521767
39	0xbef7acb3	-0.48373947
40	0xbfc959c2	-1.5730517
41	0xbeea622f	-0.45778033
42	0xbd68ee27	-0.056867745
43	0xbef26540	-0.47342873
44	0xbd26a515	-0.04068478
45	0xbda73cd2	-0.081658974
46	0xbf0b07e6	-0.5430893
47	0xbd8d8d6c	-0.0691174
48	0xbf0464f4	-0.5171654
49	0xc01e1921	-2.4702837
50	0xbf05bca2	-0.52240956
51	0xbdab71ac	-0.083712906
52	0xbf08bad0	-0.53410053
53	0xbd857eda	-0.06518336
54	0x3e18cb1a	0.14921227
55	0x3f50765c	0.814306
56	0x3e0922b9	0.13392152
57	0x3f5e2945	0.8678172
58	0x3fa16416	1.2608669
59	0x3f4a04b3	0.7891342
60	0x3e2876ca	0.16451564
61	0x3f568ed0	0.83811665
62	0x3e182dfe	0.14861295
63	0x3dc83e7f	0.09777545
64	0x3ee89374	0.45424998
65	0x3da96125	0.08270482
66	0x3ee39f01	0.44457248
67	0x3ff91e96	1.9462459
68	0x3ee3353c	0.44376552
69	0x3dcdfbd0	0.10057795
70	0x3eee94df	0.46597955
71	0x3dbf2926	0.0933402
72	0xbe01c00f	-0.12670921
73	0xbf0a6b19	-0.5406967
74	0xbdf4a73c	-0.1194596
75	0xbf07cd0d	-0.5304726
76	0xc03a6010	-2.9121132
77	0xbf04fdf5	-0.5195001
78	0xbdd0d4df	-0.10196852
79	0xbf0a0f3f	-0.53929514
80	0xbdcb3068	-0.09921342

feats.0.safm.aggr.weight f4 [36, 36, 1, 1]
0	0xbe5f2b04	-0.21793753
1	0x3e7843e6	0.24244651
2	0xbe05b7b4	-0.13058358
3	0x3f7f6a89	0.99771935
4	0xbca03633	-0.019557094
5	0x3c0e1dcf	0.008674099
6	0xbe2ac95d	-0.16678376
7	0xbe2b3cec	-0.16722459
8	0x3f1480b8	0.5800891
9	0xbf1d98d7	-0.6156134
10	0xbd544ced	-0.051831175
11	0x3e810c3c	0.25204647
12	0xbd9678f2	-0.07347287
13	0xbf38e8a2	-0.7222997
14	0x3eb90448	0.3613608
15	0xc011e1b2	-2.2794003
16	0x3eee2c09	0.4651797
17	0x3f5f4123	0.87208766
18	0xbea65968	-0.32490087
19	0x3dd4b0ad	0.10385261
20	0xbe5c9c33	-0.2154396
21	0x3f049fd7	0.51806396
22	0xbe847df3	-0.25877342
23	0xbf0c9801	-0.5491944
24	0x3ed5427c	0.41652286
25	0xbd4c7a6b	-0.049921434
26	0x3f311039	0.6916538
27	0xbcf45c15	-0.029829064
28	0x3e720bdb	0.23637335
29	0xbf2ebc91	-0.6825648
30	0x3ec3fa3d	0.38276854
31	0xbd9f0511	-0.07764638
32	0xbe986497	-0.29764244
33	0xbea0df83	-0.31420526
34	0x3e043e70	0.12914443
35	0xbd2e9127	-0.042618897
36	0x3df3d69b	0.11906167
37	0x3e62b0de	0.22137782
38	0xbdea3eb1	-0.11437739
39	0x3dd36aa4	0.103230745
40	0x3ea125e3	0.31474218
41	0x3eef7aec	0.4677347
42	0x3dd22744	0.102613956
43	0x3c1a7aec	0.009428721
44	0xbdd831ad	-0.1055635
45	0xbbe599c3	-0.007006855
46	0xbda95b45	-0.082693614
47	0x3d2f3e78	0.042784184
48	0x3c887c94	0.016660966
49	0xbc82d61e	-0.01597124
50	0x3c9f87ad	0.019473875
51	0x3c9fa6c7	0.019488705
52	0x3d93be5f	0.07214045
53	0xbd0db0e1	-0.034592513
54	0xbe3570fd	-0.17718883
55	0x3c1d3627	0.00959543
56	0x3d70c5f1	0.05878252
57	0xbe16daad	-0.14731856
58	0x3dd25a40	0.1027112
59	0xbcabbfbd	-0.020965451
60	0x3cd14915	0.025547544
61	0x3c6b542a	0.014363328
62	0xbd81236f	-0.063055865
63	0x3d706d30	0.05869788
64	0xbc124664	-0.008927915
65	0x3d4ff838	0.05077383
66	0xbd7f44b1	-0.06232137
67	0x3ebb928a	0.36635238
68	0xbdaa1f16	-0.083067104
69	0x3eadd002	0.3394776
70	0x3c393ea2	0.011306437
71	0x3d0796f7	0.033102956
72	0x3e704314	0.23463088
73	0xbe82f83a	-0.25580007
74	0x3f0bd801	0.5462647
75	0xbdfdcb64	-0.12392309
76	0x3ccb220d	0.02479651
77	0x3caea5a9	0.021319227
78	0xbf2e2eb3	-0.6804001
79	0x3b202bec	0.0024440242
80	0x3f94ff6e	1.1640451
81	0xbe4ba059	-0.19885387
82	0xbda4f6c9	-0.08054883
83	0x3cf665d7	0.030077858
84	0x3c635cec	0.013877135
85	0xbe0f92bd	-0.1402082
86	0x3d8aaff6	0.06771843
87	0xbdd435dc	-0.10361835
88	0x3e5f5ebb	0.2181348
89	0xbd486789	-0.048926864
90	0xbdf3e2da	-0.11908503
91	0x3d8e96b4	0.06962338
92	0x3dacd99f	0.084399454
93	0xbe5caa34	-0.21549302
94	0x3e8321f5	0.25611845
95	0x3e53cdce	0.20683977
96	0xbe755d5a	-0.23961392
97	0x3e0ff4a9	0.14058174
98	0xbdfcd49c	-0.123452395
99	0xbd6d52f4	-0.05794044
100	0x3d4c8579	0.049931977
101	0xbe8cbe1b	-0.2748879
102	0xbd10a114	-0.035309866
103	0xbf016f8b	-0.50560826
104	0x3e81055f	0.2519941
105	0xbf032890	-0.5123377
106	0x3ca37883	0.019954925
107	0x3d8bf00d	0.068328954
108	0x3daf8705	0.08570675
109	0xbe05d374	-0.13068944
110	0xbe221332	-0.15827635
111	0x3ebc8ccb	0.36826167
112	0xbe4021f1	-0.18762948
113	0xbd638eab	-0.05555598
114	0x3ed4f7ed	0.41595402
115	0xbefb3244	-0.49061787
116	0xbf3ea956	-0.74477136
117	0xbf20ab70	-0.6276159
118	0x3eafee98	0.3436172
119	0x3df2abf4	0.11849204
120	0xbf213cce	-0.62983406
121	0xbf1e0554	-0.6172688
122	0x3e060e2c	0.13091344
123	0xbf9855f0	-1.1901226
124	0x3e7b96fa	0.24569312
125	0x400bebe8	2.1862736
126	0xbf127691	-0.5721217
127	0xbdf404ea	-0.11915
128	0xbdfb284a	-0.12263544
129	0xbf88ce2b	-1.0687917
130	0x3e22fca9	0.15916695
131	0x3f30e76f	0.6910314
132	0x3d74edf4	0.059797242
133	0xbe3c2ae6	-0.1837574
134	0x3e25c9f7	0.16190325
135	0xbc749cb3	-0.014929938
136	0xbe8a600a	-0.27026397
137	0xbef66305	-0.4812242
138	0xbd81174f	-0.06303274
139	0xbe491c38	-0.19639671
140	0x3a45240e	0.0007520326
141	0xbf034f05	-0.5129245
142	0x3f14f590	0.581872
143	0xbd3ec00f	-0.04656988
144	0x3e18f723	0.14938025
145	0xbe0447e9	-0.12918057
146	0xbe218ef2	-0.15777186
147	0xbe994807	-0.29937765
148	0x3fb266fa	1.3937676
149	0xbef12b02	-0.47103125
150	0xbea807a4	-0.3281833
151	0x3e8b8a06	0.2725374
152	0x3ee66d67	0.45005342
153	0xbf250d71	-0.64473635
154	0xbfd1adb7	-1.6381139
155	0x3f25e6f7	0.6480555
156	0x3f3d6861	0.73987395
157	0x3eda222b	0.42604193
158	0x3e6fae59	0.23406352
159	0xbf383ecd	-0.71970826
160	0x3e858a42	0.26082045
161	0xbf0058d4	-0.5013554
162	0xbf5e6053	-0.8686573
163	0xbdbcfd6e	-0.092280254
164	0x3f09813d	0.53712827
165	0xbe80bf2f	-0.25145862
166	0x3e9d0517	0.30667946
167	0xbde38d36	-0.11110918
168	0x3dcaeadf	0.09908079
169	0x3f9083cb	1.129022
170	0xbe5d9825	-0.2164007
171	0x3d9a54c3	0.07535698
172	0x3da46974	0.08027926
173	0x3dc809d2	0.09767498
174	0xbd9ffb8c	-0.07811651
175	0x3f15d7b0	0.5853224
176	0xbeb2857d	-0.34867468
177	0x3e8c15e0	0.2736044
178	0xbd8ad74f	-0.06779348
179	0xbe8e94d4	-0.27847922
180	0x3e8a5d30	0.2702422
181	0x3e04d829	0.12973084
182	0x3d58215d	0.052766193
183	0xbf26b3d1	-0.6511813
184	0x3ee41255	0.44545236
185	0x3ec9866b	0.39360365
186	0x3eb788a4	0.35846436
187	0x3d41657c	0.047215924
188	0x3f20c6ee	0.6280354
189	0x3dcb0116	0.099123165
190	0x3de75a95	0.11296574
191	0xbd5c2b8f	-0.05375248
192	0xbd7eddf7	-0.0622234
193	0x3e69270c	0.22768801
194	0xbe18e4bd	-0.14931007
195	0x3c14604e	0.009056164
196	0xbd6b7586	-0.057485126
197	0xbdbec20f	-0.093143575
198	0x3dcb825d	0.09936974
199	0x3d37660b	0.04477505
200	0x3dd5798a	0.10423572
201	0xb9ada50a	-0.00033120095
202	0x3d812364	0.06305578
203	0x3daa960a	0.08329399
204	0xbd9f626c	-0.07782444
205	0xbe0ebd62	-0.13939431
206	0xbc01313e	-0.007885275
207	0x3d2833b1	0.04106492
208	0xbd2cf0c0	-0.042221785
209	0x3cfbba72	0.030728552
210	0x3dd17e8d	0.10229216
211	0xbe8360e6	-0.25659865
212	0x3e29a11f	0.16565369
213	0xbe5570aa	-0.20843759
214	0x3dc751a2	0.09732367
215	0x3bd60b3c	0.006532101
216	0x3e0addd1	0.13561179
217	0xbdc505b4	-0.096202284
218	0xbf20199f	-0.62539095
219	0xbe1e59eb	-0.15463988
220	0xbee1fddd	-0.44138995
221	0xbecd6205	-0.40113845
222	0xbd8f93d2	-0.07010616
223	0xbce750f3	-0.028236842
224	0x3e0f11b8	0.13971603
225	0xbce692d9	-0.028146194
226	0x3d05180f	0.032493647
227	0xbc2b8640	-0.010469019
228	0xbca249e3	-0.019810623
229	0x3e0574d3	0.13032846
230	0xbceb3fed	-0.028717006
231	0x3c7efc52	0.015563088
232	0xbd147e24	-0.03625311
233	0xbb6142a1	-0.003437199
234	0x3db0af46	0.08627181
235	0xbb6abf28	-0.0035819504
236	0x3ad156af	0.0015971268
237	0x3cc98a0d	0.02460196
238	0xbd265222	-0.04060567
239	0xbc90224a	-0.017594475
240	0xb7a9383e	-2.017256e-05
241	0x3ce4db67	0.02793665
242	0x3ca80747	0.020511283
243	0xbd3cc7f8	-0.046089143
244	0xbd11aab9	-0.035563204
245	0x3da4b0b7	0.08041518
246	0x3a508347	0.0007954132
247	0xbdd2a261	-0.102848776
248	0x3cf25548	0.02958168
249	0xbd294c09	-0.04133228
250	0x3ca73cd4	0.020414747
251	0x3d6007e9	0.054695044
252	0x3e77ee78	0.24212062
253	0x3e855c57	0.26047012
254	0xbcd67f11	-0.026183637
255	0xbe870326	-0.2636959

feats.0.ccm.ccm.0.weight f4 [72, 36, 3, 3]
0	0x3cecf731	0.028926464
1	0x3ce4a349	0.027909892
2	0xbca70155	-0.020386377
3	0xbe4b24e7	-0.19838296
4	0xbdb06743	-0.086134456
5	0x3e0c1495	0.13679726
6	0x3d7558b6	0.059899054
7	0xbd395bf4	-0.04525371
8	0x3ccf585b	0.025310686
9	0x3e1e327b	0.15448944
10	0x3e4e9c7b	0.2017688
11	0x3e55b396	0.20869288
12	0x3e04c56b	0.12965934
13	0xbd9736e5	-0.07383517
14	0x3c8a6dec	0.016898118
15	0xbdaf3039	-0.085541196
16	0x3d4f6abe	0.050638907
17	0xbd5ec57b	-0.05438755
18	0x3e8cdc13	0.27511653
19	0x3e859f70	0.26098204
20	0x3e3c8ed9	0.18413867
21	0x3eaf4fd7	0.342406
22	0x3e651776	0.22372231
23	0x3e5d949e	0.21638724
24	0x3e93710c	0.28797185
25	0x3f0d17d1	0.55114466
26	0x3eab3e86	0.3344614
27	0xbed844ee	-0.4224009
28	0xbe521a96	-0.20517954
29	0xbe663aff	-0.22483443
30	0xbe463b63	-0.19358592
31	0x3e964a33	0.29353485
32	0xbe8eaeaf	-0.27867648
33	0xbeaa3b13	-0.33248195
34	0xbe290f33	-0.16509704
35	0xbe50a22e	-0.20374367
36	0xbef2bdb7	-0.47410366
37	0xbf33a259	-0.701696
38	0xbef71b00	-0.48262787
39	0xbf4b5c09	-0.7943731
40	0xbf6e49a4	-0.93081117
41	0xbf41c248	-0.75687075
42	0xbee5177e	-0.44744486
43	0xbf457413	-0.7713024
44	0xbf0aba14	-0.5419018
45	0x3df2d660	0.11857295
46	0x3e65c99d	0.2244019
47	0x3dba88c1	0.09108115
48	0x3f0808cf	0.5313844
49	0x3ee96e50	0.45591974
50	0x3e9d5d6a	0.30735332
51	0x3e72edb5	0.2372349
52	0x3e9db61a	0.30802995
53	0x3e1c12f9	0.15241612
54	0x3d48c579	0.04901645
55	0x3dccb91f	0.099962465
56	0xbd050f65	-0.032485384
57	0x3e31e87e	0.17373845
58	0x3e39106a	0.18072668
59	0xbe341cda	-0.17589131
60	0x3d75cfd8	0.06001267
61	0xbd8a1143	-0.06741574
62	0x3ad077a2	0.0015904794
63	0x3c6c0694	0.014405865
64	0x3d1b9926	0.03798785
65	0x3db9d2cb	0.09073409
66	0xbe0ced34	-0.13762361
67	0xbb8cb4c6	-0.004294011
68	0x3d7c5d7d	0.061612595
69	0x3df2dc69	0.11858446
70	0xbcf40da5	-0.029791662
71	0x3e09a90f	0.13443397
72	0xbe9120a6	-0.2834522
73	0xbc70e2f1	-0.014702545
74	0xbe69c78f	-0.22830032
75	0x3d98eda6	0.07467203
76	0xbf4662aa	-0.774943
77	0xbe228a58	-0.15873086
78	0xbeaa1294	-0.332173
79	0x3d465bf1	0.048427526
80	0xbe3c24c7	-0.18373404
81	0xbea2e7b5	-0.31817403
82	0xbcef57c0	-0.029216647
83	0xbe3cdd4f	-0.18443798
84	0xbe2551f1	-0.1614454
85	0xbe70eb81	-0.23527338
86	0x3b95e271	0.004574113
87	0xbe2cb336	-0.16865239
88	0xbd457f68	-0.048217207
89	0xbd941988	-0.07231432
90	0xbbed1e09	-0.0072362465
91	0x3e5abf5e	0.21362063
92	0xbca59315	-0.020211736
93	0xbc137338	-0.008999638
94	0x3f026554	0.50935864
95	0x3e2700f7	0.16308962
96	0xbe57378f	-0.21017288
97	0x3b87f1a1	0.0041486775
98	0xbe0fbefd	-0.140377
99	0xbce8760e	-0.028376605
100	0x3e785010	0.24249291
101	0x3dbbe681	0.091748245
102	0x3e9af86f	0.30267665
103	0x3ed458f7	0.41474125
104	0x3d55f9be	0.052240126
105	0x3e9c0a54	0.3047663
106	0xbdf4b21a	-0.11948033
107	0x3d8997a8	0.06718379
108	0x3e47bdc4	0.19505984
109	0x3eb5b934	0.3549286
110	0x3e33c631	0.17556073
111	0x3e8fd066	0.28088683
112	0x3e4020a3	0.1876245
113	0x3e978a13	0.2959753
114	0x3d5772c0	0.05259967
115	0x3f101f45	0.56297714
116	0x3e9ad4b7	0.30240414
117	0x3ef255e4	0.47331154
118	0x3d5a45c7	0.0532892
119	0x3ea88547	0.32914183
120	0x3e0f34f2	0.13985041
121	0x3eb617a8	0.35564923
122	0x3e111b89	0.1417066
123	0x3ebfae53	0.37437686
124	0xbd9a4489	-0.07532603
125	0x3e9b16d5	0.30290857
126	0xbf03ff31	-0.51561266
127	0xbea681a9	-0.32520798
128	0xbed21e9f	-0.41038987
129	0xbf07c3f3	-0.5303337
130	0x3d48be00	0.049009323
131	0xbeba6aad	-0.36409512
132	0xbef39a49	-0.47578648
133	0xbed0021e	-0.40626615
134	0xbf1c3c61	-0.6102963
135	0xbebc437c	-0.36770236
136	0xbeab53f4	-0.3346249
137	0xbeb40d4a	-0.3516639
138	0x3c43bacb	0.01194639
139	0xbef2adfa	-0.4739836
140	0xbe9df4a0	-0.30850697
141	0xbeb66e29	-0.3563092
142	0xbe9f38d8	-0.31098056
143	0xbe87f57e	-0.26554483
144	0xbe16a7ae	-0.14712402
145	0xbe98517c	-0.29749668
146	0xbe1ccc62	-0.15312341
147	0xbe26ad67	-0.16277085
148	0xbe8ab4a9	-0.27090958
149	0xbe66fc76	-0.22557244
150	0xbe00167e	-0.1250858
151	0xbe70eca8	-0.23527777
152	0xbe060f58	-0.1309179
153	0x3ea8e66f	0.32988307
154	0xbdacaa0e	-0.08430873
155	0xbe72dbad	-0.23716612
156	0x3cd83ab5	0.026395181
157	0x3eb779ce	0.35835117
158	0xbe621882	-0.22079661
159	0x3de20a06	0.11037068
160	0xbe23dde8	-0.1600262
161	0xbe5a0834	-0.21292192
162	0xbeda7636	-0.42668313
163	0xbee35dca	-0.44407493
164	0xbe6b4957	-0.22977196
165	0xbeb6d7d4	-0.3571154
166	0xbec0a5f0	-0.376266
167	0xbdad808b	-0.08471783
168	0xbed9a4b7	-0.4250848
169	0xbe917580	-0.28409958
170	0xbe8082f5	-0.25099912
171	0x3dfb1732	0.122602835
172	0xbe29a5de	-0.1656718
173	0xbcf7d7ba	-0.030254234
174	0xbe96d0e9	-0.2945626
175	0xbee808e9	-0.45319298
176	0xbe58881b	-0.2114567
177	0x3e0d4ec4	0.13799578
178	0xbe33801f	-0.17529343
179	0x3d2df3db	0.042468887
180	0xbe1c6437	-0.15272604
181	0x3f0b87d4	0.5450413
182	0x3ea758d8	0.3268497
183	0x3d450a05	0.04810526
184	0x3ead1cf1	0.33811143
185	0x3dac96d3	0.08427205
186	0x3c9d7578	0.019221053
187	0xbe05c7c5	-0.13064487
188	0xbd518a98	-0.051157564
189	0x3e21160c	0.15731066
190	0x3e942e58	0.28941607
191	0x3e2da8e1	0.16958953
192	0x3def05bc	0.116710156
193	0xbf86975e	-1.0514944
194	0x3ebf7e30	0.3740096
195	0x3d615a3b	0.05501769
196	0x3ecf03cb	0.4043258
197	0x3e28eb66	0.16496047
198	0xbdb9035d	-0.090338446
199	0x3e6c0421	0.2304845
200	0xbdd9da2b	-0.10637315
201	0x3bdc75ce	0.0067279106
202	0x3f4bcb59	0.7960716
203	0x3dc521ab	0.09625562
204	0xbe2cadbc	-0.1686315
205	0x3d7f379e	0.0623089
206	0xbe25a898	-0.16177595
207	0x3d9c1830	0.07621801
208	0xbea64598	-0.3247497
209	0x3c9177e4	0.017757364
210	0xbdd4ec8c	-0.1039668
211	0xbf8d7722	-1.1051981
212	0xbe314f2e	-0.17315361
213	0x3b8ab0e9	0.004232515
214	0xbe0287f6	-0.12747177
215	0x3dfc709d	0.12326167
216	0xbc3dcb71	-0.011584149
217	0x3dfa8064	0.1223152
218	0x3dc7c85e	0.09755014
219	0xbc6794b7	-0.0141345775
220	0xbdd03455	-0.101662315
221	0x3d4c5f7f	0.04989576
222	0x3d4046d8	0.046942562
223	0x3dcf7c0f	0.10131084
224	0x3e394b15	0.18095048
225	0x3e418324	0.18897682
226	0x3e4c758a	0.19966713
227	0x3e8ade8c	0.27122915
228	0xbe0d796d	-0.13815852
229	0x3f1bd9da	0.6087929
230	0x3ea8c3c2	0.3296185
231	0x3e76741d	0.24067731
232	0x3e6e213a	0.23254862
233	0x3e80a851	0.25128415
234	0xba941aab	-0.0011299452
235	0x3da8e2bc	0.08246371
236	0x3dabaac2	0.08382179
237	0xbdc557f8	-0.09635919
238	0x3f0913d5	0.53545886
239	0xbcbed297	-0.023293776
240	0xbd82918f	-0.06375419
241	0xbe3742a9	-0.17896523
242	0xbd9bade9	-0.0760153
243	0x3de9fecf	0.11425554
244	0x3d590002	0.052978523
245	0x3d449d5c	0.048001632
246	0xbdba6c2a	-0.09102662
247	0xbf5ac0b1	-0.85450274
248	0x3d98e05d	0.07464669
249	0x3e28df30	0.1649139
250	0x3d095525	0.033528466
251	0x3e3b1d06	0.1827279
252	0xbccd3052	-0.025047455
253	0x3e9cea1e	0.30647367
254	0x3e985393	0.29751262
255	0xbebd8f72	-0.37023503

feats.0.ccm.ccm.2.weight f4 [36, 72, 1, 1]
0	0x3e2a2cf5	0.16618712
1	0x3c8a3e40	0.016875386
2	0x3cc8eb24	0.024526186
3	0xbdd196bb	-0.10233828
4	0xbdd90ea4	-0.105984956
5	0xbb10ca19	-0.0022093116
6	0xbd9561e9	-0.072940655
7	0x3d00cebc	0.031447157
8	0x3f0af6ec	0.5428302
9	0x3d28f4c9	0.04124907
10	0x3db2a375	0.08722583
11	0x3df67b9e	0.12035297
12	0xbc908368	-0.017640784
13	0x3bb6f83e	0.005583792
14	0x3df64d5e	0.12026475
15	0xbbb56171	-0.0055352976
16	0x3d0f5314	0.03499134
17	0x3dfbf405	0.123024024
18	0x3d6da12a	0.058015026
19	0xbd55d1f1	-0.05220217
20	0xbc12176b	-0.008916716
21	0xbdb0b780	-0.0862875
22	0x3da073b9	0.07834572
23	0xbe5b1240	-0.2139368
24	0xbd73f3d2	-0.059558697
25	0xbe0ecc16	-0.1394504
26	0x3da0790b	0.07835587
27	0xbd44f1f2	-0.0480823
28	0xbd08dea1	-0.03341544
29	0xbd945cd1	-0.07244266
30	0x3e2dbbfe	0.16966245
31	0x3c1b6b7d	0.009486076
32	0xbda7d7ea	-0.08195479
33	0x3d051310	0.032488883
34	0xbdef1e2b	-0.11675676
35	0xbc4971f4	-0.012295235
36	0xbf92577f	-1.1432952
37	0xbcccefcd	-0.02501669
38	0x3ca58646	0.020205628
39	0xbcdb8970	-0.026798934
40	0xbe58e090	-0.21179414
41	0xbd24a8de	-0.040200107
42	0x3d47f0e1	0.048813704
43	0x3d2c7b23	0.04210962
44	0x3e323154	0.1740163
45	0x3d4ff124	0.05076708
46	0xbcdc2973	-0.026875233
47	0x3aa9d460	0.001295697
48	0x3dea62f4	0.11444655
49	0xbb2c6fa6	-0.0026311665
50	0xbd2bd927	-0.04195514
51	0xbb235773	-0.002492395
52	0xbe06dc21	-0.1316991
53	0x3c51c7bf	0.012803971
54	0x3d355bf6	0.044277154
55	0x3dcd39a7	0.10020762
56	0x3cfc9201	0.030831339
57	0x3d163190	0.03666836
58	0x3c91b6a0	0.017787278
59	0xbdc4bbe0	-0.09606147
60	0x3d6d66b3	0.05795927
61	0x3c8756f2	0.016520951
62	0x3d451b3c	0.048121676
63	0x3c6e0239	0.014526897
64	0x3da512f3	0.08060255
65	0x3ba6fcaf	0.00509604
66	0x3dd0a80f	0.10188305
67	0xbbeacd1a	-0.0071655633
68	0xbdc30c51	-0.095238335
69	0x3e5dfd20	0.21678591
70	0xbdc3a019	-0.095520206
71	0xbd681126	-0.05665698
72	0x3d7b1ba0	0.061305642
73	0x3dde95f0	0.10868442
74	0xbd74d689	-0.05977491
75	0x3de2f67e	0.11082171
76	0xbd9c8881	-0.076432236
77	0x3df73dfe	0.12072371
78	0xbda6ffa6	-0.0815423
79	0xbe131129	-0.14362015
80	0xbe9956e7	-0.29949114
81	0xbe09e784	-0.13467222
82	0xbcfd1213	-0.030892408
83	0x3cf9f577	0.030512555
84	0x3e2ab9e1	0.1667247
85	0x3c18ee17	0.009334109
86	0xbe274830	-0.16336131
87	0x3e340fe0	0.17584181
88	0x3d8466ab	0.06464895
89	0x3e136a57	0.14396034
90	0x3d40025f	0.04687726
91	0x3e25bb16	0.16184649
92	0xbc184f12	-0.009296196
93	0xbd01fa1c	-0.031732664
94	0xbdfc07c8	-0.12306172
95	0xbca1d32e	-0.019754019
96	0x3d3f10ba	0.04664681
97	0xbd5397f6	-0.051658593
98	0x3d69a026	0.057037495
99	0x3c589a4b	0.01322038
100	0x3cb66f30	0.022269815
101	0x3ddcb8d8	0.10777444
102	0xbe7c155e	-0.24617526
103	0xbcbabe67	-0.022795869
104	0x3d1fcde1	0.0390147
105	0x3cad802e	0.021179285
106	0x3cde2ca3	0.027120894
107	0x3b0db85b	0.0021624777
108	0xbeb3715a	-0.35047418
109	0xbcc6c6b4	-0.02426467
110	0x3dee0ee6	0.116239354
111	0xbd6e939c	-0.05824624
112	0xbd6fb398	-0.058520883
113	0xbdb2ea3f	-0.08736085
114	0x3d93894c	0.07203922
115	0xbe1dac02	-0.15397647
116	0x3ca804c8	0.020510092
117	0xbc917571	-0.017756196
118	0xbda795a0	-0.081828356
119	0xbdb88f09	-0.09011657
120	0x3d02bd01	0.03191853
121	0x3dcf056c	0.10108456
122	0xbc1a0e9e	-0.009402899
123	0x3de143e2	0.10999276
124	0xbaffb616	-0.0019509222
125	0xbe0b51cd	-0.13605423
126	0x3d7ed166	0.062211417
127	0x3ccbb724	0.024867602
128	0x3cca0460	0.02466029
129	0x3ddcf9f6	0.10789864
130	0xbddd9037	-0.108185224
131	0xbe39e866	-0.18155059
132	0xbd946d9b	-0.07247468
133	0xbcfb9dba	-0.030714858
134	0x3a735dff	0.0009283721
135	0xbda701a5	-0.081546105
136	0x3d4a9836	0.049461566
137	0xbd858275	-0.06519023
138	0x3c6fbf0c	0.0146329515
139	0xbe146583	-0.14491849
140	0x3e33778c	0.17526072
141	0xbe969d1e	-0.29416746
142	0x3dcbfdc7	0.099605136
143	0xbe1012a8	-0.14069617
144	0xbdff3d01	-0.124628074
145	0x3d952527	0.07282477
146	0xbcc381da	-0.023865629
147	0x3ceefd72	0.029173587
148	0x3d7c20e7	0.061554816
149	0xbd1d1029	-0.03834549
150	0xbcfc22cb	-0.03077831
151	0x3c904429	0.017610626
152	0x3d956272	0.072941676
153	0xbc667f4f	-0.014068439
154	0x3bb8a6bd	0.005635111
155	0x3e28c1ca	0.16480175
156	0xbda77e37	-0.081783704
157	0xbc634516	-0.013871452
158	0xbdc7c322	-0.097540155
159	0x3df40bda	0.11916323
160	0xbe2cbb00	-0.1686821
161	0x3c94be04	0.018157013
162	0xbdb38bd1	-0.08766902
163	0x3de4952c	0.11161265
164	0xba09d1b6	-0.00052573846
165	0xbd8e19a6	-0.06938486
166	0x3d00f3d8	0.031482548
167	0xbd6b7f22	-0.05749429
168	0x3d7b210f	0.061310824
169	0xbdcb9f57	-0.09942501
170	0x3e150b95	0.145552
171	0xbc8ab2d4	-0.016930975
172	0xbd37bb6f	-0.044856485
173	0xbd4ceb3d	-0.05002903
174	0x3cd1b2f4	0.025598027
175	0xbe085b8c	-0.13316172
176	0xbbe8454c	-0.007088339
177	0x3e92d780	0.28680038
178	0x3cea62dd	0.028611595
179	0xbaad4a28	-0.0013220953
180	0xbe5ac714	-0.21365005
181	0xbd1c78a4	-0.03820099
182	0xbc5478e0	-0.012968272
183	0xbda019b2	-0.07817401
184	0xbdcb3c18	-0.09923571
185	0x3d6219c0	0.05520034
186	0x3dbb169e	0.09135173
187	0x3d0728a2	0.032997735
188	0xbe893cb2	-0.2680412
189	0xbc41aff9	-0.01182174
190	0xbba7d9be	-0.0051223924
191	0x3b20e886	0.0024552657
192	0xbd42237a	-0.047397114
193	0x3d8dd374	0.06925097
194	0xbd8ad2e5	-0.06778506
195	0x3e6ef6db	0.23336355
196	0x3e0bee35	0.13665088
197	0xbc818162	-0.015808765
198	0x3bebcdda	0.0071961703
199	0x3c6d53a8	0.014485277
200	0x3d1e1ac0	0.03859973
201	0x3b9877f8	0.0046529733
202	0xbc9e24c3	-0.019304639
203	0x3da57fe5	0.080810346
204	0x3e0e71bb	0.13910572
205	0xbe147fd8	-0.14501894
206	0x3bfd5ad4	0.007731775
207	0x3abfe65b	0.0014640795
208	0xbd4655ac	-0.048421547
209	0x3d9a1741	0.075239666
210	0xbb4f8e2f	-0.0031670441
211	0xbdde5c19	-0.1085741
212	0x3c04b1a1	0.008098991
213	0x3ecf0986	0.40436953
214	0x3eb4b395	0.3529326
215	0xbdf629b0	-0.1201967
216	0xbdaf54dc	-0.085611075
217	0xbd2a8c13	-0.04163749
218	0xbe29036c	-0.16505212
219	0x3ee5935e	0.44838995
220	0xbd470d5b	-0.04859672
221	0xbc830ffd	-0.015998835
222	0x3b9c7242	0.004774363
223	0xbccbd29b	-0.024880698
224	0xbeab13b4	-0.3341347
225	0x3d7dd06d	0.06196635
226	0x3b09ea77	0.0021044293
227	0xbd2c3d7b	-0.04205082
228	0xbba42882	-0.0050097117
229	0xbbec1777	-0.0072049457
230	0xbdb84582	-0.089976326
231	0x3e4fed75	0.20305426
232	0x3e48562e	0.19564125
233	0xbe71c90e	-0.23611853
234	0xbca6e2ff	-0.020371912
235	0x3eab34f8	0.3343885
236	0x3b82bba1	0.0039896523
237	0x3bec3f42	0.0072096894
238	0xbca19783	-0.019725567
239	0x3c633eb6	0.013869932
240	0xbd92e44a	-0.07172449
241	0x3dfc867d	0.12330339
242	0xbdfd2c7d	-0.12362001
243	0x3e1d0b62	0.15336373
244	0x3e2fcd97	0.1716827
245	0xbd864364	-0.065558225
246	0x3d1fac88	0.038982898
247	0xbd1f5900	-0.038903236
248	0x3b119ec2	0.0022219871
249	0xbdf91932	-0.12163009
250	0xbcabb0ac	-0.020958267
251	0xbcc22db1	-0.023703428
252	0xbf694412	-0.9111949
253	0xbb38f621	-0.0028222876
254	0xbd29c795	-0.041450102
255	0xbe3429fb	-0.1759414

feats.1.safm.mfr.0.weight f4 [9, 1, 3, 3]
0	0xbd06b87e	-0.03289079
1	0x3ea2a589	0.31766918
2	0x3e838848	0.25689912
3	0x3ed495f6	0.4152066
4	0x4000b93d	2.011306
5	0x3fa2054e	1.2657869
6	0x3d971bb0	0.07378328
7	0x3ed384f6	0.4131238
8	0x3ed510fc	0.4161452
9	0x3bb09598	0.0053889267
10	0xbe570ac0	-0.21000195
11	0xbd50187a	-0.050804593
12	0x3cd9f5da	0.026606489
13	0xbf93b14a	-1.1538479
14	0xbd443a99	-0.047907446
15	0xbdb97335	-0.09055177
16	0xbe880ede	-0.26573843
17	0xbddf3325	-0.10898427
18	0xbcbf2f04	-0.023337848
19	0xbf0aaf5b	-0.5417382
20	0xbd4d0133	-0.05004997
21	0xbf002a08	-0.50064135
22	0xbfad1caa	-1.3524373
23	0xbf107b19	-0.5643783
24	0xbd45a446	-0.048252366
25	0xbed74e47	-0.42051908
26	0xbb45e91a	-0.0030198754
27	0x3d350d18	0.04420194
28	0x3ec441a8	0.38331342
29	0x3d8e599e	0.06950687
30	0x3ec0c66a	0.37651378
31	0x3f80dec8	1.0067987
32	0x3eaae175	0.33375135
33	0x3d1503ba	0.036380507
34	0x3e9f8260	0.31154156
35	0x3c10f630	0.008847758
36	0x3f08b2ea	0.53398
37	0x3f774773	0.965934
38	0x3e91949b	0.2843369
39	0x3f78cc21	0.97186476
40	0x3ff9b390	1.9507923
41	0x3f353b81	0.7079392
42	0x3edb1bce	0.4279465
43	0x3f038deb	0.51388425
44	0x3e826011	0.25463918
45	0x3dabe958	0.08394116
46	0x3ed9ce49	0.42540196
47	0x3e2fa86c	0.17154092
48	0x3eb5a72b	0.35479102
49	0x3ff2e788	1.8976908
50	0x3ee800b6	0.45313042
51	0x3d52825b	0.051393848
52	0x3edf0984	0.43561947
53	0x3d35f55d	0.04442345
54	0x3d8bcf6c	0.06826672
55	0x3d941dc4	0.0723224
56	0x3c12bd20	0.008956224
57	0x3e63b758	0.22237909
58	0xbf4f14c7	-0.8089108
59	0x3e2e4578	0.17018688
60	0x3ddc18b0	0.10746896
61	0x3e4d98bb	0.20077793
62	0x3d5c3b6d	0.05376761
63	0x3dae2395	0.085028805
64	0xbedc6424	-0.4304515
65	0x3d35743a	0.044300295
66	0xbf0f9f0c	-0.5610206
67	0xc090b0b3	-4.5215697
68	0xbf005794	-0.50133634
69	0xbd329d39	-0.04360697
70	0xbe648c0b	-0.22319047
71	0x3c342f03	0.010997537
72	0x3dbf8b89	0.09352786
73	0x3d1b19f1	0.037866537
74	0x3d724499	0.05914745
75	0xbd473bab	-0.04864089
76	0xc052c587	-3.293306
77	0x3c9d004c	0.01916518
78	0x3d8ec805	0.069717444
79	0xbd58037c	-0.052737698
80	0x3dc9a8a0	0.09846616

feats.1.safm.mfr.1.weight f4 [9, 1, 3, 3]
0	0x3e0829db	0.13297217
1	0x3e5c1b6e	0.21494839
2	0x3dcb1864	0.099167615
3	0x3e5d77a9	0.21627678
4	0x3f1fd9db	0.62441796
5	0x3e49adc1	0.19695188
6	0x3dfa4b93	0.12221446
7	0x3e5b3236	0.21405873
8	0x3dd6ff4f	0.10497915
9	0x3f1ce02b	0.61279553
10	0x3f93274c	1.1496367
11	0x3f19eed0	0.60130024
12	0x3f863d8c	1.0487533
13	0x3fdfebac	1.7493796
14	0x3f8c417f	1.0957488
15	0x3f1cfb21	0.6132069
16	0x3f908e76	1.1293476
17	0x3f1fa9a5	0.6236823
18	0x3e33e652	0.17568329
19	0x3f030764	0.5118315
20	0x3e36fc20	0.17869616
21	0x3f05e167	0.5229706
22	0x3f8f3c26	1.1190231
23	0x3f01934d	0.5061539
24	0x3e3782af	0.17920946
25	0x3f07e0eb	0.5307757
26	0x3e3f71df	0.18695782
27	0xbe7eae7c	-0.24871248
28	0xbf00eabd	-0.5035818
29	0xbe6a9248	-0.22907364
30	0xbf07454c	-0.52840114
31	0xbf84e986	-1.0383766
32	0xbf056a60	-0.5211544
33	0xbe885e91	-0.26634648
34	0xbf0941a9	-0.53615814
35	0xbe85a080	-0.26099014
36	0xbdb1023a	-0.08643003
37	0xbeaf0a65	-0.34187618
38	0xbdc0f19b	-0.094210826
39	0xbe9c1d5c	-0.3049115
40	0xbf3909ef	-0.7228078
41	0xbe9cfc8a	-0.30661422
42	0xbde938c7	-0.113877825
43	0xbebf248d	-0.37332574
44	0xbdee4db7	-0.11635917
45	0x3e3ccda8	0.18437827
46	0x3ebe3f31	0.37157586
47	0x3e106537	0.1410111
48	0x3ec05ea7	0.37572214
49	0x3efd9bed	0.49533024
50	0x3eb769f1	0.35823014
51	0x3e3c7ac9	0.18406214
52	0x3eba366a	0.3636964
53	0x3e16e369	0.14735188
54	0x3dff2eeb	0.12460121
55	0x3f2dabdc	0.6784036
56	0x3d9fff14	0.07812324
57	0x3f31782d	0.69324
58	0x3fbe848d	1.4884201
59	0x3f257b2f	0.6464109
60	0x3daec9da	0.08534594
61	0x3f2b99d9	0.6703163
62	0x3dade711	0.08491338
63	0x3e4e5627	0.20150052
64	0x3f09b771	0.53795534
65	0x3e4f7837	0.20260702
66	0x3f03c6ea	0.51475394
67	0x3f7cdd19	0.9877487
68	0x3f05b469	0.5222841
69	0x3e56430e	0.20924017
70	0x3f098ed2	0.5373355
71	0x3e543d51	0.20726515
72	0x3e833235	0.25624242
73	0x3f0bc725	0.54600745
74	0x3e84a3f9	0.2590635
75	0x3f083fbf	0.5322227
76	0x3fa31a90	1.2742481
77	0x3f0b816e	0.5449437
78	0x3e75f82c	0.24020451
79	0x3f083df8	0.53219557
80	0x3e800e5c	0.25010955

feats.1.safm.mfr.2.weight f4 [9, 1, 3, 3]
0	0x3ead6f36	0.3387391
1	0x3f20f59d	0.62874776
2	0x3eb6d798	0.3571136
3	0x3f2a9543	0.66634005
4	0x3f96cf6d	1.1782051
5	0x3f2c601a	0.6733414
6	0x3eaab99e	0.3334474
7	0x3f1abaf0	0.60441494
8	0x3ea724a0	0.3264513
9	0xbea48c73	-0.32138404
10	0xbf57aafe	-0.8424529
11	0xbe88ae5a	-0.2669552
12	0xbf6cf99d	-0.9256838
13	0xbfd54954	-1.6663003
14	0xbf656403	-0.8960573
15	0xbe9f6154	-0.31128943
16	0xbf57b63d	-0.8426245
17	0xbe9a70d8	-0.30164218
18	0xbded8e81	-0.11599446
19	0xbe53f760	-0.20699835
20	0xbdff7f64	-0.1247547
21	0xbe53cd70	-0.20683837
22	0xbe985202	-0.29750067
23	0xbe32bf55	-0.174558
24	0xbe14ac02	-0.14518741
25	0xbe729407	-0.2368928
26	0xbde8ba30	-0.113636374
27	0x3e0ca1a6	0.13733539
28	0x3e4a2043	0.1973887
29	0x3e03aa6f	0.12857984
30	0x3e8fd6ec	0.2809366
31	0x3ed99b04	0.4250108
32	0x3e96c020	0.29443455
33	0x3e0363b9	0.1283101
34	0x3e50f5b1	0.20406224
35	0x3e08dbe0	0.13365126
36	0x3d6e0a0d	0.058115054
37	0x3e1a68f2	0.15079096
38	0x3d67c10e	0.056580596
39	0x3e2b49e0	0.167274
40	0x3eb2f78f	0.34954497
41	0x3e2271ea	0.15863767
42	0x3d740d84	0.059583202
43	0x3e168226	0.14698085
44	0x3d3825d1	0.04495794
45	0xbe58fb38	-0.21189582
46	0xbf0df7da	-0.55456316
47	0xbe55e619	-0.20888557
48	0xbf136d16	-0.57588327
49	0xbf94f3e0	-1.1636925
50	0xbf0bfd49	-0.5468336
51	0xbe5e1d0a	-0.21690765
52	0xbf0df919	-0.5545822
53	0xbe4d6b63	-0.20060496
54	0xbdd0121e	-0.101597056
55	0xbe9ff94e	-0.31244892
56	0xbdbfa460	-0.09357524
57	0xbe911615	-0.2833716
58	0xbfc4abe6	-1.5364959
59	0xbe8e585b	-0.27801785
60	0xbdbb3da2	-0.09142615
61	0xbe98e290	-0.29860353
62	0xbdbf80ce	-0.093507394
63	0xbbfea686	-0.007771316
64	0x3d724965	0.059152026
65	0x3ab6451c	0.0013906094
66	0x3d4c7799	0.049918745
67	0x4039dae7	2.9039857
68	0x3d614b89	0.055003677
69	0xbc515cf2	-0.012778508
70	0x3d1bf94a	0.038079537
71	0xbc8886ce	-0.016665842
72	0x3e936d6e	0.28794426
73	0x3f2f8dbe	0.68575656
74	0x3e9a967d	0.30192938
75	0x3f3306ce	0.6993226
76	0x3ff41978	1.9070272
77	0x3f36d589	0.7141958
78	0x3e965414	0.29361022
79	0x3f320d2a	0.69551337
80	0x3e985690	0.29753542

feats.1.safm.mfr.3.weight f4 [9, 1, 3, 3]
0	0xbe86d641	-0.26335338
1	0xbf1a615c	-0.6030481
2	0xbe89ca9b	-0.26912388
3	0xbf1cd5ff	-0.6126403
4	0xbfc1f3a4	-1.5152478
5	0xbf1af694	-0.605325
6	0xbe8a2ca5	-0.26987186
7	0xbf1a5b19	-0.60295254
8	0xbe8d9ef0	-0.27660322
9	0x3cf63f56	0.030059498
10	0x3da6a6e9	0.08137304
11	0x3d0725f4	0.03299518
12	0x3dab1c86	0.0835505
13	0x3e54b3e2	0.20771745
14	0x3da932ae	0.082616195
15	0x3ce16134	0.02751217
16	0x3daa9bf4	0.08330527
17	0x3cf1bc14	0.029508628
18	0x3eae9ed3	0.34105548
19	0x3f2e06d8	0.6797919
20	0x3eabbec4	0.3354398
21	0x3f2f6624	0.6851523
22	0x3faf9f54	1.3720498
23	0x3f34dc40	0.70648575
24	0x3eabe81d	0.33575526
25	0x3f35707c	0.7087476
26	0x3eb32759	0.34990957
27	0xbdc1558c	-0.09440145
28	0xbe417e61	-0.18895866
29	0xbdb6fa60	-0.08934474
30	0xbe42ea38	-0.1903466
31	0xbe806ccf	-0.25083014
32	0xbe3e9c1a	-0.18614236
33	0xbdca1a4d	-0.09868298
34	0xbe32dfa0	-0.17468119
35	0xbdc8f8eb	-0.09813102
36	0xbe7ac382	-0.24488643
37	0xbf2537d4	-0.6453831
38	0xbe75f0f3	-0.24017696
39	0xbf2269e5	-0.6344283
40	0xbfd3626b	-1.651441
41	0xbf22dba1	-0.6361638
42	0xbe78198a	-0.24228492
43	0xbf20eafe	-0.6285857
44	0xbe779080	-0.24176216
45	0xbdc3927c	-0.09549424
46	0xbe920615	-0.28520265
47	0xbda7db31	-0.08196104
48	0xbe9154b0	-0.28384924
49	0xbf7e0efb	-0.9924161
50	0xbe9526ab	-0.29131064
51	0xbdc5e535	-0.096628584
52	0xbe996b4b	-0.2996467
53	0xbdb36ed1	-0.08761371
54	0xbea6ac7c	-0.3255347
55	0xbf33c993	-0.7022945
56	0xbea6e203	-0.32594308
57	0xbf2fd2d8	-0.686811
58	0xbfed3d4e	-1.8534334
59	0xbf339a80	-0.70157623
60	0xbea3e65f	-0.32011697
61	0xbf2fdb14	-0.6869366
62	0xbea60cf8	-0.3243177
63	0xbed6574b	-0.41863474
64	0xbf7dac2c	-0.9909084
65	0xbedd2ffd	-0.43200675
66	0xbf772014	-0.9653332
67	0xbfed31b7	-1.8530797
68	0xbf80d3cc	-1.0064635
69	0xbecf1c58	-0.40451312
70	0xbf7d38f4	-0.9891503
71	0xbed68c41	-0.4190388
72	0xbda98528	-0.08277351
73	0xbe98aa54	-0.2981745
74	0xbdbf6a36	-0.0934643
75	0xbe97a03f	-0.29614446
76	0xbf81cb4f	-1.014017
77	0xbe92ee39	-0.28697374
78	0xbda899bd	-0.08232448
79	0xbe942b43	-0.28939256
80	0xbdae8555	-0.08521525

feats.1.safm.aggr.weight f4 [36, 36, 1, 1]
0	0x3e927398	0.28603816
1	0x3eceaa53	0.40364322
2	0xbf4ea081	-0.8071366
3	0xbf0de4ff	-0.55427545
4	0x3e04f376	0.12983498
5	0xbeedb2ad	-0.4642538
6	0xbf683f97	-0.9072203
7	0xbd914608	-0.070934355
8	0xc00f281a	-2.2368226
9	0x3edf60c1	0.43628505
10	0x3e70fa78	0.23533046
11	0x3ed5ac46	0.41732997
12	0xbdd1ea22	-0.102497354
13	0xbd849357	-0.06473415
14	0xbdeafddb	-0.114742
15	0x3fd69e4d	1.676706
16	0xbee31946	-0.4435522
17	0xbeaa49e6	-0.33259505
18	0x3da5aa91	0.080891736
19	0x3ef08103	0.46973428
20	0xbbdb3aa7	-0.0066903415
21	0xbead0d78	-0.33799338
22	0xbccf1129	-0.025276737
23	0x3ddb8003	0.10717776
24	0x3eb572e0	0.35439205
25	0xbe21a762	-0.15786508
26	0x379353fe	1.7562877e-05
27	0xbeb032ce	-0.3441376
28	0xbf0f132c	-0.5588863
29	0xbe1352f9	-0.1438712
30	0x3dde233e	0.10846566
31	0xbe944547	-0.28959104
32	0x3c6b3587	0.014356024
33	0x3c82b176	0.01595376
34	0x3eec69fc	0.4617461
35	0x3e9b380a	0.30316192
36	0xbdc7cc6d	-0.09755788
37	0xbda01450	-0.07816374
38	0x3e7b7207	0.24555217
39	0xbde5c489	-0.11219127
40	0xbee79f9a	-0.45238954
41	0xbead1b5b	-0.33809933
42	0xbe3cd40d	-0.18440266
43	0xbdc9eb5a	-0.09859343
44	0xbef63ebf	-0.48094746
45	0xbe06c96b	-0.13162772
46	0x3b86fb97	0.0041193473
47	0xbd8f4ac0	-0.06996679
48	0xbd86bccc	-0.06578979
49	0x3e347196	0.17621455
50	0xbe4b89b0	-0.19876742
51	0x3d1b7e10	0.03796202
52	0x3a8080f8	0.0009804061
53	0x3a3c7f30	0.0007190583
54	0x3db98872	0.09059228
55	0x3cd1f089	0.025627391
56	0x3deeedaa	0.116664246
57	0x3df3a829	0.118973084
58	0x3e0bbd86	0.13646516
59	0x3dde5b61	0.10857273
60	0xbc052a15	-0.008127709
61	0xbbf91464	-0.0076013077
62	0xbd3f04f6	-0.04663559
63	0x3de7ff4f	0.11327993
64	0xbc4a7bf3	-0.012358653
65	0x3e87d136	0.26526803
66	0x3ded8905	0.115984
67	0x3d8b5dba	0.06804986
68	0x3d810311	0.06299413
69	0x3d26fbb3	0.040767383
70	0xbde3ddb1	-0.11126269
71	0x3c6624fd	0.014046905
72	0xbe986052	-0.29760987
73	0xbd68b911	-0.056817118
74	0xbf4aeef9	-0.79270893
75	0xbd855cf3	-0.06511869
76	0x3cfae0ac	0.03062471
77	0x3cc2629c	0.023728661
78	0x3ec5cc45	0.38632408
79	0xbbd63c11	-0.006537922
80	0x3edb61b9	0.42847994
81	0x3bb6ab95	0.0055746534
82	0x3e6973d8	0.22798097
83	0xbf4279f4	-0.75967336
84	0xbd3df079	-0.04637191
85	0xbd88e7ca	-0.06684835
86	0x3d9866f4	0.07441512
87	0xbe3b710e	-0.18304846
88	0x3e901967	0.2814438
89	0x3cb88858	0.022525951
90	0xbd473863	-0.04863776
91	0x3f043495	0.51642734
92	0xbf1a35ca	-0.60238326
93	0x3e4752ce	0.19465181
94	0xbe0c4e65	-0.1370178
95	0xbe868e46	-0.2628042
96	0x3ecc8276	0.39943284
97	0xbd294c02	-0.041332252
98	0x3e801bfd	0.25021353
99	0x3e7aa428	0.24476683
100	0x3e725121	0.2366376
101	0x3f39df9b	0.7260682
102	0xbeb93868	-0.36175847
103	0x3fd770b3	1.6831268
104	0x3e3f14c4	0.18660265
105	0xbd334a47	-0.04377201
106	0xbf9b0907	-1.211213
107	0x3d82ae46	0.06380896
108	0x3cddbdcd	0.027068043
109	0xbef048c5	-0.4693052
110	0xbe3d45d8	-0.18483675
111	0x3f098113	0.53712577
112	0xbf382da5	-0.7194465
113	0x3ceacb34	0.028661348
114	0x3de67c0c	0.11254129
115	0x3d913196	0.07089536
116	0x3faa244e	1.3292329
117	0x3c8734fe	0.01650476
118	0x3f20b517	0.6277632
119	0x3f64a00d	0.8930672
120	0x3f1749e8	0.59097147
121	0xbeabc294	-0.3354689
122	0x3e3ee99f	0.18643807
123	0x3ee48512	0.44632775
124	0xbf1660df	-0.58741564
125	0xbfd2e4a3	-1.6476024
126	0x3e9942ce	0.2993378
127	0xbe87209a	-0.2639206
128	0x3d6ed4ef	0.058308538
129	0x3e1f776b	0.15572898
130	0x3d4c549e	0.049885385
131	0x3e869fbb	0.2629374
132	0x3e698154	0.22803241
133	0xbca85d25	-0.020552227
134	0x3e6dc65e	0.23220202
135	0x40017787	2.0229204
136	0x3f0a94cf	0.54133314
137	0xbf5da5d5	-0.86581165
138	0xbf5eb447	-0.8699383
139	0x3dc1423f	0.094364636
140	0x3e6662da	0.22498646
141	0xbe917877	-0.2841222
142	0xbd97744b	-0.07395228
143	0xbee33dec	-0.4438318
144	0xbe161d5c	-0.14659637
145	0x3f556d23	0.83369654
146	0x3d167ec7	0.036741998
147	0xbe383dbc	-0.179923
148	0xbe110c15	-0.14164765
149	0x3e6d7b72	0.23191622
150	0xbe85725e	-0.26063818
151	0x3bf4d6e6	0.007471907
152	0x3d1115ac	0.03542106
153	0xbf370c99	-0.715036
154	0x3f9c003f	1.2187575
155	0x3f60f1b5	0.87868816
156	0xbe44e24e	-0.19226953
157	0xbe68749b	-0.22700731
158	0xbc6b0a49	-0.014345714
159	0xbe805231	-0.25062707
160	0x3d66475d	0.0562204
161	0x3f09b960	0.53798485
162	0xbe9742bb	-0.295431
163	0xbd7c6395	-0.061618406
164	0x3e4c38e2	0.19943574
165	0xbee6647c	-0.44998538
166	0xbd95f9e0	-0.073230505
167	0xbce824ec	-0.028337918
168	0x3e27d83b	0.16391079
169	0xbcfaecf1	-0.03063056
170	0x3e732d5a	0.23747769
171	0x3f072a21	0.5279866
172	0xbf5818f6	-0.8441309
173	0x3f51a610	0.81894016
174	0x3e07928d	0.13239498
175	0xbe96dae1	-0.29463866
176	0x3f4bc01e	0.7959002
177	0x3e092225	0.13391931
178	0x3d89cb78	0.06728262
179	0x3e5761cf	0.21033405
180	0x3d038fbf	0.03211951
181	0xbe881923	-0.26581678
182	0xbc8f380e	-0.017482784
183	0x3ea8f5bc	0.3299998
184	0xbccc7525	-0.024958203
185	0xbd33316b	-0.0437483
186	0xbed50a99	-0.41609648
187	0xba8f52fb	-0.0010934764
188	0x3f0c0321	0.54692274
189	0xbeb59215	-0.35463014
190	0xbe4eb88c	-0.20187587
191	0x3e19d451	0.15022399
192	0xbd20b5cf	-0.039235886
193	0xbaaf94d9	-0.00133958
194	0xbca52660	-0.0201599
195	0x3ea5058c	0.32230794
196	0xbd7f3546	-0.062306665
197	0x3b929522	0.0044733444
198	0xbd3f50c7	-0.046707895
199	0xbe0c9e2e	-0.13732216
200	0x3e8e3ded	0.2778162
201	0x3dba8cd7	0.09108894
202	0xbd77ee80	-0.060530186
203	0xbd942507	-0.07233625
204	0x3c7dc277	0.015488259
205	0xbe1598e2	-0.14609101
206	0xbe0a2757	-0.1349157
207	0x3e2bf21f	0.1679158
208	0xb9921f44	-0.00027870585
209	0x3dae0291	0.08496583
210	0xbeb7fa9a	-0.3593338
211	0x3e919a20	0.284379
212	0xbdd33986	-0.10313706
213	0x3da89141	0.0823083
214	0xbe6557c4	-0.22396761
215	0xbc9559ca	-0.018231291
216	0xbcb92b27	-0.022603584
217	0xbe10cb0a	-0.14139953
218	0x3db13d3e	0.08654259
219	0x3d1e31a3	0.038621556
220	0xbd0927a3	-0.033485066
221	0xbe141e39	-0.14464654
222	0x3c8688b2	0.016422603
223	0xbbb60b04	-0.0055555124
224	0xbcc63239	-0.02419387
225	0xbcd835da	-0.026392866
226	0x392fad37	0.00016753828
227	0xbc4a6457	-0.012353024
228	0x3d07a521	0.033116464
229	0xbcf2ddb6	-0.029646736
230	0x3cf664fc	0.03007745
231	0xbc2c4700	-0.010514975
232	0x3c0e6135	0.008690168
233	0xbc228ec1	-0.0099217305
234	0xbce57aae	-0.0280126
235	0xbd8b8c37	-0.06813853
236	0x3b3683f8	0.0027849656
237	0xbccdfb77	-0.025144322
238	0xbe8221b3	-0.25416335
239	0xbcafe46e	-0.021471228
240	0xbc51eed6	-0.012813291
241	0xbb2ee137	-0.0026684531
242	0x3c690e18	0.014224552
243	0xba90c53f	-0.0011045112
244	0xbe6dd2d0	-0.2322495
245	0x3c0d1266	0.008610344
246	0x3cc4f0bf	0.024040578
247	0x3bd6e2ba	0.0065577896
248	0xbba02d96	-0.004888247
249	0xbbc8cf81	-0.006128252
250	0x3c3eaaf1	0.011637435
251	0x3bc750b6	0.0060826195
252	0xbedf248a	-0.43582565
253	0xbfcde21e	-1.608463
254	0x3e46b9d3	0.19406824
255	0xbeb05e76	-0.34447068
